model/AOA_AOS_10_ms-1/D14_A1.61_S1.84.pt (torch, 24847 bytes, 8 tensors)

weight f4 [50, 2]
00000000: c877 db3e cf59 993d e6d0 253f 0a04 54bf
00000010: afd4 15be 12f0 0cbf 242c 1ebe b16a 0a3e
00000020: 2330 0d3f 6635 91be 3ae8 ea3e f7ee 4bbf
00000030: 6e48 303f 4a12 c5bd ec8e c3bb 75b2 cf3e
00000040: 1457 1fbf 06c4 3dbf a39c 693f c18f 15bf
00000050: 21f2 d7ab 9876 0680 ad20 1cbf 2fa2 323f
00000060: fbcd f2be b746 31bf 0883 453f d1ce 203e
00000070: a550 653f 3804 f23e 90b2 333e df8f 5f3f
00000080: 0c14 d73e 6efd b6be fcb9 713f 0f29 133f
00000090: bac3 3dbf b6e1 41bf 338d 573e 28ef 243f
000000a0: cb79 3ebf 6079 89bd a13f 62be 8c6a cc3e
000000b0: ba66 623f 7cc0 25bf b4a3 55bf d3dd 22bf
000000c0: 957c 4dbf f75e 49bf 37ac 3e3f 4a92 a9be
000000d0: 8333 22bf a076 55be d4d7 693e 6344 35bf
000000e0: 6e46 813f 5c52 da3e a69f 3bbf 0417 373f
000000f0: 259b 5cbf dec4 243f 1bc5 92be 72d3 3bbf
00000100: e7df d7be c9e1 a2bd 233e 1e3f f3c0 47bf
00000110: c11e 9fbe 6262 5d3e 9f96 ec3e c2f3 55be
00000120: f567 6d3f fc51 ed3e e9ea 33bf fe46 fcbd
00000130: 3c8b 5cbe 8e50 643f 8c34 6ebd ced2 183f
00000140: 2b13 53bf 78a0 16bf fb59 02bf 4a32 623d
00000150: 4e5f 5abf aab9 6f3e 5def 413f 18eb 573f
00000160: 5468 66bf 295b cd3e d5cb 2b3f 7c0b 12be
00000170: b991 35bf 1397 1abf 8a40 f539 f6d2 4fbf
00000180: 8a9c 1f3f 04a5 26bf c026 69bf b3f4 79bb
0.42864823 0.07487833 0.6477188 -0.82818663 -0.14631914 -0.5505382 -0.15446526 0.13517262
0.55151576 -0.28361052 0.458803 -0.79661506 0.6886052 -0.09622629 -0.0059679653 0.4056584
-0.62242246 -0.74127233 0.91254634 -0.58422476 -1.5343873e-12 -5.93556e-40 -0.6098736 0.6977872
-0.47422776 -0.6924853 0.7715306 0.15703894 0.8957618 0.47268844 0.17548585 0.87328905
0.42007482 -0.35740227 0.94424415 0.57484525 -0.7412678 -0.7573503 0.21049957 0.64427423
-0.7440459 -0.067126036 -0.22094585 0.3992504 0.88438 -0.6474683 -0.83452916 -0.63619727
-0.8026822 -0.7866053 0.7448153 -0.33119422 -0.6335985 -0.20846033 0.22836238 -0.70807475
1.0099618 0.4264096 -0.7329048 0.71519494 -0.8617423 0.64362895 -0.28666005 -0.73369515
-0.4216301 -0.07953221 0.61813563 -0.7802879 -0.3107815 0.21619561 0.46208665 -0.20893767
0.9273675 0.46351612 -0.7028032 -0.12318228 -0.21537489 0.89185417 -0.05815558 0.5969666
-0.82451123 -0.58838606 -0.5091855 0.05522374 -0.85301673 0.23410669 0.75755864 0.843431
-0.9000294 0.40108612 0.671079 -0.14262193 -0.7092548 -0.6038677 0.00046778127 -0.81181276
0.62348235 -0.65095544 -0.9107475 -0.0038140237

bias f4 [50]
00000000: 9a5d 523f e4c8 363e 1a69 2fbe 866b 5c3f
00000010: 24f8 6d3e 3bf1 ac3d 298f fdbe dfb3 353f
00000020: 28ce a73e 6ceb 9b3e bc8f 93b7 a2f4 cc3e
00000030: 26b9 3cbf 50c1 4b3f a70f a8bb 668a cbbe
00000040: da33 1d3f a3d8 443f 0e9e ec3e 6148 403f
00000050: 1851 d9be 182f 5f3f 8e03 5c3e ef23 b9bd
00000060: 0a25 4b3b 2e8f 29bf 2ba4 ddbe b362 8abd
00000070: 013d 433f f567 4c3e a959 c3be e304 e53e
00000080: 3950 473f fde3 56bf 42fb 7c3c 473f 4e3f
00000090: 1747 da3b 5113 2abf fae2 c6be b4bb a0be
000000a0: cb07 01bf df23 833d cb84 63bf 7fd6 acbf
000000b0: e1cb 73bd ad21 2b3f de44 8e3e a654 2d3f
000000c0: 83fd 6a3f bed9 afbd
0.82174075 0.17850071 -0.17129937 0.8610157 0.2323919 0.084444486 -0.49523285 0.70977587
0.32774472 0.3045305 -1.7590697e-05 0.4003039 -0.73720014 0.79591846 -0.005128819 -0.39754027
0.61407244 0.7689306 0.46214336 0.7511044 -0.42444682 0.87181234 0.21485731 -0.09040057
0.0030997419 -0.662341 -0.43289313 -0.06757107 0.7626496 0.19961531 -0.38154343 0.4473029
0.77856785 -0.8394163 0.015440764 0.80565304 0.0066613066 -0.66435724 -0.38845044 -0.31393206
-0.50402516 0.06403326 -0.888745 -1.3502959 -0.059520606 0.6684826 0.27786916 0.6770729
0.9179308 -0.08586453

weight f4 [50, 50]
00000000: ff2a 4e3e c392 3d3d 218f 453e 98e6 0a3e
00000010: 684a b3bd 1b0f 603e 4fba 9bbe c7a2 753e
00000020: 5663 0b3e 5540 e73d d88b 0280 0ee1 a8bc
00000030: 25a0 1f3d 158b a33e a904 733d 33f3 0fbe
00000040: ad85 b13d 6b86 9f3e b83c 223d 1776 d43d
00000050: c12b 13bf 92cf 1b3e 6a35 743d 8b1a ad3d
00000060: d5f4 d93c f037 863e e3c5 c43e 8ee9 623e
00000070: 89cd f43e 6412 d73d 2e91 34bf c8d7 1f3e
00000080: 8d60 6c3e e7fb c73e 2f43 71be 1da7 153e
00000090: 392d 403e f030 b43e 86b0 28bf 3e78 f4be
000000a0: ca49 c83d 943f 02bc 05b3 c8bf 2da3 12bf
000000b0: 0958 41be 3182 153e f0bf 033e 0968 aa3e
000000c0: 46a1 30be 061d 0a3e 66d4 623e cf08 6c3d
000000d0: f157 063e 06d6 7a3e 7651 e93d 8abd c33d
000000e0: 8229 b83d 9353 e23d aace e73d afda 063d
000000f0: 33f2 0600 6809 283e 5b2b 0ebd 6b52 433e
00000100: 812a 4e3e 18ee ee3d ca33 fd3d 2e7a 2c3e
00000110: 9392 463e 4583 4c3d bd3a 77be 2a09 383e
00000120: 69e4 223e 02c3 ce3d 50c7 893d b683 e03d
00000130: 9cc8 8ebd 99f9 663d 50d3 f63d 37dc 0b3d
00000140: 8792 92be 8793 4b3e 1aa7 ef3c 03c6 773e
00000150: 1377 17bd 402f e23d dbbc d53d 1f83 65bd
00000160: a271 90be ec61 38bc 81a1 ea3d 27da 2f3d
00000170: 8a5a c0be fafb 4cbe 319c c43d 8d0e c93d
00000180: 1ea1 033e 53d8 863e 8921 2b3e b461 bf3d
00000190: 88f1 a6bc d2f8 603d afe5 6bbc 48a2 d0bd
000001a0: 921c f23c a2eb 2c3d 9106 e53c 1e29 cbbc
000001b0: 3a8d 9f3d 6c73 153d 7149 0680 0a5a d23c
000001c0: 7504 1e3f c1fd f3bb 3678 42bc 160c 1bbe
000001d0: 43eb 673c 38e6 92bc 69fa 293d b4c6 55bd
000001e0: 0071 d433 7a0e 26bd e044 293d 44fe d2be
000001f0: 5cd3 6fbe 4c8a 203e 045b 0000 5f6a 673d
00000200: abe4 eebb 7799 3fbd b0b9 da38 cd87 22bc
00000210: 256d 81bd 0e7f 363e e707 edba 1b4f 793b
00000220: 48a7 babb 9738 2f2f 10e3 5cb9 daea 04ba
00000230: 6a5d 043e eefe 13bc 73cc e336 192b 6fb5
00000240: 8186 66bc bb8b ec3b 629f 0fbe 3d68 b13b
00000250: 0b77 7a3c 6269 1d3d 5e1e 713c af53 a03e
00000260: 24e7 ad3c 12fb 5d3d c7ab 9a3d 865f 8e3e
00000270: b94a 9e3c 1c5c 0fbe b0c9 0c3e 28f5 783e
00000280: da58 0200 d69c a0bd eddb 1a3e d0cf 493c
00000290: 5f81 45bd 6b3d c7be c6a8 493e add0 bdbd
000002a0: 6b62 e53d 8777 a6bd bdae 1b3d ddee 2cbd
000002b0: 3645 233e a06b 643e 0f12 e33d 5161 8c3d
000002c0: 8f8b ffbd 95ec 6b3e c4e9 18be ec5c acbd
000002d0: 21d4 413e fe1d 743e 92f9 a0bc 4694 863e
000002e0: 0b1f 853d 91fa 103e 2e15 5ebd be57 453d
000002f0: e6a4 86be ecca 3dbe a121 acbc 4112 d43d
00000300: 1d2e 80be 2b9f 25bf 0a9d d63d 3232 823e
00000310: c880 b03d fedc 703e 9e9d 773e 9f21 343e
00000320: 7212 0f3d 836f 253e 359f 97bd 26f5 d33d
00000330: 6797 853e 784d 81bd 8adc 343e fff2 a03d
00000340: df49 853e fe9e d13d 1955 0380 b242 873d
00000350: 0b47 3dbe 7006 653e 8dda 8a3e fe42 9c3e
00000360: 169c 643e 00af 303e 778b a63e 4478 043e
00000370: 9c77 8cbc fd85 923c e32a 3a3e 0f46 f13d
00000380: d3dd 9f3d 4e2e 803e 5bfc 403d 19b2 0fbc
00000390: 51db d1bc 5e04 20be f9bc a7bd f7ee 663e
000003a0: 4069 08be 91e3 c13d 0835 1a3d e6f4 0d3d
000003b0: 4fc8 e13d a287 a73d 37fb b23d e7bf 683e
000003c0: 5ced 073e 3768 273d c954 0d3f aeea 263f
000003d0: f198 ae3c f682 1d3e 9619 563e 95c7 dd3c
000003e0: 7bfe 903e cd55 853d 0cb5 b23d 8d2b 583e
000003f0: 96a8 543c 9730 ca3d 696a b83d 70a0 8f3c
0.20133589 0.04628254 0.1929288 0.13564527 -0.08754426 0.21880762 -0.3041558 0.23987876
0.13612112 0.11291567 -2.33837e-40 -0.020615127 0.038971085 0.3194205 0.059330616 -0.14057617
0.08668075 0.3115724 0.039608687 0.10374086 -0.5748864 0.152159 0.059621252 0.08452328
0.026606003 0.26214552 0.38432226 0.22159407 0.4781306 0.105015546 -0.70534027 0.15609658
0.23083706 0.39059374 -0.23560785 0.1461453 0.18767251 0.35193586 -0.65894353 -0.47747988
0.09779699 -0.0079497285 -1.5679632 -0.57280236 -0.18881239 0.14600445 0.12866187 0.33282498
-0.17249021 0.13487634 0.22151336 0.057625588 0.13119484 0.24495706 0.113924906 0.09557636
0.08992292 0.11051097 0.11318715 0.032923397 6.37898e-40 0.16409838 -0.034709316 0.19074409
0.20133401 0.116665065 0.123633936 0.16843483 0.19391851 0.049929876 -0.241435 0.17972246
0.15907444 0.100957885 0.06727469 0.10962622 -0.06971857 0.05639038 0.120520234 0.03414556
-0.28627416 0.19880496 0.029254485 0.24196629 -0.036978792 0.110441685 0.10436412 -0.05603325
-0.28211695 -0.011253815 0.11456586 0.042932656 -0.37569076 -0.20017996 0.09600104 0.098172285
0.1285443 0.26336917 0.16712011 0.09344807 -0.020378843 0.054924794 -0.014398023 -0.10187203
0.029554639 0.042216904 0.027957233 -0.02479988 0.07790609 0.036487028 -5.77359e-40 0.0256777
0.6172555 -0.0074460213 -0.011869481 -0.15141329 0.014155212 -0.017932042 0.041498575 -0.05219145
9.892574e-08 -0.04054115 0.04132545 -0.41209614 -0.23420471 0.15677756 3.265e-41 0.056497928
-0.007290443 -0.046777215 0.00010429637 -0.009920073 -0.06319646 0.17821905 -0.001808402 0.0038041535
-0.005696211 1.5936262e-10 -0.00021065422 -0.0005070396 0.1292626 -0.009032948 6.788928e-06 -8.9097153e-07
-0.014070154 0.0072188056 -0.14025643 0.0054140375 0.015287171 0.03843058 0.014716713 0.31313846
0.02122838 0.054194517 0.07552295 0.27807254 0.01932274 -0.1399998 0.13748813 0.2431227
2.15545e-40 -0.07842414 0.15122958 0.012317613 -0.04821908 -0.38914046 0.19693288 -0.09268317
0.11200412 -0.08128267 0.03800844 -0.042219985 0.1594437 0.2230668 0.11087429 0.06854499
-0.124777906 0.23039468 -0.14932925 -0.08416161 0.18928577 0.23839566 -0.019650254 0.26285
0.065000616 0.14158083 -0.054219417 0.04817938 -0.26297683 -0.1853444 -0.02101213 0.10355044
-0.25035182 -0.64695996 0.104791716 0.2542892 0.08618313 0.23521802 0.2418122 0.1759095
0.0349297 0.1615582 -0.07403413 0.10349493 0.26092073 -0.06313604 0.17662254 0.07858848
0.26032922 0.102354035 -3.06034e-40 0.06604518 -0.18484132 0.22365737 0.27119866 0.3051986
0.22325167 0.17254257 0.32528278 0.12936503 -0.017146878 0.017886156 0.18180422 0.11780941
0.078059815 0.25035328 0.047115665 -0.008770489 -0.025617274 -0.15626666 -0.081903405 0.22552095
-0.133214 0.09467233 0.03764823 0.03465738 0.11024534 0.08180167 0.08739322 0.22729455
0.13274139 0.04087087 0.55207497 0.6520184 0.021313163 0.15381989 0.20908198 0.027072707
0.28319153 0.06510506 0.08725938 0.21110363 0.012979647 0.09872549 0.09004671 0.017532557

bias f4 [50]
00000000: 6770 ce3d 220a 843d aa2d bf3b bff9 503c
00000010: 739d 383d a5c5 a23d 0ed5 863d a6af 7bbb
00000020: 9de8 a93c 5ce7 813e ab7d 263e fbfe 8c3e
00000030: f7e0 913d 3706 1fbe 1434 47be ed1b 823e
00000040: 46ad 96bd 5dca 1e3e 49c7 183e 0ccd d53d
00000050: 9469 203e 5951 f23d 69ef a93e 67e7 723e
00000060: 72f5 cbbe 1d60 2f3f ba64 113d c80e 733e
00000070: b0d3 88be eb81 123e 5e12 363e fc81 5f3e
00000080: ea6c 253b c0d9 563e 77fe dc3d 3279 cb3d
00000090: 50ef a03d 4012 893d 9002 5c3e 5e32 803e
000000a0: 1032 063e ff15 5fbd 5d42 873e 5161 2f3e
000000b0: 056f 543d 6995 833c e5b2 8dbb d183 603d
000000c0: d6d5 9d3c 7a4a f03d
0.10080033 0.06447245 0.005834301 0.012754857 0.04507203 0.07947854 0.06583606 -0.0038404255
0.020740801 0.25371826 0.16258876 0.27538285 0.07122987 -0.15529715 -0.1945346 0.2541193
-0.07357268 0.15506883 0.14919771 0.104395 0.15665275 0.11831922 0.33190468 0.23721085
-0.39835697 0.6850603 0.03549645 0.23736107 -0.26724005 0.14307372 0.17780444 0.21826929
0.002524192 0.20981503 0.10790723 0.099352255 0.07858145 0.06692934 0.21485353 0.25038427
0.13105035 -0.054464336 0.2641782 0.17126967 0.05186369 0.016062455 -0.0043243044 0.05481321
0.019267004 0.11732955

weight f4 [50, 50]
00000000: 49c1 dc3d a465 4c3e 4b1a ce3c e045 1cbe
00000010: ab4c 863e 6f5d 903e 1fc7 3c3e 556c 4d3e
00000020: 2291 843e 782d 023d 7a27 dd3a 2bb2 7ebe
00000030: dbbe 673e f639 6d3f 42d3 af3d eb6e 3d3e
00000040: 1e1a 35bd 8db4 753e 0c76 c53d 993b 23be
00000050: c0d0 2a3b 2fbb 34be b1b3 9bbe a266 49be
00000060: e17a f9bd afa7 173f 3277 38bd 552c 89bd
00000070: 6e15 ac3e 866d 9eba 4050 a83e 5cbd 553e
00000080: 86c4 da3b 2ce1 2fbe 48be 283c e4c5 e03d
00000090: c336 203e a152 843e ec3a 743d 2c5c c1bd
000000a0: d9a2 f2bd 319a 37bb 3304 193e 69c6 65be
000000b0: b6c5 863e 39e7 b73e 592e 813d 6c2b 553e
000000c0: c86b 5c3e 8095 5cbc 9b40 abbe 4cc2 c1bb
000000d0: f1ec 113e 66f3 46bc 0540 343e 8202 b13d
000000e0: 9cf8 21be 8d93 5b3d d58e 483b 3126 68be
000000f0: 2288 35be 3dd4 cd3d e69f bd3d fabe 763e
00000100: a966 c13c 32f6 ca3d b91a 673c bc0e c73c
00000110: 78e0 1ebe 4137 7b3e 5f4a 943e 04bf 43be
00000120: 33b9 993e eeb1 833e 4652 90bf 2b53 7bbf
00000130: 3148 3f3e cd9c 613e 4797 8fbe e9ce 133e
00000140: 877e 04bf 47b7 0abd 899a 32bc f540 f8bc
00000150: 70ab 8b3e a681 5c3e 14e0 523e 02ab a4be
00000160: 549c 893e 87a3 b83d f5b2 953e 9b98 4fb8
00000170: 8053 72be fd76 943e d4e6 ba3d b89f bd3d
00000180: 64ad 8a3d 2e1d 583e f3e1 65be 8233 613e
00000190: 0aee b2be ae33 833e b0a5 143e e0e3 e1bd
000001a0: 46ab 9f3d df78 1fbe f04d 0bbc 5e59 243e
000001b0: f323 433c 42a3 c5be a2a8 3dbe 6bf5 333e
000001c0: 46ef 0f3e ace4 043f 23ad 8c3e a258 3a3e
000001d0: b15b 543a f294 013e 0a57 95be 46f1 7e3e
000001e0: b033 343d 4c76 2ebe 2d84 3e3e 400a 333e
000001f0: d67d 8ebf 14c9 7abf 2e92 f23d 03f4 753e
00000200: 0bb9 43bd 1dfd 8a3e 48e8 01bf 1bf1 7d3e
00000210: f5c6 69ba 6fa6 5fbe 630e 623d 4a5e d33d
00000220: 490b 8f3e cecc c9be 3393 943e 4b65 a53e
00000230: 6c52 0f3e af38 ce9b b240 68be f834 b83d
00000240: 1b7a bc3d 784a bd3d 2855 4f3e ffdd ef3d
00000250: 3edd 5dbe 2933 883e 4fef cc3d d254 c13d
00000260: 0d6a edbd 77bc 6f3e 103b 023e a4d5 da3d
00000270: 59d2 683e a7e6 0d3e fde0 a6bc 2f5a af3d
00000280: 0712 9d3e 8cee 87be 78ea 1fbe 6128 ddbe
00000290: 78c1 2b3e 3959 073e 71ba d4bb d36b 4f3e
000002a0: 712d 8a3e cf96 3e3e 0872 56bd c9fd 853e
000002b0: 38d1 abbd 6c9e b0be ff0c 8d3f ed94 763f
000002c0: aafa 5bbe c2ea 94be 1642 d33d e576 efbc
000002d0: dca5 003f 788b 443e 5af0 3a3c 0dcb 193e
000002e0: d011 88be bd68 2b3d d653 753b 5e7d 7b3e
000002f0: 46c2 93bc 2b80 163e 07f3 fb3d 4ec7 0cb0
00000300: 7961 933e 6e39 c03d 3af4 b03c 2579 b7bd
00000310: 3186 abbe bfe9 a43c 7a2d 5a3e c855 e1bd
00000320: f220 efbd c7e3 3c3d beb5 5e3d e87d d5bc
00000330: 149b 893e cb7f b53e f1b9 a13d 560e 6e3e
00000340: 2321 763e 3314 443e 99db 31be d621 79be
00000350: e21e 1c3e 39f5 b63f c33b ba3d 2a21 283e
00000360: 5fce 11b7 6d44 8c3e 972b b53d a969 36be
00000370: eaf9 db3c da2a 40be 2c03 f7bd 36dc 32be
00000380: 025c 5ebe f51b 033f c12c 18be d269 14be
00000390: 332d de3e 7065 013e 4b8e 933e 2557 213e
000003a0: 5428 0500 ba7c 6abe 6b11 c93d 7798 303e
000003b0: 6e4b 143d cc93 493e 09c0 1e3e 3684 74bd
000003c0: f967 3fbe e721 0000 74c7 d13c 693f ccbd
000003d0: fa44 203e 17a4 003f d2eb 41bd c338 a23e
000003e0: 188c 5a3e f60b 4c3e 7f0d 86be 83f3 6339
000003f0: cad5 713e fb69 133e acee 113e 6331 8b3e
0.10779054 0.19960648 0.025159022 -0.1526103 0.26230368 0.28196284 0.18435334 0.20060857
0.25891978 0.031781644 0.0016872727 -0.24872653 0.226314 0.92666566 0.08585216 0.18499343
-0.04421436 0.23994656 0.09641656 -0.15940703 0.0026064366 -0.1764953 -0.3041053 -0.19668058
-0.121816404 0.5924024 -0.04503555 -0.06697909 0.336101 -0.0012087084 0.32873726 0.20873016
0.0066762595 -0.1717574 0.010299273 0.10975245 0.1564589 0.2584429 0.059626505 -0.094414085
-0.11847467 -0.002801549 0.14943008 -0.22438969 0.26322716 0.35918596 0.06307668 0.20817345
0.2152549 -0.013463378 -0.33447728 -0.0059130546 0.14250542 -0.012142992 0.17602547 0.086430565
-0.15817493 0.053607512 0.0030602713 -0.22670819 -0.17727712 0.10050247 0.09259014 0.2409629
0.023608522 0.09910239 0.014105492 0.024299018 -0.15515316 0.24532796 0.2896299 -0.19115835
0.30024108 0.25721687 -1.1275108 -0.9817378 0.18679883 0.22032471 -0.28045103 0.14434399
-0.51755565 -0.033866193 -0.010901102 -0.030304411 0.27279234 0.21533832 0.20593292 -0.3216172
0.2687708 0.09015565 0.29238096 -4.949477e-05 -0.23664665 0.2899703 0.09126058 0.092589796
0.06771353 0.21104881 -0.22449474 0.21992305 -0.34947234 0.25625366 0.1451633 -0.11029792
0.0779634 -0.15573452 -0.0085024685 0.16049716 0.011910426 -0.38601118 -0.1852136 0.17574088
0.1405612 0.51911426 0.27475843 0.18197873 0.0008100821 0.12654474 -0.29167968 0.24896726
0.043994606 -0.17037314 0.18605109 0.17484379 -1.1132152 -0.9796307 0.11844288 0.24018864
-0.047783893 0.27146235 -0.5074506 0.24799006 -0.00089178915 -0.21840833 0.0551895 0.103207186
0.27938297 -0.39414066 0.29018554 0.32303843 0.13996285 -3.4116472e-22 -0.2268093 0.08994478
0.09202977 0.092427194 0.20247328 0.11712264 -0.21666428 0.26601532 0.10006582 0.09440006
-0.11592493 0.23411737 0.12717843 0.1068528 0.22736491 0.13857518 -0.020370955 0.08562123
0.30677816 -0.26549184 -0.15616786 -0.4319487 0.16773021 0.1321763 -0.006491952 0.20255975
0.26987794 0.18612216 -0.052354842 0.26170185 -0.08389515 -0.34495866 1.1019591 0.9632099
-0.2148234 -0.29085356 0.10315339 -0.029231498 0.5025308 0.19193828 0.011409843 0.15018864
-0.2657609 0.041847933 0.0037434003 0.24559543 -0.018036973 0.1469733 0.12302213 -5.121493e-10
0.28785303 0.09385954 0.021600831 -0.08958653 -0.33500817 0.02013099 0.2130641 -0.110026896
-0.11676206 0.046115663 0.05437254 -0.026061013 0.26876128 0.3544906 0.07896794 0.23247656
0.24036078 0.1914833 -0.17368926 -0.24329314 0.15246156 1.4293586 0.0909343 0.16418901
-8.690723e-06 0.27395955 0.08846205 -0.17813744 0.026852567 -0.18766347 -0.12061152 -0.17466816
-0.21714786 0.51214534 -0.14860822 -0.14493492 0.4339386 0.12636352 0.28819498 0.15755899
4.73644e-40 -0.22899142 0.09817775 0.1724566 0.036204748 0.19685286 0.15502943 -0.0596964
-0.18692006 1.2162e-41 0.025607802 -0.09973032 0.15651312 0.5025038 -0.047344036 0.3168393
0.21342504 0.19926438 -0.26182172 0.00021739122 0.2361671 0.14395897 0.14251202 0.27186117

bias f4 [50]
00000000: 4e39 c83d fb62 7c3d 62bf 483e 97de 3c3e
00000010: 0d59 06bd 57b9 f33e bb2b 3e3d 6dab 0e3e
00000020: d590 b93d b91d 1b3e 2822 283e 42dc 423e
00000030: e241 ca3d a243 2f3e 4004 873e 600d 6f3d
00000040: c6dd 1b3e 874b 463e 12f4 0abd d225 743d
00000050: 88d5 7f22 c5af 8a3d d283 cd3d 355d 243d
00000060: da67 de3d a2b4 08be 2fec 343d 7df8 e73d
00000070: 60fc 333e 3d48 b3be 1cf7 763c 8673 083e
00000080: 8bcb fcbc dad1 04bf 328b 5d3e 0e10 0f3e
00000090: cea8 8a3d 3290 843d 66b0 473e e046 483d
000000a0: 6aff a53d acb5 c9bc edfa 523e b13a f3bb
000000b0: 7491 a53d 336c a8bd 78b1 eb3c 404f 813d
000000c0: c99c 223e 8125 a3b2
0.09776555 0.061617833 0.19604257 0.18444286 -0.03279977 0.4760234 0.046428423 0.13932581
0.09060828 0.15148057 0.1641928 0.19029334 0.098758474 0.17115644 0.2637043 0.058362365
0.15221319 0.19364749 -0.03392417 0.05960638 3.4671987e-18 0.06771807 0.10034908 0.04012795
0.10859652 -0.13350156 0.044170555 0.11326692 0.17576742 -0.3501605 0.015073564 0.13325319
-0.030858776 -0.5188271 0.2163513 0.13970968 0.06770478 0.064728156 0.19500884 0.048895717
0.08105357 -0.02462276 0.20603533 -0.007422768 0.080843836 -0.08223762 0.028771147 0.06313944
0.15880121 -1.8992752e-08

weight f4 [2, 50]
00000000: 6727 77be 71d9 b53e 5a07 933e b886 88be
00000010: c6b1 4abe cab5 1e3f 65ed 82be f9d2 8b3e
00000020: 8da6 c6be bdfc 9c3e 1369 19bf 8587 9a3e
00000030: 72ee 983e fe7c 9a3e 65a1 6e3e 0242 8ebe
00000040: e0aa 95be 5629 47be 20f5 48be f4a4 84be
00000050: 669a 003b 9460 083d 6430 f63e 6d9a ac3e
00000060: 63d1 3e3e d50f e1bd 28d8 b53c cc6b dd3e
00000070: 986e 813e d726 50bf e4f2 9b3e f72e 43bd
00000080: cb0a a4be 8bab ee3f 1bec a53e dc79 953e
00000090: 909f 163d c66a a9be c9f5 0dbe f50b 853e
000000a0: 1ff7 9c3e fbf6 d73b 2c15 b73d b916 6cbe
000000b0: 5a72 263f b69a 083b f5e5 2e3f 4126 59bd
000000c0: 3666 723e cffd b2b5 ebe3 57be 5220 8fbe
000000d0: 7919 7cbe f7fc 893e 46a0 63be 38d2 f5bf
000000e0: 202d 50be 062d 6a3e 544b 763f 4abd 2e3e
000000f0: a8e0 813f 6ffa fb3c ee36 353b 935e 59be
00000100: c77f 873e 259f 8b3e 616f 873e e0de 6b3e
00000110: 2d89 83be 67db a63d e1a1 5eb6 4251 3c3d
00000120: d473 a7bd 6946 663e 2dee 633e d553 cebd
00000130: d7c2 663e 3ea7 bdbe fd43 8c3e 8450 c8bf
00000140: 19d9 943e 1950 96be d03f 85bf 34c2 953f
00000150: 0be7 89be 3d6b 813e 261c a03d 032b b03e
00000160: 0d2e 83be af37 6d3e 5b9e 6dbe fc96 a0bb
00000170: b9a2 a53e cb71 843e 74dd f0be 1f00 6d3c
00000180: 5236 b6be 39fa 083d 9887 533e 2c7c c035
-0.24136125 0.35517457 0.28716546 -0.26665282 -0.19794378 0.6199614 -0.25571743 0.27309397
-0.38798943 0.30661574 -0.59925956 0.30181518 0.2986942 0.30173486 0.23303755 -0.27784735
-0.2923193 -0.19449362 -0.19624758 -0.259071 0.0019623279 0.03329523 0.48083794 0.33711568
0.18634562 -0.10989348 0.022197798 0.43246305 0.2527969 -0.81309265 0.30458748 -0.04765221
-0.32039484 1.8646101 0.32406697 0.29194534 0.036773264 -0.33089274 -0.13863291 0.25985685
0.30657288 0.0065907217 0.08939585 -0.23055543 0.65018237 0.0020844168 0.68319637 -0.053014997
0.23671803 -1.3335901e-06 -0.21083038 -0.27954346 -0.24619092 0.2695081 -0.22229108 -1.9204779
-0.20329714 0.22868738 0.9620869 0.17064396 1.0146685 0.030759064 0.002765115 -0.21227483
0.26464674 0.27269855 0.26452163 0.23034239 -0.25690594 0.081473164 -3.3174804e-06 0.04597593
-0.08176389 0.22487797 0.22258826 -0.100745834 0.22535263 -0.37041658 0.2739562 -1.5649571
0.29071882 -0.29357985 -1.0410099 1.1699891 -0.26934084 0.2527713 0.07817869 0.34407815
-0.2562107 0.23165773 -0.23204939 -0.0049008112 0.3235071 0.25868067 -0.47043955 0.014465361
-0.35588318 0.033441756 0.20657194 1.4341254e-06

bias f4 [2]
00000000: 72fd a83d 7d9e 36be
0.08251466 -0.17833896
