model/AOA_AOS_10_ms-1/D25_A1.59_S1.66.pt (torch, 24847 bytes, 8 tensors)

weight f4 [50, 2]
0	0xbf2360d9	-0.6381965
1	0x3e7f9339	0.24958505
2	0x00028001	2.2959e-40
3	0x0002c81b	2.55455e-40
4	0x3f35f2bd	0.71073514
5	0xbec3e186	-0.38257998
6	0x1990d414	1.4974909e-23
7	0x800669cc	-5.88966e-40
8	0x3f1a3979	0.60243946
9	0xbe774c8d	-0.24150296
10	0x3f296b37	0.6617922
11	0xbf44dd90	-0.7690058
12	0x3eacaa06	0.33723468
13	0xbeca0f06	-0.39464587
14	0x3efea30e	0.49733776
15	0x3f5302e6	0.824263
16	0x3f4738b4	0.778209
17	0xbd68dfe7	-0.056854155
18	0xbe91f9ba	-0.2851084
19	0xbf0f2c89	-0.5592733
20	0xbe896e68	-0.26842046
21	0x3f0ea1b1	0.5571547
22	0xbf5801d5	-0.84377795
23	0x3d91beda	0.0711648
24	0x3e995b60	0.29952526
25	0x3f107bad	0.56438714
26	0x3f630ad0	0.88688374
27	0xbf4b9c36	-0.79535234
28	0x3f668a42	0.90054715
29	0x3eb754a9	0.35806778
30	0xbe2eaa30	-0.17057109
31	0xbf4863a3	-0.78277034
32	0x3f48f8cc	0.78504634
33	0x3e1fc20c	0.15601367
34	0x3ca390f7	0.019966586
35	0x3ee23f0f	0.44188735
36	0xbf621c49	-0.8832441
37	0xbc9e5976	-0.019329768
38	0xbf0e5db9	-0.5561176
39	0x3e9059d4	0.28193533
40	0xbec163ec	-0.37771547
41	0x3e166273	0.14685993
42	0xbf3d7edb	-0.7402169
43	0xbf015cfe	-0.5053252
44	0x3f2a5211	0.66531473
45	0x3f122201	0.57083136
46	0x3f2ab900	0.6668854
47	0x3ec881bc	0.3916148
48	0xbe421936	-0.1895493
49	0x3f54e5e3	0.8316328
50	0x3f4586a3	0.77158564
51	0x3df6e0e9	0.12054617
52	0x3f0b425c	0.5439813
53	0xbf3012ea	-0.6877886
54	0x8000fe8e	-9.1317e-41
55	0x8000717c	-4.071e-41
56	0xbee02541	-0.43778422
57	0x3ea050a1	0.31311515
58	0x3ecac721	0.39605048
59	0x3e32af86	0.1744977
60	0xbf014633	-0.5049774
61	0xbf2a002c	-0.6640651
62	0xbdafb617	-0.08579653
63	0xbf42629b	-0.7593171
64	0x3f2ab471	0.6668158
65	0x3dbd685a	0.09248419
66	0xbf61ce24	-0.8820517
67	0x3f46c0a2	0.77637684
68	0xbf3af9be	-0.73037326
69	0x3f427c60	0.7597103
70	0xbe23bbca	-0.15989605
71	0xbf6aea80	-0.9176407
72	0xbecc128f	-0.3985791
73	0x3f5ceb0d	0.8629616
74	0x3f3e3888	0.7430501
75	0x3ee2d16c	0.443004
76	0x3f4b75ea	0.794768
77	0x3f42b916	0.7606367
78	0x3f2abe12	0.66696274
79	0xbf53c576	-0.82723176
80	0xbdda2fe4	-0.10653666
81	0xbf81cb1c	-1.0140109
82	0xbf230200	-0.63674927
83	0xbf241465	-0.6409362
84	0x8006c125	-6.203e-40
85	0x0490dfd2	3.4059784e-36
86	0x3f19bcae	0.6005353
87	0xbf5c5a39	-0.8607517
88	0x3ed3f7f2	0.41400105
89	0x3f63194f	0.8871049
90	0x3d9f371e	0.07774185
91	0xbf52ce6e	-0.82346237
92	0x3f3124c1	0.69196707
93	0x3f2b1fb7	0.6684527
94	0x00000cc2	4.577e-42
95	0x00005316	2.9806e-41
96	0xbf0612c1	-0.52372366
97	0x3f272dc3	0.653042
98	0x3e587bae	0.2114093
99	0xbf3131d7	-0.69216675

bias f4 [50]
0	0x3e982138	0.29712844
1	0xadc47f27	-2.2339087e-11
2	0xbf38ade4	-0.72140336
3	0xb5f2caa8	-1.8089386e-06
4	0xbd8db4bd	-0.06919239
5	0x3f060bb9	0.5236164
6	0x3f117469	0.5681825
7	0xbde8b734	-0.11363068
8	0xbf13b7c7	-0.57702297
9	0x3f6bbd91	0.9208613
10	0x3f25b90d	0.6473549
11	0xbe359e66	-0.17736205
12	0x3df34577	0.11878484
13	0xbc937860	-0.018001735
14	0xbeb675c9	-0.35636738
15	0xbe79999e	-0.24375007
16	0x3f58e578	0.8472514
17	0x3f3b9740	0.73277664
18	0xbedee316	-0.43532628
19	0x3ea82724	0.32842362
20	0x3f510f35	0.8166383
21	0x3f2bdd66	0.671347
22	0x3e358935	0.17728122
23	0x3e5f379e	0.2179856
24	0x3f4d3559	0.8015953
25	0xbe434aae	-0.19071457
26	0x3f0d5c60	0.5521908
27	0xb7b0d903	-2.1081889e-05
28	0x3f41e523	0.7574026
29	0x3efc8b87	0.493252
30	0x3f578889	0.8419271
31	0x3f138b12	0.5763408
32	0xbe42e30a	-0.19031921
33	0xbdd0feb5	-0.102048315
34	0x3deba4d2	0.11506046
35	0x3ef8b56b	0.4857591
36	0xbf3a2133	-0.7270691
37	0x3f6726b4	0.9029343
38	0x3e9d5609	0.30729702
39	0x3b7a6f6e	0.003821339
40	0xbf021da7	-0.50826496
41	0xbf79e294	-0.97611356
42	0xb63aae2d	-2.7817543e-06
43	0xbf745de8	-0.9545579
44	0xbf378b3e	-0.7169684
45	0x3e206938	0.15665138
46	0x3f1da663	0.6158201
47	0x98661073	-2.9735108e-24
48	0xbd8a0b25	-0.06740407
49	0x3f51bfed	0.8193348

weight f4 [50, 50]
0	0xbdbfb72d	-0.0936111
1	0x805cdec6	-8.528782e-39
2	0x3e962b55	0.29329935
3	0x8004316a	-3.85068e-40
4	0x3bd74d39	0.006570485
5	0x3e4b62dd	0.19861932
6	0x3e1b3f9f	0.15160988
7	0x3e9444dc	0.28958786
8	0xbd14e489	-0.03635076
9	0x3e1ae8e2	0.151279
10	0xbcb207ce	-0.021732237
11	0xbea781ee	-0.32716316
12	0x3e0e42c6	0.1389266
13	0x3e7121c2	0.23548034
14	0x3dbb4f07	0.09145933
15	0x3d434ea7	0.04768243
16	0x3e0cdd72	0.1375635
17	0x3e07d176	0.13263497
18	0xbdc63f7f	-0.0968008
19	0x3d3f236e	0.046664648
20	0x3e723597	0.23653255
21	0x3e28b98b	0.16477029
22	0x3e9702f2	0.29494435
23	0xbd42699f	-0.04746401
24	0x3de5c22d	0.11218677
25	0xbcbae71f	-0.022815285
26	0x3e44a0a0	0.19201899
27	0x00075a0d	6.75153e-40
28	0xbbc1260b	-0.0058944277
29	0x3d646a14	0.055765226
30	0x3e36fa7a	0.17868987
31	0x3c817407	0.015802396
32	0x3d8a23e9	0.067451306
33	0xbd98bfbe	-0.07458447
34	0xbe0a1b44	-0.13486964
35	0x3e264576	0.16237435
36	0x3d6e146e	0.058124952
37	0x3e5d66f8	0.2162131
38	0x3e24a39b	0.16078036
39	0x3dfb3748	0.122664034
40	0xbb67a716	-0.0035347394
41	0x3f08fe55	0.5351308
42	0x8005d6ac	-5.36187e-40
43	0x3e8bf308	0.27333856
44	0x3e22c8bd	0.15896888
45	0x3e250b6d	0.1611764
46	0x3e8639cc	0.2621597
47	0x80034f44	-3.03942e-40
48	0xbcd0d37b	-0.025491467
49	0x3e7673e5	0.24067648
50	0x3df28015	0.11840836
51	0xaab59ed3	-3.2262265e-13
52	0x3eb635cf	0.35587928
53	0x80035bdb	-3.08458e-40
54	0x3d8f3dd2	0.06994213
55	0x3e1145d0	0.14186788
56	0x3d7d7fcf	0.061889466
57	0x3e40fb0c	0.18845767
58	0x3ed90890	0.42389345
59	0x3d1d8571	0.038457338
60	0x3d568647	0.05237415
61	0x3e398ca0	0.1812005
62	0x3e1d3ce3	0.15355258
63	0xbd026acc	-0.03184013
64	0xbdcdb7a3	-0.100447915
65	0x3e1eed00	0.15520096
66	0xbedae13f	-0.42749974
67	0xbe28f31e	-0.16498992
68	0xbcc65d88	-0.024214521
69	0x3dbbdc36	0.09172861
70	0x3e15405b	0.14575331
71	0x3e4fbec8	0.20287621
72	0xbea10e1d	-0.3145608
73	0xbd837e8a	-0.0642062
74	0x3c9ba836	0.019001108
75	0x3e75aa59	0.23990764
76	0x3d8ef337	0.06979983
77	0x8006ece6	-6.35996e-40
78	0x3e205c04	0.15660101
79	0xbeac4f00	-0.33654022
80	0x3d832773	0.06404009
81	0x3e66cccb	0.2253906
82	0x3d7dd5ee	0.061971597
83	0x3e1573a6	0.14594898
84	0xbc311947	-0.010809249
85	0x3e321762	0.17391732
86	0x3f2d2c3d	0.6764563
87	0xbf235b5e	-0.6381129
88	0xbee44b29	-0.44588593
89	0x3e1bb87c	0.15207094
90	0x3e857aa1	0.2607012
91	0x3b7a8e87	0.0038231926
92	0x807b34e4	-1.131474e-38
93	0x3e48a68b	0.19594781
94	0x3e42587c	0.18979067
95	0x3ed1dc7b	0.40988526
96	0xbecd443e	-0.40091127
97	0x0000ab4b	6.1448e-41
98	0x3da11c99	0.07866783
99	0x3cbb1ea6	0.022841763
100	0x3e4c4c1c	0.19950908
101	0x0000598f	3.2128e-41
102	0xbe7190db	-0.23590414
103	0x80026fdd	-2.238e-40
104	0x3dc6e463	0.0971153
105	0xbd5ca6b3	-0.053869914
106	0x3ec7893d	0.38971892
107	0xbddd3e7a	-0.10802932
108	0xbe89092e	-0.26764816
109	0x3c37a677	0.011209122
110	0x3e94e936	0.29084176
111	0x3e7a6746	0.24453458
112	0xbde2f3c0	-0.11081648
113	0x3e0dd8b6	0.138522
114	0x3e0abf9b	0.13549654
115	0x3e4e7b69	0.20164265
116	0x3e1c3bfd	0.15257259
117	0xbd275907	-0.040856387
118	0x3e005ada	0.12534657
119	0x3e49cd86	0.19707307
120	0x3e1f20ec	0.15539902
121	0xbd33de49	-0.04391316
122	0xbe27ae89	-0.16375174
123	0x3d150ad1	0.03638727
124	0x3e16b00f	0.14715599
125	0x3e23805a	0.15966931
126	0x3c227bae	0.009917183
127	0x80044c18	-3.94639e-40
128	0x3e07fdb2	0.13280371
129	0x3e84f735	0.25969854
130	0x3dc6f1d7	0.09714096
131	0xbdb2b9ec	-0.08726868
132	0x3d7b6ab9	0.061381076
133	0x3df1bdf2	0.11803807
134	0x3e2cb60b	0.16866319
135	0x3dc4774c	0.095930666
136	0x3e87dcaf	0.26535556
137	0x3e52aaf6	0.20573029
138	0xbe1b37f2	-0.1515806
139	0x3db63377	0.08896535
140	0x3ec1a9f8	0.37824988
141	0x3e808bef	0.2510676
142	0x8005281e	-4.73569e-40
143	0xbe834c63	-0.25644216
144	0xbda224ec	-0.079171985
145	0x3ec1bd5f	0.3783979
146	0x3d002b51	0.03129131
147	0x00063266	5.69093e-40
148	0x3df9b38f	0.12192451
149	0xbd54606e	-0.051849775
150	0x3e83a3fc	0.25711048
151	0x80044f32	-3.95752e-40
152	0x3ef36939	0.47541216
153	0x0005ea22	5.43169e-40
154	0xbcb8ad71	-0.02254364
155	0x3e4727bf	0.19448756
156	0xbd8d217c	-0.06891152
157	0xbe78775e	-0.24264285
158	0x3ef79538	0.48356032
159	0x3dfc62ba	0.12323518
160	0xbed488f2	-0.4151073
161	0x3e11e7bb	0.14248554
162	0xbeaf1dc9	-0.34202412
163	0x3e50f291	0.20405032
164	0xbdbe895f	-0.09303545
165	0x3e019a35	0.12656482
166	0x3d95b99d	0.073107935
167	0x3d52fe80	0.05151224
168	0x3ef8a3ff	0.4856262
169	0x3e3c8038	0.18408287
170	0x3d60e558	0.05490622
171	0x3ecfeb05	0.40608993
172	0x3c47d2ab	0.012196223
173	0xbac31a07	-0.0014885076
174	0xbe5a7b77	-0.2133616
175	0xbc852749	-0.016254084
176	0x3d934f02	0.07192804
177	0x00048050	4.13372e-40
178	0xbdcd0eca	-0.100125864
179	0x3d07d5c5	0.03316285
180	0x3d64dc6e	0.05587428
181	0xbd897bae	-0.06713043
182	0x3cab0809	0.020877855
183	0xbbec1207	-0.0072042975
184	0xbe0a953d	-0.13533492
185	0x3e71c26c	0.23609322
186	0xbea77514	-0.3270651
187	0x3e60e92d	0.2196395
188	0xbd1ad739	-0.03780291
189	0x3e31401e	0.17309615
190	0x3e8b3a9f	0.27193162
191	0x3f4dd7ac	0.80407214
192	0x8001a20a	-1.49964e-40
193	0x3eaba982	0.33527762
194	0x3e9d0fbc	0.30676067
195	0x3dd56a87	0.10420709
196	0x3de92d62	0.11385609
197	0x80041ee1	-3.78419e-40
198	0xbe3c3de5	-0.18382986
199	0xbcd43731	-0.025905224
200	0x3e421f11	0.18957163
201	0x00068f5d	6.02442e-40
202	0xbd71bff1	-0.05902094
203	0x0000e71f	8.291e-41
204	0x3e52d92e	0.2059066
205	0x3e4ee4b2	0.20204428
206	0x3e435834	0.19076616
207	0x3dad32cc	0.08456954
208	0x3e710a61	0.23539115
209	0xbd8b893e	-0.06813286
210	0x3e1b0f7b	0.15142624
211	0x3e56d49d	0.20979543
212	0x3cd09b42	0.025464658
213	0x3dadaada	0.08479853
214	0x3ddd69b7	0.10811179
215	0xbe291ca4	-0.16514832
216	0x3e062db1	0.13103367
217	0x3e02789c	0.12741321
218	0xbd724365	-0.059146304
219	0x3e1c3392	0.15254048
220	0x3dfcc090	0.12341416
221	0x3c3ff88f	0.011716976
222	0x3e159983	0.14609341
223	0x3e51b085	0.20477493
224	0x3e5aa3d2	0.21351555
225	0x3e839f2f	0.25707385
226	0x3db2f62e	0.08738361
227	0x8005621c	-4.94372e-40
228	0x3e7580c5	0.23974903
229	0x3e3ae628	0.1825186
230	0xbbdd1b75	-0.006747658
231	0x3d97b786	0.07408051
232	0x3df0bc7b	0.117547
233	0x3e96259b	0.29325566
234	0x3dff8e5d	0.124783255
235	0xbe19fbc6	-0.1503745
236	0xbd916e95	-0.0710117
237	0xbd45bd04	-0.048275962
238	0x3e157929	0.14597
239	0x3e8ddccd	0.2770752
240	0xbef0c025	-0.47021595
241	0xbed1dcbf	-0.40988728
242	0x8000f7b1	-8.8855e-41
243	0x3e28620c	0.16443652
244	0x3ca60d53	0.020270025
245	0xbdd91dee	-0.10601412
246	0x3e1740a8	0.14770758
247	0x80017d4c	-1.36784e-40
248	0x3e1e3739	0.15450753
249	0x3e64287d	0.2228107
250	0xbdde1d57	-0.1084544
251	0x8006ebfc	-6.35668e-40
252	0x3e9260e1	0.28589538
253	0x803113b2	-4.507005e-39
254	0x3d106090	0.03524834
255	0x3d37a7ca	0.04483775

bias f4 [50]
0	0x3e279440	0.16365147
1	0x3be7cfd8	0.0070743375
2	0x3e70efe7	0.23529015
3	0x3dc55cca	0.09636839
4	0x3d3f27fb	0.046668988
5	0x3e321935	0.17392428
6	0xbeef09cf	-0.4668717
7	0xbd21201b	-0.03933726
8	0xb6b60981	-5.425129e-06
9	0x3dc718bc	0.097215146
10	0x3e82a879	0.2551916
11	0x3deaba69	0.11461336
12	0x3d08187d	0.03322648
13	0x3e2748dc	0.16336387
14	0x3e5297c1	0.20565702
15	0x3e984dad	0.29746762
16	0x3e11b26d	0.1422822
17	0xbd8a26bb	-0.067456685
18	0x3deb4ed9	0.11489648
19	0xbe1b990f	-0.15195106
20	0x3e0068fd	0.1254005
21	0xbb6b41ba	-0.003589733
22	0x3e26971d	0.16268583
23	0xbd92c092	-0.07165636
24	0x3e6e1a22	0.23252156
25	0xbf54429e	-0.8291415
26	0x3dec9715	0.11552254
27	0x3d7fd21e	0.062456243
28	0x3e3d4d7f	0.18486594
29	0x3dde8faf	0.10867249
30	0x3c91b30c	0.017785572
31	0xbe81b893	-0.2533613
32	0xb7339df4	-1.0706008e-05
33	0x3f1992b9	0.59989506
34	0x3e11c490	0.14235139
35	0x3e56a80d	0.20962544
36	0x3ddd423b	0.10803648
37	0x3e0c14dd	0.13679834
38	0x3cf462df	0.029832302
39	0x3e7dec23	0.2479711
40	0xbdad8f32	-0.08474578
41	0x3e648735	0.22317202
42	0xbd3d824d	-0.046266843
43	0x3dbc0147	0.09179931
44	0x3dc43d39	0.0958199
45	0x3e58d155	0.21173604
46	0x3cda76fb	0.026668062
47	0x3d09d72e	0.033652477
48	0x3d830df0	0.06399143
49	0x3d97fa8f	0.07420837

weight f4 [50, 50]
0	0x3e36a2f6	0.17835602
1	0x3e6d508a	0.23175254
2	0x3d80eb68	0.062949
3	0x3d12d0ad	0.03584354
4	0xbe2b996a	-0.16757742
5	0x3e9bd99c	0.3043946
6	0x3db8f4aa	0.09031041
7	0xbed5bdbc	-0.41746318
8	0x35829de4	9.731707e-07
9	0x3e00f1a2	0.12592176
10	0x3d64a4f1	0.055821363
11	0xbe187276	-0.14887413
12	0xbe199b5f	-0.15000676
13	0xbe45d1cc	-0.19318312
14	0xbdc361cd	-0.095401384
15	0x3d876e76	0.066128656
16	0x3dacbea0	0.08434796
17	0xbe10b643	-0.14132027
18	0x3e65325d	0.22382493
19	0xbd443432	-0.04790134
20	0x3e87ae86	0.26500338
21	0xbd3b18a5	-0.0456778
22	0x3e235721	0.15951206
23	0x3e12ea0e	0.14347097
24	0x3e950817	0.29107735
25	0xbd4f5407	-0.050617244
26	0x3e272400	0.16322327
27	0x3e6613a1	0.22468425
28	0x3cec9646	0.02888025
29	0xbdd30f94	-0.10305706
30	0x3d49574d	0.049155522
31	0xbeed8320	-0.46389103
32	0xb4cac8de	-3.7771582e-07
33	0xbf393b26	-0.7235588
34	0xbe5b5c1f	-0.2142186
35	0xbe2b16a5	-0.16707857
36	0x3df4e9b3	0.11958637
37	0x3df0f91e	0.11766265
38	0xbdce2f64	-0.10067633
39	0x3c9562aa	0.018235523
40	0x0005dcb4	5.38351e-40
41	0x3e347865	0.17624052
42	0x3dcfb8e1	0.10142685
43	0x3e837161	0.2567244
44	0x3e3e979e	0.18612525
45	0x3e0b638e	0.13612196
46	0xbed6d391	-0.41958287
47	0x3e74d7a7	0.2391039
48	0x3d944625	0.072399415
49	0x3d132608	0.03592494
50	0x3c313bf4	0.010817517
51	0x3e8f4557	0.2798259
52	0x3e02be1f	0.12767838
53	0xbe2de212	-0.1698077
54	0x3e38cbb7	0.18046461
55	0xbe531143	-0.20612054
56	0x3f0a1132	0.5393249
57	0xbf1405f5	-0.5782159
58	0xb5fe6074	-1.8952546e-06
59	0xbcbfc10a	-0.023407478
60	0x3d1b713b	0.037949782
61	0x3d70d650	0.058798134
62	0x3df49153	0.11941781
63	0xbe3ab4a8	-0.18232977
64	0x3b6bde7b	0.0035990763
65	0x3e5de682	0.21669963
66	0x3c94313b	0.018089881
67	0x3d99ecfc	0.07515904
68	0x3e49dcb6	0.19713101
69	0xbf22af3c	-0.63548636
70	0x3d9930d3	0.074800156
71	0x3e2b6681	0.16738321
72	0xbde5f7c6	-0.112289
73	0x3e4b6eb8	0.19866455
74	0x3e8a4e8d	0.27013054
75	0x3f9033f7	1.1265858
76	0xbe6915a4	-0.22762161
77	0x3e8e3aa2	0.27779108
78	0x3dc245e7	0.09485989
79	0xbe4291a7	-0.19000874
80	0xbe19b40f	-0.15010093
81	0x3e8353d6	0.256499
82	0x3587b883	1.0111984e-06
83	0x3f320afd	0.69548017
84	0xbd12bd26	-0.035824917
85	0xbe8abf84	-0.2709924
86	0x3dc731a5	0.09726266
87	0x3d252c8d	0.04032569
88	0x3d88e18e	0.06683646
89	0x3e46906a	0.19391027
90	0x3bbdb342	0.0057891915
91	0x3e0cee11	0.1376269
92	0xbe0dfe9f	-0.13866661
93	0x3e6123bf	0.21986292
94	0xbe351a69	-0.17685856
95	0xbdf704e7	-0.12061482
96	0x3e3b7d53	0.18309526
97	0x3e8068f7	0.25080082
98	0x3e31fd4e	0.17381784
99	0xbe7885d5	-0.24269803
100	0xbe47fc53	-0.19529848
101	0x3e8e3b1a	0.27779466
102	0x3cb11c0e	0.021619823
103	0xbe032eb3	-0.12810783
104	0x3e303f13	0.17211561
105	0xbe31c62f	-0.17360757
106	0x3f0a4051	0.5400439
107	0xbf132a93	-0.5748684
108	0xb5b50185	-1.3485993e-06
109	0x3e2731a1	0.16327526
110	0x3d05504e	0.032547288
111	0x3e17fc74	0.14842397
112	0x3df40362	0.11914708
113	0xbe0d5a2f	-0.13803934
114	0x3d7f2863	0.062294375
115	0x3ea139c9	0.314894
116	0x3dae44bf	0.08509206
117	0x3e213f09	0.15746702
118	0x3d55d7bc	0.052207693
119	0xbf41bf96	-0.7568296
120	0x3e523b9c	0.20530552
121	0x3e6cd7d7	0.23129211
122	0xbde47122	-0.11154391
123	0x3e84b26e	0.2591738
124	0x3defea7c	0.11714646
125	0x3f910c80	1.133194
126	0xbe801580	-0.25016403
127	0x3e6a3b08	0.22874081
128	0x3e2d4e77	0.16924463
129	0xbe7b5b2e	-0.24546501
130	0xbdbd8b17	-0.09255045
131	0x3e834ffc	0.2564696
132	0x3589a5a7	1.0255507e-06
133	0x3f2de39e	0.6792544
134	0xbe398121	-0.18115665
135	0xbe8dfd64	-0.27732384
136	0x3e191d21	0.14952518
137	0x3e46a22f	0.19397806
138	0xbd135d8f	-0.035977896
139	0x3c4ac16c	0.012375217
140	0x382e0b03	4.149509e-05
141	0x3dc0bcfb	0.09411045
142	0xbd7a2ee2	-0.061079867
143	0x3e36abb2	0.17838934
144	0xbdb98d6b	-0.090601765
145	0xbcc62e19	-0.024191903
146	0x3cf1a92c	0.029499613
147	0x3dbe5841	0.09294177
148	0x3e8be69c	0.27324378
149	0xbd54ee05	-0.051984806
150	0xbc3db545	-0.011578863
151	0x3a0afe91	0.00053022156
152	0x3c77e161	0.015129418
153	0x800372d3	-3.16698e-40
154	0x3d165ed1	0.036711518
155	0xba66d11b	-0.0008804963
156	0x80078d76	-6.93595e-40
157	0x37fec7ec	3.0372255e-05
158	0x0001d7c4	1.69238e-40
159	0xba0ea615	-0.0005441618
160	0xba1301db	-0.00056078815
161	0xb988deb4	-0.00026105868
162	0xbd816a96	-0.06319158
163	0xb9c366bd	-0.00037269844
164	0x3b3ef43d	0.0029137277
165	0xba44937b	-0.0007498783
166	0x3c0e76f1	0.00869535
167	0xb9db64bc	-0.00041845988
168	0xb9dd3d76	-0.00042198197
169	0x80013720	-1.1161e-40
170	0xb9c19cd4	-0.00036928675
171	0x3ce935e5	0.028468082
172	0xb9dec7b6	-0.00042491936
173	0x3bc26e9c	0.005933596
174	0xbcc89d65	-0.024489114
175	0x000797d3	6.97313e-40
176	0xba093a01	-0.00052347785
177	0xba0e3ef3	-0.000542625
178	0xbd0b37c5	-0.033988733
179	0xb9c5cfa6	-0.00037729478
180	0x00008df2	5.092e-41
181	0x000cbd23	1.169875e-39
182	0x00012d33	1.0805e-40
183	0x80077f79	-6.88577e-40
184	0x3bd44004	0.006477358
185	0x39294708	0.00016143557
186	0x385857aa	5.1580057e-05
187	0x3d6f8359	0.058474872
188	0x3bc5de05	0.0060384297
189	0xb867e652	-5.5289194e-05
190	0x3bcbf141	0.006223828
191	0xbbcb47d1	-0.0062036295
192	0xbc326fa7	-0.010890878
193	0xbbea8c44	-0.0071578342
194	0x0003c260	3.45235e-40
195	0xb9505ee0	-0.0001987177
196	0x3c8436cb	0.016139409
197	0xb63ce124	-2.8145232e-06
198	0xbc4c4eb0	-0.012469932
199	0xbac12e91	-0.0014738609
200	0xbde62584	-0.11237624
201	0x3ce8035b	0.028321913
202	0xbd2025a6	-0.039098404
203	0xbe91447f	-0.2837257
204	0x3e08e2e9	0.1336781
205	0x3dcba91b	0.09944364
206	0xbf6e3323	-0.9304678
207	0x3e9adb75	0.30245557
208	0xb5b27fa0	-1.3299177e-06
209	0x3e51f408	0.20503247
210	0x3da457c9	0.08024556
211	0x3e150f92	0.14556721
212	0x3e2a9bac	0.16660947
213	0x3e3069d1	0.17227866
214	0x3e0e43da	0.13893071
215	0xbe6a2453	-0.22865419
216	0xbd861c61	-0.065483816
217	0x3e199bd7	0.15000854
218	0xbe33f4e3	-0.17573886
219	0xbde98d3c	-0.114038914
220	0xbe3ebce3	-0.18626742
221	0xbbc87972	-0.006117993
222	0x3e441c90	0.1915152
223	0x3e036ce8	0.12834513
224	0x3aa55020	0.001261238
225	0x3e33b5b5	0.17549784
226	0xbe05affc	-0.13055414
227	0x3a14e56d	0.0005679939
228	0xbce66c9b	-0.028127959
229	0x3dc28946	0.09498839
230	0xbe3ba5b3	-0.18324928
231	0x3f058a77	0.52164406
232	0xb505e26e	-4.987586e-07
233	0x3f59b26f	0.85037893
234	0x3dfbb758	0.122908294
235	0x3e74469b	0.23855059
236	0xbd8132c5	-0.06308512
237	0x3e6e579f	0.23275612
238	0x3e823942	0.2543431
239	0xbe052f28	-0.1300627
240	0xbce61482	-0.02808595
241	0xbe5459ed	-0.20737429
242	0x3cb452ab	0.022012075
243	0x3e545ac5	0.20737751
244	0xbd5e4887	-0.054268386
245	0x3b8bfd1b	0.004272116
246	0x3e6bf732	0.23043516
247	0xbe5e592a	-0.21713701
248	0xbcaacab2	-0.020848606
249	0xbe0c7235	-0.13715442
250	0xbe272bb2	-0.16325262
251	0x3d3d1f9d	0.046172727
252	0x3deab914	0.11461082
253	0xbdc170b0	-0.094453216
254	0x3e4b1af5	0.19834502
255	0xbe4095e8	-0.18807185

bias f4 [50]
0	0x3d763dac	0.06011741
1	0x3e3b1d8f	0.18272994
2	0x3d1dddf7	0.03854176
3	0xbddaad8d	-0.106776334
4	0x3de6dcab	0.11272558
5	0x3e06fd3d	0.1318254
6	0x3efe94e8	0.4972298
7	0xbec75796	-0.3893401
8	0xba9697b7	-0.0011489306
9	0x3e35f92f	0.17770837
10	0x3dc60c06	0.09670262
11	0x3e3efcd6	0.18651137
12	0xbdde4760	-0.108534575
13	0xba8083bc	-0.0009804885
14	0xbe67cffa	-0.2263793
15	0x3ce42d3a	0.027853597
16	0x3c13502b	0.0089912815
17	0x3de329ea	0.11091979
18	0xa8203937	-8.894191e-15
19	0x3e36afad	0.17840452
20	0x3dd9c361	0.10632969
21	0xbf2f9401	-0.6858521
22	0x3e1d3c14	0.15354949
23	0x3e4558b0	0.19272113
24	0x3de12858	0.10994023
25	0x3d3bde30	0.04586619
26	0x3e4ca208	0.19983685
27	0x3e284176	0.16431221
28	0xbd4510a8	-0.048111588
29	0x3d4275fb	0.047475796
30	0x3e08637c	0.133192
31	0x3da9f10b	0.082979284
32	0x3cffcec7	0.031226529
33	0x3e342c74	0.17595083
34	0x3e0baba5	0.13639696
35	0xbe1c9c68	-0.15294039
36	0x3c9a10b0	0.018806785
37	0x3d084cea	0.033276476
38	0x3e001682	0.12508586
39	0x3cee8338	0.029115304
40	0x3d426743	0.04746176
41	0xbd86faee	-0.0659083
42	0xbd5b182d	-0.053489853
43	0x3c0c1e96	0.008552214
44	0xbde04b02	-0.109518066
45	0x3dd61307	0.10452848
46	0x3e0d8736	0.1382111
47	0x3d4302d6	0.047610126
48	0x3d97f6a2	0.07420088
49	0x3e3dd661	0.1853881

weight f4 [2, 50]
0	0x3e8d0e18	0.27549815
1	0x3e68527e	0.22687718
2	0x3e76ea87	0.24112903
3	0xb79f34e0	-1.8978899e-05
4	0xbe6de1e3	-0.232307
5	0x3e80a46c	0.25125444
6	0xbf6891c4	-0.9084742
7	0xbfcc4eb6	-1.5961521
8	0xbb279a05	-0.002557398
9	0x3e11cf41	0.14239217
10	0xbd5626b6	-0.05228301
11	0x3ea43a0d	0.3207554
12	0x37f28cb3	2.8914166e-05
13	0x3ea0aa0f	0.31379744
14	0xbfceb55b	-1.6149095
15	0xbe83f45b	-0.25772366
16	0x3e004682	0.12526897
17	0xbe6c215a	-0.23059598
18	0xbafbd92d	-0.0019214504
19	0xbe650a32	-0.2236717
20	0xbe55df93	-0.20886068
21	0xbfba3cb3	-1.4549774
22	0xbe732037	-0.23742758
23	0x3e67d7a5	0.22640856
24	0x3e4b8df9	0.19878377
25	0x3e9559cb	0.2917007
26	0xbe85acc7	-0.2610838
27	0x3e59b738	0.21261299
28	0x3f27f2ac	0.6560466
29	0xbe73eea1	-0.23821498
30	0xbe8a49a3	-0.27009305
31	0x3e888dcf	0.2667069
32	0x3e62d08c	0.22149867
33	0x3cb11d9c	0.021620564
34	0xbe67e7e3	-0.22647052
35	0xbfb971bd	-1.4487835
36	0xbe7a9f19	-0.24474753
37	0xbd858bfa	-0.06520839
38	0xbc40c184	-0.011764888
39	0xbe8709d4	-0.26374686
40	0xbe7fe318	-0.24988973
41	0xbe858589	-0.26078442
42	0x3d95f3ee	0.073219165
43	0xbc9ee5eb	-0.019396743
44	0xbe5da10c	-0.21643466
45	0xbe5ae735	-0.21377261
46	0x3f40ffd9	0.7539039
47	0x3e4e3d27	0.20140515
48	0x3e9f4e30	0.3111434
49	0x3e20b95d	0.1569571
50	0x3e5d874e	0.21633646
51	0xbe70a9a2	-0.2350221
52	0xbe6f0487	-0.23341571
53	0x3c806aef	0.01567599
54	0xbe8d9ff7	-0.27661106
55	0xbe915503	-0.2838517
56	0x3f8c00c5	1.0937735
57	0xbf93dab8	-1.1551123
58	0x3b14d266	0.0022708415
59	0xbe7c7999	-0.24655761
60	0x3d719a36	0.058984958
61	0x3e8b90ac	0.27258813
62	0x3bf72ff8	0.00754356
63	0x3e89eab0	0.26936865
64	0x3f94ef92	1.1635611
65	0xbde71954	-0.11284128
66	0xbea2b045	-0.31775108
67	0xbe9e30e6	-0.30896682
68	0x3c0d58f2	0.008627163
69	0xbe00ed77	-0.12590586
70	0x3e89815e	0.26856512
71	0x3f4c3c55	0.7977956
72	0xbe2be9aa	-0.16788355
73	0xbe8cd7ff	-0.27508542
74	0xbe7af91a	-0.24509087
75	0x3e94ecd1	0.29086927
76	0xbddf8ef8	-0.10915941
77	0xbe8c80c0	-0.27441978
78	0xbf13acf2	-0.5768577
79	0xbe1865ab	-0.14882533
80	0x3e6c1a98	0.2305702
81	0x3e52c6e4	0.20583683
82	0xbc86c87a	-0.016453017
83	0x3e908374	0.2822529
84	0x3eb2bb33	0.34908447
85	0xbf8e3cda	-1.111232
86	0x3e3529b2	0.17691687
87	0x3e6855be	0.22688958
88	0xbeade079	-0.33960322
89	0x3e83615b	0.25660214
90	0x3e58917d	0.2114925
91	0xbe11816d	-0.14209528
92	0xbe8e2c38	-0.2776811
93	0xbeb418f9	-0.35175303
94	0xbd0f9cc2	-0.035061605
95	0x3ea3e0f3	0.3200756
96	0xbeab57a3	-0.334653
97	0x3e25a523	0.16176276
98	0xbe5a8f55	-0.2134374
99	0x3ea21193	0.31654033

bias f4 [2]
0	0x3dfc9291	0.12332643
1	0x3e0c5566	0.13704452
