model/AOA_AOS_10_ms-1/D36_A1.30_S1.86.pt (torch, 24847 bytes, 8 tensors)

weight f4 [50, 2]
0.4669168 0.8183167 0.86330456 -0.28369206 0.40068546 0.7084474 -0.649042 0.80222046
-0.7702656 0.687936 -0.7481542 -0.24334629 -0.24733655 -0.70124614 -0.3702049 -0.50624746
0.051987913 -0.5184558 0.9489801 0.044858318 -0.95113796 0.38567883 -0.8032631 -0.24539284
-0.4943763 0.93874675 -0.5193584 -0.8760895 0.17243026 0.5227554 -0.074718855 0.40946335
-0.337067 0.8853544 -0.2635341 -0.723416 -0.027171051 0.61446565 0.87105155 -0.5167034
0.47143552 -0.73279065 -0.06747045 0.4010879 -0.7903239 0.43789247 -0.27470133 -0.56616867
-0.8039669 0.23725244 0.689457 0.13136764 -0.729183 0.30063242 -0.08777341 -0.6329038
0.8889198 -0.31986693 -0.44629765 0.5571354 0.35502315 0.6750049 0.21199119 0.78213376
-0.7062924 -0.3000983 -0.50837266 -0.6524394 0.16681051 -0.7135042 0.7494992 -0.2689136
0.25207925 0.6984183 0.26718044 -0.6780347 0.8635942 0.3973719 0.6586882 -0.6354855
0.64664924 -0.014640527 -0.65663195 0.6088019 0.25205687 0.70502675 0.70807606 0.70277524
0.68924266 -0.8815461 -0.44995385 -0.5384032 -0.0694726 1.3810185 0.2579127 0.7151772
-0.6186168 -0.21532127 -0.5306675 0.99837273
00000000: b80f ef3e 347d 513f 8701 5d3f 1640 91be
00000010: a526 cd3e cf5c 353f 9e27 26bf 525e 4d3f
00000020: 2030 45bf 931c 303f 0987 3fbf c52f 79be
00000030: cb45 7dbe de84 33bf 7f8b bdbe 6f99 01bf
00000040: 47f1 543d 85b9 04bf 5cf0 723f 5bbd 373d
00000050: c77d 73bf b277 c53e a7a2 4dbf 4348 7bbe
00000060: e41e fdbe b551 703f acf4 04bf 6747 60bf
00000070: 8f91 303e 4cd3 053f 3306 99bd 2ea5 d13e
00000080: 0c94 acbe 96a6 623f f1ed 86be ca31 39bf
00000090: d395 debc 9f4d 1d3f 3cfd 5e3f ad46 04bf
000000a0: ff5f f13e 2b98 3bbf f32d 8abd 655b cd3e
000000b0: ab52 4abf 7133 e03e a7a5 8cbe 6ef0 10bf
000000c0: c6d0 4dbf 4ef2 723e 4180 303f 3d85 063e
000000d0: bdab 3abf 7eec 993e 8cc2 b3bd fc05 22bf
000000e0: 3f90 633f 99c5 a3be 2081 e4be 6da0 0e3f
000000f0: 98c5 b53e 1fcd 2c3f 3814 593e eb39 483f
00000100: 94cf 34bf 7ca6 99be b624 02bf 4506 27bf
00000110: 60d0 2a3e 36a8 36bf 2edf 3f3f 0baf 89be
00000120: 8810 813e 8bcb 323f e0cb 883e af93 2dbf
00000130: 8214 5d3f 5474 cb3e ca9f 283f 2daf 22bf
00000140: ce8a 253f d2de 6fbc 0819 28bf 71da 1b3f
00000150: 990d 813e a27c 343f 7944 353f 14e9 333f
00000160: 3572 303f 01ad 61bf 5a60 e6be cbd4 09bf
00000170: a747 8ebd 37c5 b03f 220d 843e da15 373f
00000180: ac5d 1ebf 2e7d 5cbe d3d9 07bf 5b95 7f3f

bias f4 [50]
-0.41254488 0.5867687 -0.65190613 0.34670165 0.32793134 0.9086792 0.55666757 0.09457183
0.61693716 -0.6873743 -0.5853321 -0.32172665 -0.7263458 0.9468432 -0.2703601 0.7390765
-0.64468795 0.58397454 0.54703206 0.7707839 -0.5681763 0.720072 0.8235051 0.021355977
0.62785286 -0.3700465 -0.45479897 -0.34455165 -0.9715667 0.38401774 -0.30523607 0.21619676
-0.58441657 0.89227045 0.16611682 0.5692188 -0.4012239 0.8873175 -0.0040307166 0.56245506
-0.49991697 -0.11829532 -0.48017794 0.4215318 0.57097346 0.65582347 -0.4299528 0.13734269
-0.4059067 0.46838564
00000000: 1539 d3be 7936 163f 52e3 26bf e182 b13e
00000010: 9ee6 a73e 339f 683f c481 0e3f e0ae c13d
00000020: 98ef 1d3f c3f7 2fbf 53d8 15bf 5bb9 a4be
00000030: ccf1 39bf 5164 723f a46c 8abe 1e34 3d3f
00000040: 450a 25bf 5b7f 153f 4b0a 0c3f 1852 453f
00000050: 0174 11bf a356 383f 3bd1 523f bbf2 ae3c
00000060: f7ba 203f bc76 bdbe 69db e8be 1369 b0be
00000070: 98b8 78bf f99d c43e e747 9cbe af62 5d3e
00000080: 539c 15bf d66b 643f 871a 2a3e 53b8 113f
00000090: 386d cdbe 3d27 633f 1a14 84bb 0efd 0f3f
000000a0: 1ef5 ffbe d144 f2bd e2d9 f5be 04d3 d73e
000000b0: 512b 123f 0ce4 273f c622 dcbe 90a3 0c3e
000000c0: 01d3 cfbe 3ed0 ef3e

weight f4 [50, 50]
0.2106172 0.088773005 0.080892324 0.07644401 0.1464719 -0.06962067 -0.17431104 -0.033817254
0.39149666 0.1350746 -0.052152343 -0.070926525 -0.029158987 -0.21540347 0.056726493 0.07456725
-0.07356203 -0.02937064 0.26726517 0.27962327 -0.03925168 0.29216394 0.1612134 -0.19326203
0.016175013 0.057810906 -0.05805746 -0.120632686 0.060867384 0.043151688 0.11357293 0.24647391
-0.088507645 -0.15711857 -0.18878362 0.27361378 0.16625793 0.2601131 -0.01323182 0.04968677
0.07677276 0.09197439 0.20990136 0.2716582 0.11895613 0.09922262 -0.20699663 0.23704301
-0.26532552 0.24140327 -0.048047923 -0.17677571 0.009731591 0.03883882 0.1813214 0.08644201
0.07843061 0.18192892 -0.054960955 -0.32506883 0.0042490805 0.107705444 0.5223184 0.11592655
0.03683311 -0.059984818 0.2583474 0.05828329 0.046623025 0.114588894 -0.18829441 0.14809132
0.03282324 0.018383173 0.20002894 -0.09312161 0.09545263 0.12587813 -0.51454073 0.17066233
-0.08496439 0.20313056 0.2476795 0.2746562 0.11948026 0.083053544 -0.012504391 -0.031092944
-0.0064343167 0.15980417 -0.096660286 -0.017235951 -0.27063495 -0.11877964 0.011956631 -0.0049820715
0.407561 0.13420908 0.17762095 0.0033318591 0.00054027105 0.014183286 -0.31349528 -0.27126983
-0.24709408 0.05398968 0.14728554 0.1661573 0.15801872 0.08191753 -0.017422004 0.2558929
-1.0571812 0.24620023 -0.13907939 0.024606401 -0.8880338 0.11350103 -0.16530879 0.16913322
0.01736373 -0.086254306 0.3317953 0.1007488 0.29179782 0.1551104 -0.19578443 0.16391939
0.21283881 -0.29269072 0.031367727 -0.30516693 -0.015109477 0.22747736 0.16570105 0.1220056
-0.14209886 0.010958999 0.08160972 0.05602539 0.16095607 -0.095722094 -0.24178979 -0.19109605
0.17927098 0.010363684 -0.647252 -0.14313197 0.009881072 -0.3103835 0.015507575 0.088118024
0.21255347 -0.239206 -0.40078455 -0.16088445 0.13315436 -0.064099975 0.26370683 0.0692869
-0.02709557 -0.15303153 -0.09264771 -0.18151304 -0.00029898135 -0.028999183 0.018752823 0.1372813
0.14689635 0.018486748 0.139254 0.15443519 0.0070952796 -0.043568794 -0.26524505 0.2674288
-0.14167301 -0.07443307 0.29132834 -0.055301066 0.16994427 -0.060724843 -0.0494387 -0.021390278
0.25653338 0.25448757 0.06721682 0.19942017 0.22363205 0.26814315 0.07618216 -0.17882398
0.09984236 0.23552239 0.22605012 0.04054109 0.06533226 0.029456986 -0.18231939 -0.13192117
0.056813117 0.311606 0.1954073 0.15949807 -0.037067402 -0.06226571 -0.28711504 -0.26970476
-0.17658702 0.084714405 0.36119226 -0.05308977 0.4101499 -0.381253 0.12523232 -0.05412437
0.32669494 -0.26217082 0.16261372 0.24764517 -0.33095893 -0.034779247 0.055849914 -0.49020845
0.14288798 0.25848582 0.7150724 -0.40125498 -0.16430774 0.15331803 -0.039433572 -0.033729546
-0.07673888 -0.2767336 -0.07509249 0.37285748 0.14159955 -0.22199649 0.16185959 0.34276068
-0.3923862 0.26979476 -0.08213332 -0.017023632 -0.030378299 -0.19450705 0.13070534 0.11113521
0.16403587 0.16706383 0.17879601 0.07771125 0.11445806 0.046014942 -0.15270166 0.03345992
00000000: 09ac 573e 9fce b53d e0aa a53d ad8e 9c3d
00000010: bbfc 153e 4895 8ebd 987e 32be f683 0abd
00000020: 4072 c83e ff50 0a3e b29d 55bd ed41 91bd
00000030: d4de eebc ba92 5cbe 0a5a 683d b7b6 983d
00000040: b1a7 96bd b29a f0bc fbd6 883e c82a 8f3e
00000050: 5fc6 20bd 8396 953e 2015 253e 7be6 45be
00000060: 7681 843c 21cb 6c3d a9cd 6dbd 450e f7bd
00000070: 1450 793d d3bf 303d ed98 e83d a863 7c3e
00000080: 7f43 b5bd b1e3 20be 7e50 41be 1b17 8c3e
00000090: 853f 2a3e 8b2d 853e 47ca 58bc 5b84 4b3d
000000a0: 093b 9d3d 125d bc3d 62f0 563e c916 8b3e
000000b0: 469f f33d 3b35 cb3d edf6 53be 67bb 723e
000000c0: bfd8 87be 6b32 773e e6cd 44bd b104 35be
000000d0: 4071 1f3c 7415 1f3d 51ac 393e 8208 b13d
000000e0: 3aa0 a03d 934b 3a3e bd1e 61bd 6c6f a6be
000000f0: df3b 8b3b ac94 dc3d a9b6 053f e66a ed3d
00000100: 51de 163d a4b2 75bd 1c46 843e 76ba 6e3d
00000110: c9f7 3e3d 95ad ea3d 40d0 40be 40a5 173e
00000120: a971 063d 4f98 963c 63d4 4c3e 8bb6 bebd
00000130: ab7c c33d 32e6 003e f1b8 03bf 1bc2 2e3e
00000140: cf01 aebd 7501 503e b29f 7d3e bd9f 8c3e
00000150: 11b2 f43d fa17 aa3d 38df 4cbc a1b6 febc
00000160: f6d6 d2bb b4a3 233e d4f5 c5bd 6932 8dbc
00000170: aa90 8abe bd42 f3bd bfe5 433c a540 a3bb
00000180: d6ab d03e 1b6e 093e 44e2 353e 525b 5a3b
00000190: faa0 0d3a 0361 683c 7482 a0be e1e3 8abe
000001a0: 3b06 7dbe 4824 5d3d 05d2 163e 2425 2a3e
000001b0: a9cf 213e 61c4 a73d 97b8 8ebc 6504 833e
000001c0: b751 87bf ea1b 7c3e d46a 0ebe 5d93 c93c
000001d0: 2f56 63bf 3a73 e83d b546 29be 4231 2d3e
000001e0: 623e 8e3c 19a6 b0bd 13e1 a93e 6355 ce3d
000001f0: 8666 953e 43d5 1e3e b77b 48be 7cda 273e
00000200: 6bf2 593e 8fdb 95be 727b 003d d73e 9cbe
00000210: bd8d 77bc d3ef 683e 89ad 293e 12de f93d
00000220: 5d82 11be 608d 333c ff22 a73d e17a 653d
00000230: abd1 243e f209 c4bd be97 77be afae 43be
00000240: d092 373e 71cc 293c 4fb2 25bf 3091 12be
00000250: 38e4 213c 96ea 9ebe 7c13 7e3c 3977 b43d
00000260: 9ea7 593e 6bf2 74be a233 cdbe e5be 24be
00000270: 9e59 083e d946 83bd 9504 873e 4ae6 8d3d
00000280: 87f7 ddbc 4cb4 1cbe 15be bdbd 8ede 39be
00000290: 99c0 9cb9 b28f edbc 859f 993c 7893 0c3e
000002a0: ff6b 163e 8571 973c 9a98 0e3e 4224 1e3e
000002b0: 857f e83b 3175 32bd 33ce 87be 6dec 883e
000002c0: bb12 11be 5e70 98bd fd28 953e 5f83 62bd
000002d0: df05 2e3e 9dba 78bd 3c80 4abd aa3a afbc
000002e0: 5858 833e 324c 823e f9a8 893d cd34 4c3e
000002f0: cdff 643e 0f4a 893e 6405 9c3d a21d 37be
00000300: 277a cc3d c82c 713e af79 673e 6a0e 263d
00000310: eccc 853d c74f f13c efb1 3abe 5816 07be
00000320: dfb4 683d d28a 9f3e da18 483e 7653 233e
00000330: fdd3 17bd 540a 7fbd be00 93be be16 8abe
00000340: 3ad3 34be bf7e ad3d 31ee b83e a974 59bd
00000350: 2bff d13e 9833 c3be e73c 003e 84b1 5dbd
00000360: 8f44 a73e 413b 86be 3684 263e b296 7d3e
00000370: 7373 a9be af74 0ebd e1c2 643d 9afc fabe
00000380: 3a51 123e 4158 843e fc0e 373f 4b71 cdbe
00000390: 4a40 28be 67ff 1c3e 1985 21bd fe27 0abd
000003a0: 4629 9dbd 07b0 8dbe 17ca 99bd 2de7 be3e
000003b0: 79ff 103e 0c53 63be 85be 253e 547e af3e
000003c0: d8e6 c8be 8a22 8a3e 8435 a8bd 2575 8bbc
000003d0: e9db f8bc db2c 47be 9fd7 053e db9a e33d
000003e0: 05f9 273e c812 2b3e 4d16 373e 1327 9f3d
000003f0: fd68 ea3d 2a7a 3c3d d35d 1cbe 450d 093d

bias f4 [50]
0.10193081 0.11253981 0.23862854 0.17150633 0.107430674 0.19411223 0.23203042 0.08237454
0.21429008 0.27772826 0.042001426 0.23448716 0.077658474 0.012293489 -0.124892265 0.14923105
0.08593048 0.2617804 0.22615002 -0.03200198 0.16602269 0.091959745 0.11424506 0.32911754
0.19539012 0.23465441 -0.2528802 0.31075054 -0.18671834 0.2695527 0.16177845 0.078032695
0.31045425 0.14015158 0.066898815 0.13007535 0.19077088 0.1464484 0.17925331 0.18472698
0.07249091 0.26687518 0.16334713 0.64929104 0.19040251 -0.088323765 0.21039258 0.23436621
0.022507317 0.18308927
00000000: 1ac1 d03d 467b e63d 0a5b 743e 5b9f 2f3e
00000010: 9d04 dc3d 5bc5 463e 6299 6d3e fcb3 a83d
00000020: dc6e 5b3e 6632 8e3e b009 2c3d 671d 703e
00000030: 680b 9f3d a16a 493c 84c7 ffbd 06d0 183e
00000040: 52fc af3d 1508 863e df93 673e 8214 03bd
00000050: da01 2a3e 6455 bc3d 50f9 e93d 1882 a83e
00000060: 5914 483e 3f49 703e 8379 81be b21a 9f3e
00000070: 1833 3fbe d002 8a3e 40a9 253e 9bcf 9f3d
00000080: dcf3 9e3e e583 0f3e 3f02 893d 7932 053e
00000090: 7159 433e 92f6 153e 2e8e 373e 1229 3d3e
000000a0: 1d76 943d dda3 883e 7844 273e f037 263f
000000b0: e0f8 423e 17e3 b4bd 2771 573e b2fd 6f3e
000000c0: 4461 b83c c17b 3b3e

weight f4 [50, 50]
0.23318791 -0.22528955 0.23623274 0.022672646 -0.19408128 0.23625916 0.11620485 0.15152597
0.17106542 0.18677099 0.8914168 0.13061644 -0.20152952 -0.12696718 -0.2740898 -0.17714515
0.34167242 -0.008060342 0.10327842 -0.1503416 0.07546112 0.051559336 0.112642296 -0.15192515
0.23469292 0.056885865 0.62735885 0.08981416 -0.40108344 0.18793933 -0.1387002 -0.16864356
0.3239828 0.26737845 -0.15574312 0.10268684 -0.10334519 0.15258673 0.2826052 0.009249573
0.12273419 0.22327138 -0.27003068 0.6460922 0.18928917 -0.19265942 -0.15407233 0.161193
0.08757991 0.1679969 0.16107148 0.23267433 -0.20131372 -0.09048714 -0.00077057193 0.14004935
0.18984331 0.16775851 0.18571521 0.16771153 -1.0050638 -0.62582886 0.25136936 0.16725342
-0.7680745 0.14287312 0.00629934 0.17468062 0.31418926 0.47571403 0.20484963 0.18301128
0.21200968 0.4723865 0.0015776985 0.27311277 -0.7689593 -0.20182316 0.6183991 0.120134346
0.18786547 0.23266682 0.2162921 -0.3882068 0.41933617 0.20802598 0.26432443 0.21243598
-0.18016432 0.20746288 0.24942853 0.40728503 0.2147995 -0.8188581 0.15755713 0.0063948794
0.5008093 0.17088592 -0.12263806 0.1806729 0.18736582 -0.27614635 0.07581511 0.11184355
0.20710823 0.26990965 0.054542456 -0.19174708 -0.04274847 0.104079455 -0.5569237 -0.035732493
-0.24068229 0.03156836 0.14446172 0.1167079 -0.04061312 0.1457892 0.23960724 -0.09147462
0.17939356 0.241748 0.20544557 0.9002489 -0.13811274 0.18178447 0.5012746 -0.26821908
-1.1851585 0.028980093 0.043319456 0.115485676 0.21177815 0.2559254 0.12984104 -0.059325147
-0.18696554 -0.02285246 -0.9172374 -0.13050248 0.08347926 0.26837802 0.054424074 -1.105191
0.014536965 0.013001141 0.14916085 -0.06958137 0.10169926 0.19631921 0.70507044 0.04721698
-1.0804671 -0.67518216 0.86274034 -0.5728085 -0.76977754 -1.480965 -0.012957821 0.6499731
0.7092013 0.7762686 -0.2246252 -0.015960688 0.8265855 0.47920442 -1.3125477 0.42664936
0.3305536 -0.26172337 0.5842799 0.75887406 0.5303666 -0.7334821 -1.2442557 -0.48315844
-0.53737426 -1.2805071 -0.15640315 -0.24585961 -0.33334243 0.18853045 0.54386955 0.4349481
0.39196602 -0.5513921 -0.5692439 -0.66034657 0.012292691 -0.22951801 0.48751566 -0.5083284
0.9689203 -0.23321132 -0.41322187 0.8827499 -0.23402469 -1.6873255 -0.6412484 -0.36318317
-4.4031916e-18 4.975e-42 8.22717e-14 -1.6296617e-13 -6.63645e-40 -1.7501995e-06 -4.4772422e-10 -3.1795438e-14
-2.2136994e-17 3.0911703e-26 7.88e-41 -1.192538e-08 3.4934e-41 -3.283e-40 -6.62674e-40 -6.6654e-41
-3.4806918e-14 -5.394962e-17 1.81704e-40 7.93211e-39 -3.27577e-40 1.23232e-40 6.47194e-40 5.773e-42
1.9015174e-13 4.341218e-09 3.822639e-39 -3.1641879e-12 -4.09073e-40 3.750894e-11 -1.1297231e-18 5.13817e-40
4.47758e-40 -4.810999e-28 5.26476e-40 1.36213e-40 -1.3101728e-14 3.8173962e-16 6.10309e-40 1.3086709e-29
1.0564049e-30 2.91595e-40 -8.205892e-39 2.2163e-41 7.3629384e-13 3.32614e-40 6.09292e-40 -2.5533813e-11
-4.7227e-41 -6.405822e-10 0.11691464 -0.05021004 -0.40065098 0.39757618 0.25153822 0.06788169
00000000: d0c8 6e3e 4eb2 66be ffe6 713e fcbb b93c
00000010: 3ebd 46be eced 713e cffc ed3d a029 1b3e
00000020: c62b 2f3e e540 3f3e e433 643f 51c0 053e
00000030: c15d 4ebe af03 02be 8055 8cbe 8a65 35be
00000040: b0ef ae3e 860f 04bc a383 d33d 26f3 19be
00000050: 5c8b 9a3d e22f 533d 01b1 e63d 4492 1bbe
00000060: 5753 703e 2701 693d 979a 203f 7cf0 b73d
00000070: cf5a cdbe 2b73 403e 6d07 0ebe e6b0 2cbe
00000080: 13e1 a53e d4e5 883e 207b 1fbe 7a4d d23d
00000090: a5a6 d3bd b23f 1c3e a1b1 903e 858b 173c
000000a0: 105c fb3d 41a1 643e 7641 8abe 4c66 253f
000000b0: 05d5 413e 8348 45be 23c5 1dbe c70f 253e
000000c0: 195d b33d 6107 2c3e ecef 243e 2e42 6e3e
000000d0: 2f25 4ebe 5251 b9bd 3500 4aba 1969 0f3e
000000e0: 4966 423e e3c8 2b3e 212c 3e3e 92bc 2b3e
000000f0: eea5 80bf 5236 20bf 7cb3 803e 7b44 2b3e
00000100: 88a0 44bf 554d 123e b26a ce3b 7adf 323e
00000110: 6add a03e ca90 f33e 1ac4 513e 4f67 3b3e
00000120: 1119 593e a5dc f13e c7ca ce3a 70d5 8b3e
00000130: 84da 44bf bbaa 4ebe 674f 1e3f ff08 f63d
00000140: ce5f 403e 3640 6e3e ad7b 5d3e 0bc3 c6be
00000150: 3bb3 d63e c304 553e 8855 873e d188 593e
00000160: ff7c 38be 2671 543e 316a 7f3e aa87 d03e
00000170: 66f4 5b3e afa0 51bf a856 213e 238c d13b
00000180: 0a35 003f b8fc 2e3e aa29 fbbd 5102 393e
00000190: d3dc 3f3e 0e63 8dbe f444 9b3d 3b0e e53d
000001a0: 2e14 543e 9931 8a3e e967 5f3d 5959 44be
000001b0: 0519 2fbd 9c27 d53d 8d92 0ebf 3c5c 12bd
000001c0: 6b75 76be d34d 013d c6ed 133e 8d04 ef3d
000001d0: f159 26bd c449 153e 9a5b 753e 0c57 bbbd
000001e0: f2b2 373e ca8c 773e 5360 523e b676 663f
000001f0: 6d6d 0dbe b525 3a3e 8853 003f 0354 89be
00000200: 46b3 97bf a967 ed3c be6f 313d c183 ec3d
00000210: 5fdc 583e a708 833e 0df5 043e edfe 72bd
00000220: e573 3fbe 1535 bbbc 12d0 6abf 71a2 05be
00000230: 2df7 aa3d d868 893e c7eb 5e3d e676 8dbf
00000240: 732c 6e3c bd02 553c 9fbd 183e ad80 8ebd
00000250: b447 d03d e707 493e 7f7f 343f 9866 413d
00000260: bf4c 8abf bdd8 2cbf 8ddc 5c3f 94a3 12bf
00000270: 2410 45bf 4390 bdbf 0a4d 54bc a364 263f
00000280: 378e 353f 8ab9 463f 2604 66be fdbf 82bc
00000290: 1b9b 533f 485a f53e 9001 a8bf c971 da3e
000002a0: 523e a93e 9b00 86be 5e93 153f 9245 423f
000002b0: 1bc6 073f 7cc5 3bbf c543 9fbf 8b60 f7be
000002c0: 5c91 09bf a8e7 a3bf 2628 20be 9fc2 7bbe
000002d0: dcab aabe 200e 413e 093b 0b3f 84b1 de3e
000002e0: c5af c83e 0828 0dbf f8b9 11bf 790c 29bf
000002f0: 4867 493c c506 6bbe a79b f93e cf21 02bf
00000300: 290b 783f f3ce 6ebe d191 d3be e6fb 613f
00000310: 2ba4 6fbe 48fa d7bf db28 24bf 25f3 b9be
00000320: f872 a2a2 de0d 0000 6842 b929 cd7b 37aa
00000330: f939 0780 66e8 eab5 9523 f6af a531 0fa9
00000340: 802d cca3 3d11 1915 aadb 0000 60e0 4cb2
00000350: 6261 0000 2b93 0380 4437 0780 ceb9 0080
00000360: a5c1 1ca9 78cc 78a4 84fa 0100 7f5f 5600
00000370: 2791 0380 8557 0100 1d0c 0700 1810 0000
00000380: 8217 562a c229 9531 f69f 2900 f1a8 5eac
00000390: 5474 0480 50f7 242e bbb7 a6a1 5098 0500
000003a0: 2be0 0400 7677 1892 9abb 0500 b57b 0100
000003b0: 0e05 6ca8 d30e dc25 4ba5 0600 0ab7 840f
000003c0: 5869 ab0d d92c 0300 b05a 5980 c83d 0000
000003d0: 903f 4f2b 319f 0300 75a2 0600 0999 e0ad
000003e0: a683 0080 f714 30b0 f170 ef3d 0ba9 4dbd
000003f0: 2022 cdbe 1b8f cb3e 9ec9 803e 8e05 8b3d

bias f4 [50]
0.096953794 0.060368877 0.0364014 -0.02370412 -5.9014177e-08 0.19893461 0.14550674 0.069255754
0.24410935 -0.01950936 0.08517596 0.14760241 0.08384669 0.07310695 0.21279007 0.11369997
-0.11103152 0.24322605 0.11678642 0.12009237 0.057106912 0.20002407 0.16786933 0.18809028
-5.0380863e-06 0.20432915 0.1867329 -3.4919613e-05 0.15702906 0.035376105 0.15637165 0.09053047
0.06279842 -0.048122182 0.022521669 -0.049682822 0.16838095 0.1475234 0.22455046 -0.02864314
0.08210907 -0.018775914 -0.047123555 0.17855568 -0.064744845 0.209227 0.04795603 0.15755431
0.12199606 0.08091955
00000000: b68f c63d 5b45 773d a219 153d 252f c2bc
00000010: c676 7db3 84b5 4b3e b8ff 143e f6d5 8d3d
00000020: cdf7 793e 18d2 9fbc bc70 ae3d 1625 173e
00000030: d0b7 ab3d 19b9 953d a4e5 593e 88db e83d
00000040: 7e64 e3bd 4010 793e b82d ef3d fdf2 f53d
00000050: f0e8 693d 1cd3 4c3e f0e5 2b3e bd9a 403e
00000060: d50c a9b6 a93b 513e e936 3f3e a676 12b8
00000070: 3acc 203e 89e6 103d e41f 203e 0a68 b93d
00000080: 759c 803d c41b 45bd 5d7f b83c 3780 4bbd
00000090: 0e6c 2c3e 6010 173e 8ef0 653e 05a5 eabc
000000a0: cd28 a83d f2cf 99bc a104 41bd 4dd7 363e
000000b0: f298 84bd 9a3f 563e 8b6d 443d eb55 213e
000000c0: 12d9 f93d 26b9 a53d

weight f4 [2, 50]
-0.25338548 0.28475592 -0.29389513 -1.6204225 -4.3655e-40 0.27571768 0.4118627 -0.13614926
-0.33560652 1.2711812 0.03458458 -0.2530422 0.27492172 -0.27892035 0.25675085 -0.30241668
-0.0046494207 -0.26919734 0.33225906 0.27276883 0.23613198 -0.2860926 0.31070992 0.2267161
-4.0949217e-06 -0.3103966 -0.24640909 0.053583574 0.39417914 -0.27656415 0.18414707 -0.0694803
-0.18962458 0.2802357 -0.002331975 0.23667571 -0.28041214 -0.14190477 -0.2836483 0.27694693
0.16107821 0.2991347 -0.03190251 -0.33417097 0.06134969 -0.29929286 -0.3275043 0.31525254
0.29823375 0.30738908 0.26385647 -0.5755283 -0.40159443 0.6340936 -4.27368e-40 -0.3855495
-0.36505482 0.3289502 -0.62193257 1.4837939 0.010736873 0.23627757 -0.53138894 0.31551942
-0.2903485 -0.40895852 -0.04070681 0.33605084 0.3052109 0.3100445 -0.27484664 -0.43615153
0.29573104 -0.44000724 -2.807507e-06 -0.36417592 -0.9092867 0.07228732 -0.31951216 -0.34916607
-0.31300727 -2.5770429e-05 0.2898854 0.22231682 0.020094682 -0.2945239 0.34664994 0.55777967
0.23747179 -0.3369385 -0.46124244 0.26462263 -0.021382576 0.21409684 1.1079057 -0.37115887
-0.37764508 0.22478653 0.2176867 -0.39611545
00000000: bebb 81be 87cb 913e 6c79 96be 016a cfbf
00000010: ecc0 0480 de2a 8d3e abdf d23e b66a 0bbe
00000020: 9ed4 abbe 11b6 a23f 90a8 0d3d bf8e 81be
00000030: 8ac2 8c3e a6ce 8ebe d974 833e 5cd6 9abe
00000040: 2b5a 98bb 3cd4 89be dc1d aa3e 5ba8 8b3e
00000050: 95cc 713e bb7a 92be 5f15 9f3e 4428 683e
00000060: 1c67 89b6 4eec 9ebe aa52 7cbe 737a 5b3d
00000070: d9d1 c93e d199 8dbe 0d91 3c3e b04b 8ebd
00000080: f22c 42be 0e7b 8f3e 0cd4 18bb 1e5b 723e
00000090: 2e92 8fbe 7c4f 11be 5a3a 91be fdcb 8d3e
000000a0: b0f1 243e 2f28 993e 35ac 02bd 7518 abbe
000000b0: d049 7b3d ea3c 99be a5ae a7be c868 a13e
000000c0: 18b2 983e 1a62 9d3e 3218 873e d355 13bf
000000d0: c99d cdbe f553 223f 54a7 0480 be66 c5be
000000e0: 77e8 babe 296c a83e f936 1fbf f5ec bd3f
000000f0: b6e9 2f3c bff2 713e 1b09 08bf c38b a13e
00000100: 8fa8 94be 0363 d1be 2fbc 26bd db0e ac3e
00000110: 9a44 9c3e 27be 9e3e b3b8 8cbe 414f dfbe
00000120: 0f6a 973e a148 e1be 9a68 3cb6 4475 babe
00000130: 03c7 68bf 600b 943d 1997 a3be e5c5 b2be
00000140: 7d42 a0be 932d d8b7 dc6b 943e 05a7 633e
00000150: 9a9d a43c d6cb 96be 1a7c b13e a6ca 0e3f
00000160: ce2b 733e 3483 acbe f827 ecbe 9e7c 873e
00000170: 832a afbc 343c 5b3e dbcf 8d3f 8908 bebe
00000180: b25a c1be 712e 663e 43e9 5e3e a5cf cabe

bias f4 [2]
-0.05091016 0.00021135251
00000000: 2c87 50bd 829e 5d39
