model/AOA_AOS_10_ms-1/MIX_A0.54_S0.56.pt (torch, 25615 bytes, 8 tensors)

weight f4 [50, 6]
0	0xbe8c3697	-0.273854
1	0x3ddcc006	0.10778813
2	0x3e9f8907	0.3115923
3	0x3f04c267	0.51859134
4	0x3f250f93	0.6447689
5	0xbed52be3	-0.41635045
6	0x3dd8a13b	0.10577627
7	0xbf098ed2	-0.5373355
8	0xbefe5cda	-0.49680215
9	0x3e087809	0.1332704
10	0xbd58ab3c	-0.052897677
11	0xbe0c721c	-0.13715404
12	0x3e3a4db6	0.18193707
13	0xbf435dd4	-0.76315045
14	0x3efa58d8	0.48895907
15	0xbf0640c8	-0.524426
16	0x3d1adc67	0.03780785
17	0xbe1c9f35	-0.15295108
18	0xbed87dbd	-0.4228343
19	0x3ca16acc	0.019704245
20	0xbf0cd9b2	-0.55019677
21	0x3ed3925b	0.41322598
22	0x3de850a1	0.11343504
23	0xbe86c4cd	-0.26322022
24	0xbda7676b	-0.08174022
25	0x3eecf7c2	0.46282774
26	0x3f0b4d66	0.54414976
27	0x3ea194ea	0.31558925
28	0x3e60f099	0.2196678
29	0xbdd5ce0e	-0.104396924
30	0x3ef0b9fa	0.4701689
31	0xbef97643	-0.4872304
32	0xbe7475dd	-0.23873086
33	0xbebaa6b8	-0.3645532
34	0x3f0f752b	0.5603816
35	0xbf36148f	-0.7112512
36	0x3ece5387	0.402981
37	0x3edf4011	0.43603566
38	0x3e180f01	0.14849474
39	0xbefd88c0	-0.49518394
40	0x3e6ad266	0.22931823
41	0x3e39c7ac	0.18142575
42	0x3e3bbc49	0.18333544
43	0xbf25c8af	-0.64759344
44	0xbed7fa4c	-0.4218315
45	0x3c402c16	0.011729261
46	0x3eba83f8	0.3642881
47	0xbca5dfdb	-0.020248344
48	0xbebe6d38	-0.37192702
49	0xbf053556	-0.5203451
50	0x3e887ab9	0.2665613
51	0x3e589631	0.21151043
52	0xbe577b28	-0.21043074
53	0xbf280c32	-0.6564361
54	0x3ee5a9af	0.4485602
55	0xbef1c497	-0.472203
56	0x3f0bffcb	0.54687184
57	0xbe5420d1	-0.20715643
58	0x3e9dd4d3	0.30826434
59	0xbea6961e	-0.32536405
60	0x3efbc820	0.4917612
61	0xbe758618	-0.23976934
62	0xbd232df7	-0.039838757
63	0x3f1d35f7	0.6141047
64	0x3e430d31	0.19048001
65	0x3d82f2ab	0.063939415
66	0xbef811dc	-0.48451126
67	0xbde9eb0a	-0.11421783
68	0x3ee7e4c6	0.45291728
69	0xbd249983	-0.040185463
70	0xbd458698	-0.04822406
71	0xbf188f37	-0.5959353
72	0xbeb54d0b	-0.35410342
73	0x3e848fa8	0.2589085
74	0xbf231822	-0.637087
75	0xbf13a5f6	-0.5767511
76	0xbe4f5f3f	-0.20251177
77	0x3e3a4197	0.18189083
78	0xbdbb4b1a	-0.09145184
79	0xbea583c3	-0.3232709
80	0x3d4041df	0.04693782
81	0x3ed701ba	0.41993505
82	0x3ebf1b54	0.37325537
83	0x3e6d9ffe	0.23205563
84	0x3e54abe9	0.20768704
85	0xbe310534	-0.17287141
86	0xbef4af35	-0.47789922
87	0xbedec757	-0.4351146
88	0xbe7f52fa	-0.24933997
89	0xbe2de3b6	-0.16981396
90	0xbe2942c4	-0.16529375
91	0x3e288bb0	0.16459537
92	0x3f01f4f2	0.5076438
93	0x3de7a242	0.11310245
94	0xbeeac198	-0.45850825
95	0x3d381c71	0.044949
96	0x3ea49b09	0.32149532
97	0xbe7e597d	-0.24838825
98	0x3e717a1c	0.23581737
99	0xbf0c2a6c	-0.5475223
100	0xbebd4cf1	-0.36972764
101	0xbe08c428	-0.13356078
102	0xbf0d3295	-0.5515531
103	0xbe819a7e	-0.2531318
104	0xbe6d15e3	-0.2315288
105	0x3e3a3b18	0.18186605
106	0xbdc79497	-0.09745138
107	0xbe923c50	-0.2856164
108	0xbef4b5be	-0.47794908
109	0x3e83769c	0.2567643
110	0xbe0b848d	-0.13624783
111	0x3eb88e74	0.36046183
112	0xbeac2d2c	-0.33628213
113	0xbf1ec7ad	-0.6202343
114	0xbe9837a6	-0.29729956
115	0xbf27104f	-0.6525926
116	0xbd82539f	-0.06363606
117	0x3ead66e5	0.33867565
118	0x3f1a1cd6	0.6020025
119	0x3d4e2df6	0.0503368
120	0x3d8c1573	0.068400286
121	0x3e6555f9	0.22396077
122	0x3d1a4d37	0.037671294
123	0x3f0d9549	0.55305916
124	0x3e3baf62	0.18328622
125	0x3e99242e	0.29910415
126	0x3e2fc4ee	0.17164966
127	0xbed3b74f	-0.4135079
128	0xbe9c8b0f	-0.30574843
129	0xbea4b807	-0.32171652
130	0xbd799f4e	-0.06094294
131	0x3d931667	0.07182007
132	0x3d1d1baf	0.03835648
133	0x3ea94284	0.3305856
134	0x3efc6d17	0.4930198
135	0xbd0ada25	-0.033899445
136	0x3ee7053a	0.45121175
137	0x3e9f18a4	0.31073487
138	0x3d90fdee	0.07079683
139	0xbe9b5238	-0.30336165
140	0xbec844f2	-0.391151
141	0xbe3e08f9	-0.1855811
142	0x3e9849e7	0.29743883
143	0x3e5b2181	0.213995
144	0xbe6904d3	-0.22755747
145	0xbdd01e44	-0.10162023
146	0xbede0a0d	-0.43367043
147	0x3edfd217	0.43714973
148	0x3ece7d2f	0.40329883
149	0x3e943c41	0.2895222
150	0xbf161891	-0.58631235
151	0xbe434528	-0.1906935
152	0xbecd3fe5	-0.4008781
153	0x3d3eaed9	0.046553466
154	0xbe439d26	-0.19102916
155	0x3f0be091	0.54639536
156	0xbeb2a93c	-0.3489474
157	0xbf039915	-0.5140546
158	0xbe2add06	-0.16685876
159	0xbe351062	-0.17682031
160	0x3ebc1b2f	0.3673949
161	0xbe01bcbc	-0.12669653
162	0x3ed76b5e	0.42074102
163	0x3eb65436	0.35611123
164	0x3efc48a9	0.49274185
165	0x3e128ffc	0.14312738
166	0xbe1eead8	-0.15519273
167	0xbec5de85	-0.3864633
168	0x3ee0bd54	0.43894446
169	0x3ebcd7b5	0.3688332
170	0xbd860d95	-0.06545559
171	0xbf16d93c	-0.58925223
172	0xbee643c9	-0.4497359
173	0xbe29d6bc	-0.16585821
174	0xbdec648e	-0.11542617
175	0xbf098d55	-0.5373128
176	0x3ebbba69	0.36665657
177	0x3eef2e43	0.46714982
178	0x3f022e20	0.5085163
179	0x3a25e47c	0.00063282973
180	0x3e721d65	0.23644026
181	0xbe15519e	-0.14581916
182	0xbc4ebffa	-0.012619013
183	0xbd7253c9	-0.059161935
184	0x3eee4e56	0.4654414
185	0xbf4e1a92	-0.80509293
186	0x3db0ca08	0.086322844
187	0x3f36ffed	0.7148426
188	0x3e3c16d4	0.18368083
189	0x3ed6de7f	0.41966626
190	0x3e00d809	0.12582411
191	0xbe3f2097	-0.18664776
192	0x3ecb0c45	0.39657798
193	0x3ee39c33	0.44455108
194	0x3e246613	0.16054563
195	0xbf091e59	-0.5356193
196	0x3e7feb31	0.24992062
197	0xbc2b69fc	-0.01046228
198	0x3ec3d082	0.38245016
199	0x3ed03bb6	0.40670556
200	0xbc03f90a	-0.008054981
201	0xbef4a393	-0.47781047
202	0xbefee0f4	-0.49781
203	0xbec5db52	-0.3864389
204	0xbe04547c	-0.12922853
205	0x3eacf2b1	0.3377891
206	0xbdc52375	-0.096259035
207	0x3e8fdf63	0.28100118
208	0xbecaa256	-0.39576977
209	0x3f480a8f	0.7814111
210	0x3ee49646	0.446459
211	0x3d47a37b	0.04873989
212	0xbf0d4b87	-0.5519337
213	0xbe55c1f8	-0.20874774
214	0xbea2f1d3	-0.31825122
215	0xbef69720	-0.48162174
216	0x3efd8ad8	0.49519992
217	0x3ed38b9e	0.41317457
218	0x3e5b78ac	0.21432751
219	0x3f00792b	0.5018489
220	0x3d9b7729	0.07591087
221	0xbec33ddf	-0.3813314
222	0x3e73ef49	0.23821749
223	0x3e11c8b3	0.14236717
224	0x3eebfa42	0.4608937
225	0x3c202120	0.009773523
226	0x3f3095d7	0.6897864
227	0xbe399798	-0.18124235
228	0xbdd6b33c	-0.10483405
229	0x3e122189	0.14270605
230	0xbe78fa5a	-0.24314252
231	0xbe629e18	-0.2213062
232	0x3e006157	0.12537132
233	0xbf0c8084	-0.548836
234	0x3ec45665	0.38347164
235	0x3de7136f	0.112830035
236	0xbd8d00a1	-0.068848856
237	0x3edc36c0	0.4301052
238	0x3f21edd4	0.6325352
239	0xbcbc6867	-0.022999002
240	0x3f3851fb	0.7200009
241	0xbeb1a285	-0.34694305
242	0x3ec4a365	0.3840591
243	0x3df38729	0.11891014
244	0x3db64717	0.08900278
245	0xbe630409	-0.22169508
246	0x3f1cbc60	0.6122494
247	0xbd92a2c8	-0.07159954
248	0x3f03542a	0.513003
249	0x3d0106ad	0.031500507
250	0x3e7b3b8c	0.24534434
251	0xbeaa80ef	-0.33301494
252	0xbe978771	-0.2959552
253	0x3ea4eef6	0.32213563
254	0xbeb0bb3e	-0.34517854
255	0x3f0d1998	0.5511718

bias f4 [50]
0	0xbe6aee48	-0.2294246
1	0x3e8dd784	0.27703488
2	0x3da580e4	0.080812246
3	0xbea24e05	-0.3170015
4	0x3cd2d8da	0.025738169
5	0xbf31827e	-0.6933974
6	0x3e20b30c	0.15693301
7	0x3db343b7	0.0875315
8	0x3e79f047	0.24408065
9	0x3e261f28	0.16222823
10	0x3c339ea8	0.01096312
11	0x3ec79209	0.38978603
12	0x3e88ecc3	0.26743135
13	0xbebce0a4	-0.36890137
14	0x3d0143f1	0.031558935
15	0xbc572ebc	-0.013133701
16	0xbeb56abc	-0.35432994
17	0xbef7a0e4	-0.48364937
18	0x3ef2b460	0.4740324
19	0x3e77df10	0.24206185
20	0x3f1303d4	0.57427716
21	0x3d9a38b0	0.075303435
22	0x3da22c57	0.079186134
23	0xbe76be7f	-0.24096106
24	0xbdab9816	-0.083786175
25	0x3ea36514	0.31913054
26	0x3d939898	0.07206839
27	0x3d591fdf	0.05300891
28	0x3f041a99	0.51603085
29	0x3e1db181	0.15399744
30	0x3ece5579	0.40299585
31	0xbe67624d	-0.22596093
32	0x3ecb4b5d	0.39705935
33	0xbea610e8	-0.32434773
34	0x3dbb69bd	0.09151027
35	0xbe8ecbd3	-0.2788988
36	0xbea5aadd	-0.3235692
37	0x3c44659b	0.011987115
38	0x3e8f6afb	0.28011307
39	0x3ee4a574	0.4465748
40	0xbf0fbcfc	-0.5614774
41	0xbe7c4c9b	-0.24638598
42	0x3ebf4fb6	0.37365502
43	0xbdff4fa0	-0.12466359
44	0x3ee1e982	0.44123465
45	0x3ea20e1e	0.31651396
46	0xbeb65a48	-0.35615754
47	0x3ec1d737	0.37859508
48	0x3c0953cf	0.008381798
49	0x3f0de778	0.5543132

weight f4 [50, 50]
0	0xbe8376b0	-0.2567649
1	0x3df3751c	0.11887571
2	0x3d9e8d40	0.07741785
3	0x3e58333b	0.21113293
4	0x3e786f2e	0.24261162
5	0x3eb253e5	0.3482963
6	0x3ea62187	0.32447454
7	0x3e890e64	0.26768792
8	0x3d4ea1a0	0.050447106
9	0xbe34433d	-0.17603774
10	0x3d906801	0.07051087
11	0x3dc47cdf	0.0959413
12	0x3de8cce7	0.11367207
13	0x3cd7fb40	0.026364923
14	0x3e0f6a2b	0.14005344
15	0x3e3adbd8	0.18247926
16	0x3c8850c5	0.016640076
17	0x3e761898	0.2403282
18	0xbc7888cf	-0.015169336
19	0x3d9de760	0.07710147
20	0x3e40bf69	0.18823017
21	0x3e10d2d2	0.14142922
22	0x3e56ddc9	0.20983042
23	0x3cac2768	0.021014884
24	0x3d1c6c65	0.03818931
25	0x3e583f61	0.21117927
26	0x3e048eaa	0.12945047
27	0xbd342719	-0.0439826
28	0x3e5eedfc	0.21770471
29	0xbd6f6ea2	-0.058455117
30	0x3e1f4eba	0.15557376
31	0xbda49775	-0.08036701
32	0x3da11078	0.07864469
33	0x3e2f25e8	0.17104304
34	0x3e816b6d	0.25277272
35	0x3e293583	0.1652432
36	0xbc6f5f44	-0.014610115
37	0xbde6f153	-0.11276498
38	0x3e04d1f7	0.1297072
39	0x3e8f2a64	0.2796203
40	0xbeed1efb	-0.463127
41	0x3c913fa8	0.017730549
42	0x3e093e78	0.13402736
43	0x3d87276d	0.06599317
44	0x3e527643	0.20552926
45	0x3c25665b	0.010095204
46	0xbcf7abd2	-0.030233297
47	0x3ec4927b	0.38393006
48	0x3e2d04c2	0.16896346
49	0x3e6b07dd	0.22952218
50	0xbe96c629	-0.2944806
51	0x3df01558	0.11722821
52	0x3ca75559	0.02042644
53	0xbd6579ef	-0.056024488
54	0xbc11f5f7	-0.00890874
55	0x3eae8871	0.34088472
56	0x3e82c535	0.25541082
57	0x3df7faaf	0.12108361
58	0x3e60dfb5	0.21960337
59	0x3dd57753	0.1042315
60	0x3d4df9d6	0.05028709
61	0x3d18feed	0.03735249
62	0x3e39bc03	0.18138127
63	0x3d7c5d87	0.061612632
64	0x3e8321e2	0.25611788
65	0x3e859371	0.2608905
66	0x3e5354fa	0.20637885
67	0x3e08e48b	0.13368432
68	0x3dafab84	0.08577636
69	0x3e05c596	0.13063654
70	0x3eb5fda3	0.35545072
71	0x3d387c45	0.045040388
72	0x3dee02f5	0.11621658
73	0x3c58c13a	0.013229663
74	0x3d558ca3	0.052136075
75	0x3e128793	0.1430953
76	0x3e3f2904	0.1866799
77	0xbd6d14e6	-0.05788126
78	0x3c955224	0.018227644
79	0xbe439114	-0.19098312
80	0x3aa8e005	0.0012884146
81	0xbe5b7850	-0.21432614
82	0x3e040071	0.12890793
83	0x3dee735d	0.116430975
84	0x3eb9ac2e	0.36264175
85	0x3e52a617	0.20571171
86	0xbdb09078	-0.08621305
87	0x3b8eabed	0.0043539912
88	0x3e46f704	0.19430166
89	0x3e7be4a3	0.24598937
90	0xbe0a86f7	-0.13528048
91	0x3e47fbe4	0.19529682
92	0x3e4dcc72	0.20097521
93	0x3e3413ec	0.17585725
94	0x3ec622cf	0.38698432
95	0x3e2f8a79	0.17142667
96	0xbcfd4349	-0.030915873
97	0x3e0ac090	0.1355002
98	0x3e8050ff	0.25061795
99	0x3dc346b2	0.095349684
100	0xbe9bcc80	-0.3042946
101	0x3e712d69	0.23552479
102	0xbe281742	-0.16415122
103	0x3c184899	0.009294652
104	0x3e6f6e21	0.23381855
105	0x3dda9f20	0.10674882
106	0x3ee16cd3	0.4402834
107	0x3e4f4099	0.20239486
108	0x3e066901	0.13125993
109	0xbea8489c	-0.32867897
110	0x3d71bd87	0.059018638
111	0x3e0f3add	0.13987298
112	0x3e553d7c	0.20824236
113	0x3dbf711f	0.09347748
114	0x3e159aaa	0.14609781
115	0x3e088dd8	0.13335359
116	0xbdc37670	-0.095440745
117	0x3dd2fbc0	0.10301924
118	0x3e423932	0.18967131
119	0x3e819150	0.25306177
120	0x3e17d5ff	0.14827727
121	0x3de80116	0.11328332
122	0x3d598920	0.05310929
123	0x3e8bc865	0.27301326
124	0x3e3de80e	0.18545553
125	0x3d03ed9a	0.032209016
126	0x3d895584	0.06705764
127	0x3c4e2717	0.012582562
128	0x3e763e3d	0.2404718
129	0x3c80c157	0.015717192
130	0x3e34f31b	0.17670862
131	0x3dad64c8	0.08466488
132	0x3e2e9383	0.17048459
133	0x3e74bdb7	0.23900495
134	0xbe898919	-0.2686241
135	0x3eb4a8b6	0.35284966
136	0xbb402fd3	-0.002932538
137	0xbe00f8e4	-0.12594944
138	0x3d3a0fb9	0.04542515
139	0x3eab0677	0.3340337
140	0xbf33ef13	-0.70286673
141	0xbc8f3898	-0.01748304
142	0xbc93bde2	-0.01803488
143	0xbca86f4b	-0.020560881
144	0x3dbc8942	0.09205867
145	0x3b040382	0.0020143692
146	0xbe5e0365	-0.21680982
147	0x3e862e53	0.26207218
148	0x3e21a4d6	0.15785536
149	0x3e0006a5	0.12502535
150	0x3eb4a0fa	0.35279065
151	0xbe0c6c4f	-0.13713191
152	0x3ecaca20	0.39607334
153	0xbecb17bf	-0.39666554
154	0x3ba48731	0.005020999
155	0xbeaed697	-0.34148094
156	0x3e2f24ef	0.17103933
157	0xbd045180	-0.032304287
158	0xbdd66600	-0.10468674
159	0x3e0e90c7	0.13922416
160	0x3daa92df	0.08328795
161	0x3c95a953	0.018269217
162	0x3e241257	0.16022621
163	0xbc6cef24	-0.014461312
164	0xbdd9a934	-0.10627976
165	0xbc1976c9	-0.0093666995
166	0x3d6db09b	0.058029752
167	0xbf0587fd	-0.52160627
168	0xbdd5fac8	-0.10448223
169	0x3e23c5be	0.15993401
170	0x3c9dfb7a	0.019284952
171	0xbdca916e	-0.0989102
172	0x3e3af585	0.18257721
173	0x3e63547b	0.22200195
174	0x3d5247a8	0.051337868
175	0x3e7a2af3	0.24430446
176	0xbc66acff	-0.014079331
177	0x3e1e3d99	0.15453185
178	0x3e3bee27	0.18352567
179	0x3d6af830	0.057365596
180	0x3de2a15d	0.11065934
181	0x3e11fa22	0.14255574
182	0x3e7084a2	0.23488095
183	0x3dd72a38	0.105060995
184	0x3ecb0127	0.39649317
185	0xbe8eed78	-0.2791555
186	0x3e0e16bc	0.1387586
187	0x3e2ef5a3	0.1708589
188	0xbdca7d92	-0.09887232
189	0x3e523785	0.20528992
190	0x3de93b6b	0.11388286
191	0x3e4f55da	0.20247594
192	0x3e267c59	0.16258372
193	0xbe87a948	-0.2649634
194	0x3c651604	0.0139823
195	0x3e7caca1	0.24675228
196	0x3e08bf77	0.13354288
197	0xb9492917	-0.00019184161
198	0x3d3c9cfa	0.046048142
199	0xbdd1cd33	-0.10244217
200	0x3d43b826	0.04778304
201	0x3e080a13	0.13285093
202	0x3ddd5eb9	0.108090825
203	0x3e2d6dfa	0.16936484
204	0x3d8d192b	0.06889566
205	0x3ec2c9fd	0.3804473
206	0x3e99b178	0.3001821
207	0x3e599465	0.21248014
208	0x3dd4987e	0.10380648
209	0x3d740a60	0.059580207
210	0x3e7a3c16	0.24436983
211	0xbc9b5815	-0.0189629
212	0x3dbccf16	0.09219186
213	0x3e3344bb	0.17506687
214	0x3d9f14b5	0.077676214
215	0x3e491680	0.1963749
216	0x3e1a919a	0.15094605
217	0x3da2701e	0.07931541
218	0x3d02818f	0.031861838
219	0x3e7fecc6	0.24992666
220	0x3e04f493	0.12983923
221	0x3dc1da8d	0.094655134
222	0x3dbb3a62	0.09141995
223	0x3e56317a	0.20917311
224	0x3e6229c9	0.22086252
225	0x3e53ec03	0.206955
226	0x3e8cae01	0.27476504
227	0x3c74760f	0.0149207255
228	0x3e78c5fe	0.24294278
229	0x3cd6ab85	0.026204834
230	0x3e4bf73a	0.19918528
231	0x3dc0610f	0.093935125
232	0x3dc0dafb	0.09416767
233	0x3dfab6a2	0.12241866
234	0x3eff41a6	0.49854773
235	0x3e161a72	0.14658526
236	0x3e64453c	0.22292036
237	0x3d9860f9	0.07440371
238	0x3d7abd77	0.061215844
239	0x3cd6ba75	0.026211957
240	0x3e8a6528	0.270303
241	0x3e323942	0.17404655
242	0x3db7cd79	0.08974738
243	0x3d919ad5	0.0710961
244	0x3dd5cf97	0.10439985
245	0x3d540d9c	0.05177079
246	0x3d3c2bc5	0.04594018
247	0x3d996e76	0.07491772
248	0x3e87346d	0.26407185
249	0x3e7689ce	0.24076006
250	0x3d9b4bca	0.07582815
251	0x3dae4232	0.085087195
252	0xbf284829	-0.6573511
253	0x3e43d2f8	0.19123447
254	0xbdef72c1	-0.116918094
255	0xbd1b81bd	-0.037965525

bias f4 [50]
0	0x3ddfdcae	0.10930763
1	0x3e272f8d	0.16326733
2	0x3da5f4de	0.08103345
3	0x3d87d44a	0.06632288
4	0x3db7c846	0.08973746
5	0xbd9fd007	-0.0780335
6	0x3e0cb579	0.13741101
7	0x3e634298	0.22193372
8	0xbf4e9045	-0.8068889
9	0x3dd2e7aa	0.10298093
10	0xbe0a7f51	-0.1352513
11	0x3d2e9c05	0.04262926
12	0xbd097b05	-0.033564586
13	0x3d25c52e	0.04047125
14	0xbdd6b3e3	-0.104835294
15	0x3d8ec8ee	0.06971918
16	0x3e16eaa5	0.14737947
17	0xbc78abc1	-0.015177668
18	0x3e30796c	0.17233819
19	0xbdd024ce	-0.1016327
20	0xbe1a3800	-0.15060425
21	0x3e3eadd3	0.18620996
22	0x3de1eaec	0.11031136
23	0xbcbdaaa3	-0.023152655
24	0x3dac3c0c	0.084098905
25	0xbced9065	-0.028999517
26	0x3c5950f6	0.0132639315
27	0x3de9c52f	0.11414563
28	0x3d92ef21	0.071745165
29	0x3e3d5a3e	0.18491456
30	0x3e41f482	0.18940929
31	0x3dfb2e1c	0.12264654
32	0xbdb9ff88	-0.09081942
33	0x3d494965	0.04914226
34	0x3e3b70c6	0.18304738
35	0xbe337d8f	-0.17528366
36	0xbb835c64	-0.0040088166
37	0x3e480f8b	0.19537179
38	0xbee70a16	-0.45124882
39	0xa9af3a82	-7.7817107e-14
40	0xbd103047	-0.03520229
41	0x3c41146e	0.011784656
42	0x3e22ab2d	0.15885611
43	0x3d13ecae	0.036114387
44	0x3d5d80c3	0.054077875
45	0xbcff8b78	-0.031194434
46	0xbd8c79c1	-0.0685916
47	0xbd1ea285	-0.03872921
48	0x3e4200a7	0.18945561
49	0x3e313fe9	0.17309536

weight f4 [50, 50]
0	0xae491606	-4.572167e-11
1	0xae5c79d7	-5.0130424e-11
2	0xae3e5283	-4.3274283e-11
3	0xadc7af80	-2.2701618e-11
4	0xae58221f	-4.914302e-11
5	0x2ac458a7	3.487811e-13
6	0xae35159a	-4.117382e-11
7	0xae48f61d	-4.5693328e-11
8	0xad06ee91	-7.6699905e-12
9	0xae25ecc6	-3.7726954e-11
10	0x2c8e50fe	4.0448747e-12
11	0xae6051dc	-5.100441e-11
12	0x2c45a120	2.8084826e-12
13	0xaca52c49	-4.6944987e-12
14	0x800047d7	-2.5771e-41
15	0xae24671c	-3.7380862e-11
16	0xae260f3f	-3.775757e-11
17	0x800327aa	-2.89735e-40
18	0xae4c4068	-4.6441434e-11
19	0xad0fd2be	-8.175403e-12
20	0xacadfb02	-4.944823e-12
21	0xae279eff	-3.811262e-11
22	0x2bbaeda8	1.3282058e-12
23	0xae129eac	-3.3337486e-11
24	0xae126632	-3.3287324e-11
25	0x2d5b11d1	1.2452665e-11
26	0xae3e1890	-4.3222814e-11
27	0xae619395	-5.1290156e-11
28	0xae52807f	-4.78626e-11
29	0x2b16aa4a	5.352703e-13
30	0xad5e9b2c	-1.2653694e-11
31	0xadd1166e	-2.377051e-11
32	0xadc67bea	-2.2565023e-11
33	0xae2c3a07	-3.915981e-11
34	0xae45a868	-4.494219e-11
35	0x2d15d4fc	8.5169614e-12
36	0x2dd217ea	2.3884856e-11
37	0xada8fa3d	-1.9210517e-11
38	0xac7b556d	-3.5716666e-12
39	0x8b0379f6	-2.5321435e-32
40	0xae162c60	-3.4145464e-11
41	0xae1f342f	-3.6198763e-11
42	0xae6ea21b	-5.4258913e-11
43	0xae358a40	-4.1277426e-11
44	0xae3cddfe	-4.294342e-11
45	0xab5367a0	-7.5106067e-13
46	0xae05809f	-3.0354937e-11
47	0x2ce93036	6.627611e-12
48	0xadf6c23d	-2.8053221e-11
49	0xae309ec8	-4.0158793e-11
50	0x3cb1f471	0.021723004
51	0xbdca9ff2	-0.098937884
52	0x3e2ea241	0.17054082
53	0x3e00153d	0.12508102
54	0xbe2336fc	-0.15938944
55	0x3e16302d	0.14666815
56	0xbe6a136f	-0.22858976
57	0x3dd5a61a	0.10432072
58	0x3f516b37	0.8180422
59	0xbd3452ea	-0.044024386
60	0x3f7019cb	0.93789357
61	0x3d364d57	0.04450735
62	0xbefed522	-0.49771982
63	0x3f6d51a4	0.927027
64	0x00032a32	2.90643e-40
65	0xbecb5cfc	-0.3971938
66	0x3e831270	0.25600004
67	0x0000569c	3.107e-41
68	0xbddb65b2	-0.10712756
69	0x3f11f8c0	0.5702019
70	0xbe5c7c27	-0.21531735
71	0x3da66f64	0.08126715
72	0x3e21a16a	0.15784231
73	0x3dab0247	0.08350044
74	0x3d0a46ee	0.03375905
75	0x3d448e43	0.047987234
76	0x3e2872a1	0.16449977
77	0xbdfca25e	-0.123356566
78	0xbd047f39	-0.03234789
79	0xbf9487b3	-1.1603912
80	0x3cbd8a2f	0.02313718
81	0x3f031cd3	0.5121586
82	0xbeed99b0	-0.46406317
83	0x3e6cfbfc	0.23143
84	0x3e0ae7f4	0.13565046
85	0x3e24444a	0.16041675
86	0xbea6b79d	-0.3256196
87	0xbe5266d0	-0.20547032
88	0x3d91de19	0.0712244
89	0xa8898b8a	-1.5270571e-14
90	0x3dcbb293	0.0994617
91	0x3e2c576d	0.16830225
92	0xbe2fffba	-0.17187396
93	0x3ea7e2bf	0.3279018
94	0x3e6e95a4	0.23299271
95	0xbf884fdf	-1.0649375
96	0xbede847c	-0.43460453
97	0x3e2c6f88	0.16839421
98	0xbe418a48	-0.18900406
99	0x3e53c35f	0.20679997
100	0xbe15fb8e	-0.14646742
101	0xbe5024a1	-0.20326473
102	0xbd79f599	-0.061025236
103	0x3e669406	0.22517404
104	0x3e12f383	0.14350705
105	0xbdfa6b90	-0.12227547
106	0x3e22b7d0	0.15890431
107	0x3d819c8b	0.06328686
108	0x3f2cb628	0.6746545
109	0x3dbe1874	0.09282008
110	0x3f00eb52	0.5035907
111	0xbdd11171	-0.10208405
112	0x3cac4d98	0.021033093
113	0x3f41e7d9	0.75744396
114	0xb6aa4a22	-5.075025e-06
115	0x3d4007c2	0.0468824
116	0xbd3bc1fb	-0.04583929
117	0x0b54ca44	4.0981883e-32
118	0xbe281219	-0.16413154
119	0x3d7d4026	0.061828755
120	0x3e6acec7	0.22930442
121	0x3e360f29	0.1777922
122	0x3ca4ad71	0.020102235
123	0x3dfe5dc4	0.12420228
124	0xbc26186b	-0.010137658
125	0x3d9f7fce	0.07788049
126	0xbde23bee	-0.11046587
127	0x3d8287b5	0.0637354
128	0xbe0d93b0	-0.1382587
129	0xbe2ca364	-0.16859204
130	0x3e648df1	0.22319771
131	0x3e8a0d09	0.2696307
132	0xbc2f31d6	-0.010693034
133	0xbdca8ae2	-0.09889771
134	0xbd2f9230	-0.042864025
135	0x3dc7e2af	0.09760033
136	0xbd3e5969	-0.046471987
137	0x3e5c8e40	0.21538639
138	0x3f3afcb3	0.7304184
139	0x274f8b50	2.8802542e-15
140	0x3e646367	0.22303544
141	0x3df0e7e7	0.11762982
142	0x3e16da52	0.1473172
143	0xbe19024a	-0.1494228
144	0x3d8b7107	0.06808668
145	0xbef51ab8	-0.47871947
146	0xbdaa17d3	-0.08305325
147	0x3e2cce5c	0.16875595
148	0x3e7254a3	0.23665099
149	0x3e31fbbf	0.1738119
150	0xbdcce1dd	-0.100040175
151	0x3d38911b	0.04506026
152	0xbe7d4464	-0.2473312
153	0x3d47e1eb	0.048799437
154	0x3e54d2da	0.20783558
155	0xbeb55f16	-0.35424107
156	0x3d9d7ef6	0.076902315
157	0x3cdc190a	0.026867408
158	0x3f27fdfb	0.6562192
159	0x3e6d07c8	0.231475
160	0xbdae7672	-0.085186854
161	0x3e387104	0.18011862
162	0x3e6dac1d	0.23210187
163	0xbf0042b9	-0.5010181
164	0xb9b7f7c0	-0.00035089068
165	0x3de364d2	0.11103214
166	0x3cb8f1d9	0.02257626
167	0x86a40b3e	-6.170646e-35
168	0x3dab400e	0.08361827
169	0xbea42884	-0.3206216
170	0x3edfe3c4	0.4372846
171	0x3e881261	0.26576522
172	0x3e41dd61	0.18932106
173	0x3d47d845	0.048790235
174	0x3d76e40d	0.06027608
175	0x3e161079	0.14654721
176	0xbe4e2e58	-0.20134866
177	0x3e4cb8bc	0.19992346
178	0xbda617da	-0.08110018
179	0x3e6daeb7	0.2321118
180	0xbc447207	-0.011990077
181	0x3d91d4db	0.07120677
182	0x3e82ae6d	0.255237
183	0xbe81245e	-0.25223058
184	0xbd3c5aa4	-0.04598488
185	0xbe270057	-0.16308723
186	0x3d8e04aa	0.06934483
187	0x3dc0238a	0.093817785
188	0x3f317ac6	0.6932796
189	0x2724e8ab	2.2885702e-15
190	0x3e44220a	0.1915361
191	0x3e1e2260	0.154428
192	0x3e53ba7a	0.20676604
193	0xbe78228d	-0.2423193
194	0xbcbd8a8e	-0.023137357
195	0xbda1a7a5	-0.07893304
196	0x3cfe02a1	0.031007113
197	0xbdeffa5c	-0.11717674
198	0x3a9854e9	0.0011621985
199	0xbe220226	-0.15821132
200	0xbd44312d	-0.04789846
201	0x3dff2786	0.1245871
202	0xbd850952	-0.06495918
203	0x3e182040	0.14856052
204	0x3e5428fe	0.20718762
205	0xbeb6b7bc	-0.35687053
206	0x3e73cc54	0.23808414
207	0x3e7f21b3	0.24915199
208	0x3eecf61f	0.46281525
209	0x3dbbd36b	0.09171184
210	0xbe164757	-0.14675651
211	0x3e1aafe0	0.15106153
212	0x3dd6ad85	0.10482315
213	0xbf06976f	-0.5257482
214	0xbbc83c1e	-0.006110682
215	0x3e1cd994	0.15317374
216	0xbe1f2f66	-0.15545425
217	0x8000d276	-7.5499e-41
218	0x3e062c7b	0.13102905
219	0xbe7a1df3	-0.24425487
220	0x3ecc0879	0.39850214
221	0x3d48b76d	0.049003053
222	0x3d6abe98	0.05731067
223	0x3bc88b70	0.006120138
224	0x3e7e3273	0.24823932
225	0xbd25c89b	-0.040474515
226	0xbe6ad029	-0.2293097
227	0x3e665426	0.22493038
228	0xbdb40165	-0.087893285
229	0x3e8d886d	0.27643147
230	0xbde5f26b	-0.11227878
231	0x3e8211e4	0.25404274
232	0x3e634124	0.22192818
233	0xbe4b37ed	-0.19845553
234	0xbdd72077	-0.10504239
235	0xbe92841a	-0.2861641
236	0x3e83017e	0.25587076
237	0x3e25a5f6	0.1617659
238	0x3f27fb3f	0.65617746
239	0xa68424ec	-9.169348e-16
240	0x3c72e8d6	0.01482602
241	0x3d392d0d	0.04520898
242	0x3e181b6a	0.14854208
243	0xbe7bb3cc	-0.24580306
244	0x3dc164e5	0.09443072
245	0xbcd3dac8	-0.025861159
246	0x3e474f7a	0.19463912
247	0xbe02ea03	-0.12784581
248	0x3dd2f1df	0.103000395
249	0xbbd0c73c	-0.006371407
250	0x3d7bd30c	0.061480567
251	0x3db5f4d6	0.088845894
252	0xbc2cae66	-0.010539627
253	0x3e193e36	0.14965138
254	0x3e56c528	0.20973647
255	0xbe940bc0	-0.28915215

bias f4 [50]
0	0x2cdc58b2	6.2626232e-12
1	0x3d3f95dc	0.046773776
2	0x3df1598f	0.1178466
3	0x3e3e30ed	0.18573351
4	0x3dc22cad	0.094811775
5	0xbde1f632	-0.11033286
6	0x3dc5d65a	0.09660025
7	0x3d2e17e6	0.04250326
8	0xbd157a43	-0.03649355
9	0x3e0eb342	0.13935569
10	0x3d9de7e5	0.07710246
11	0x3dc0f0b2	0.09420909
12	0xbc392f74	-0.011302818
13	0xbce9c841	-0.028537871
14	0x3e551708	0.20809567
15	0x3d85695e	0.06514238
16	0xbd4896cb	-0.048971932
17	0x3dc4869e	0.09595989
18	0x3d320400	0.043460846
19	0x3e6f8e8d	0.23394223
20	0x3e01f61b	0.12691538
21	0x3e2d8cff	0.16948317
22	0xbdedaa0a	-0.11604698
23	0xb73935a4	-1.10393485e-05
24	0x3e587f63	0.21142344
25	0x3c84da86	0.016217481
26	0xbed32bae	-0.41244262
27	0x3e3b48bc	0.18289465
28	0x3e1cf837	0.15329061
29	0x3e3a92c9	0.18220057
30	0x3d476cb4	0.04868765
31	0xbbfeca84	-0.0077756066
32	0xbe845541	-0.25846294
33	0x3e3f55ab	0.18685023
34	0x3dc11e44	0.09429601
35	0x3e34ca1a	0.1765522
36	0x3dee34a5	0.11631135
37	0x3c327b7e	0.010893701
38	0x3db1d72a	0.086836174
39	0x3e2002d2	0.15626076
40	0x3de898a4	0.11357239
41	0x3de3a3c4	0.1111522
42	0x3e038cc7	0.12846671
43	0x3e0ce78d	0.13760205
44	0x3e10c3e3	0.14137225
45	0xbd941a2e	-0.07231556
46	0xbca197ed	-0.019725764
47	0xbd911eb5	-0.07085935
48	0x3e0a63e9	0.13514675
49	0x3e47d9ec	0.19516724

weight f4 [2, 50]
0	0x2f1be546	1.4178622e-10
1	0xbe652665	-0.22377928
2	0xbe87df78	-0.2653768
3	0xbe906eb6	-0.28209466
4	0xbe7c3171	-0.24628235
5	0xbe092376	-0.13392434
6	0x3e8f85ce	0.28031772
7	0xbe36311f	-0.17792176
8	0xbe8461ba	-0.2585581
9	0x3e933b75	0.287563
10	0x3e8e5604	0.278
11	0x3ee15578	0.4401052
12	0xbe4a6236	-0.19764027
13	0x3e91e84c	0.2849754
14	0xbe8ee3dd	-0.2790822
15	0x3eeb8fbb	0.46008095
16	0xbe53b53f	-0.20674609
17	0xbe4f5591	-0.20247485
18	0xbd9e02b8	-0.07715362
19	0x3e6981a0	0.22803354
20	0xbe855f40	-0.26049232
21	0x3e86ab71	0.26302674
22	0x3c54c8d4	0.012987334
23	0x38870e07	6.4399144e-05
24	0xbe8da143	-0.27662095
25	0xbe77d349	-0.24201693
26	0xbf4944af	-0.7862043
27	0xbe2ec190	-0.17066026
28	0x3e9b82f5	0.3037335
29	0x3e457745	0.19283779
30	0xbe392ff6	-0.18084702
31	0x3b38b3be	0.0028183307
32	0x3f8febbe	1.1243818
33	0x3e938355	0.28811136
34	0xbd18160d	-0.037130404
35	0xbe5571df	-0.2084422
36	0xbe4ffe05	-0.20311745
37	0x3e9c9fe0	0.30590725
38	0x3e303e13	0.1721118
39	0x3e8669db	0.26252636
40	0x3e9e066c	0.30864275
41	0xbe972d06	-0.29526538
42	0xbe61a894	-0.22036964
43	0x40147128	2.3194065
44	0xbe29210b	-0.16516511
45	0xbe10c9c6	-0.1413947
46	0xbca72aed	-0.02040621
47	0xbe3988fa	-0.18118659
48	0x3e5ed570	0.21761107
49	0x3e474e70	0.19463515
50	0x2ee2503e	1.0291544e-10
51	0xbf68fd5e	-0.9101161
52	0xbe386820	-0.1800847
53	0x3e3f6e7f	0.18694495
54	0x3e4773d4	0.19477779
55	0x3e4b1c58	0.19835031
56	0x3e454561	0.19264747
57	0x3e28b0ee	0.16473743
58	0x3e3bdbfa	0.18345633
59	0xbe670b45	-0.22562893
60	0xbe8d3928	-0.2758267
61	0xbf8af1a1	-1.0854989
62	0xbe6dba57	-0.23215614
63	0x3da692f4	0.08133498
64	0xbe2a61f3	-0.16638927
65	0x3de2c2a5	0.11072282
66	0xbe6fa84b	-0.23404042
67	0x3e848060	0.25879192
68	0x3ca92ec6	0.020652186
69	0xbe5487d2	-0.20754936
70	0xbe3e82fb	-0.18604653
71	0xbe371594	-0.17879325
72	0x3d6e8665	0.058233637
73	0x39c189aa	0.00036914396
74	0xbe51db97	-0.20493923
75	0xbd6f92f6	-0.058489762
76	0x3f620cd9	0.88300854
77	0xbe85be35	-0.2612168
78	0x3e959a25	0.29219165
79	0x3e8ba7e4	0.27276528
80	0xbe9bc9bf	-0.30427358
81	0x3b8a7f28	0.004226584
82	0x3f9189fb	1.1370233
83	0xbe8f7388	-0.2801783
84	0xbe75cfba	-0.24005023
85	0xbe420e4e	-0.1895077
86	0x3e40bf81	0.18823053
87	0xbe3acd53	-0.18242387
88	0x3e35caa2	0.1775308
89	0xbe7d198e	-0.2471678
90	0x3e1f6f7d	0.15569873
91	0xbe395316	-0.18098101
92	0x3e527564	0.20552593
93	0x4003e3fe	2.0607905
94	0x3e8422cc	0.25807798
95	0xbe8b947a	-0.27261716
96	0xbd75ae70	-0.05998081
97	0xbe77760f	-0.2416613
98	0x3e403a69	0.18772282
99	0x3e7d8785	0.24758728

bias f4 [2]
0	0x3e1c0c02	0.15238956
1	0x3de081e4	0.10962275
