model/AOA_AOS_30_ms-1/D14_A1.71_S1.44.pt (torch, 24847 bytes, 8 tensors)

weight f4 [50, 2]
0.5483497 0.16183688 0.14747538 -0.952204 -0.80111593 -0.3901211 0.13136287 -1.126564
-0.37590995 0.36788267 0.2797688 0.82762676 0.32109076 0.77274776 0.78358114 -0.31861043
-0.3433096 0.12429658 -0.12412929 -0.49090794 4.8862e-40 -5.336583e-39 -0.011915218 1.0410653
-0.010472596 0.8983495 -0.3682707 0.059851065 -0.7403591 -0.33745068 -0.77947783 -0.7642547
0.88837206 0.24285759 -0.54365045 -0.5813599 0.64056 0.36294615 -0.41635975 -0.7943297
-0.1308423 -1.0809519 -0.78171587 -0.79153645 0.02194804 -0.13398413 0.8799901 0.56469774
0.35527754 0.5151963 -0.5548679 -0.35614032 -0.5556817 -0.44193527 -0.38032472 -0.74475694
-0.86999744 0.60116047 0.2962894 -0.68521047 0.5848656 -1.067921 -0.7547645 -0.29417232
-0.7066416 0.039590213 0.31687605 -0.38040325 -0.3263509 -0.2335506 -0.6834272 -0.55802304
-0.70499927 0.6052807 -0.8490098 0.22236374 -0.28488788 -0.60006416 0.9462435 0.12595603
-0.50592387 0.6964663 -0.46221352 0.4851254 -0.8536109 -0.045896906 1.0437256 0.20295374
-2.21177e-40 -3.2361e-40 -0.31179014 -0.9779565 -0.83823043 0.077093184 0.27835858 -0.7567489
0.1155862 -0.7074603 0.8939373 0.47862342
00000000: a560 0c3f 91b8 253e c903 173e a4c3 73bf
00000010: ef15 4dbf f4bd c7be fd83 063e 4033 90bf
00000020: 4577 c0be 1e5b bc3e db3d 8f3e 59df 533f
00000030: 0266 a43e ccd2 453f c698 483f e820 a3be
00000040: 47c6 afbe 358f fe3d 7f37 febd 4958 fbbe
00000050: 1352 0500 391c 3a80 0c38 43bc a141 853f
00000060: 4095 2bbc 3cfa 653f fa8d bcbe 6426 753d
00000070: 2d88 3dbf 56c6 acbe dc8b 47bf 32a6 43bf
00000080: 5a6c 633f a9af 783e ad2c 0bbf 01d4 14bf
00000090: bdfb 233f 14d4 b93e 1b2d d5be 3159 4bbf
000000a0: 86fb 05be a25c 8abf 881e 48bf 22a2 4abf
000000b0: 60cc b33c 2333 09be 0847 613f 0890 103f
000000c0: f0e6 b53e e8e3 033f d30b 0ebf 0658 b6be
000000d0: 2841 0ebf 5745 e2be ecb9 c2be 64a8 3ebf
000000e0: 27b8 5ebf a7e5 193f 3fb3 973e f469 2fbf
000000f0: c1b9 153f a3b1 88bf 3f38 41bf c19d 96be
00000100: 77e6 34bf 5929 223d 943d a23e 37c4 c2be
00000110: 7717 a7be e327 6fbe 16f5 2ebf 99da 0ebf
00000120: d57a 34bf adf3 1a3f b558 59bf 52b3 633e
00000130: d3dc 91be ce9d 19bf 043d 723f 9efa 003e
00000140: 3a84 01bf 9e4b 323f 40a7 ecbe 5b62 f83e
00000150: 3e86 5abf 65fe 3bbd cd98 853f 1bd3 4f3e
00000160: 8d68 0280 1886 0380 f5a2 9fbe 5b5b 7abf
00000170: 4596 56bf 08e3 9d3d 0485 8e3e 4cba 41bf
00000180: 75b8 ec3d 1e1c 35bf 13d9 643f 210e f53e

bias f4 [50]
-0.35773563 0.18167342 0.7550025 -0.18590903 -0.26647204 0.16584104 0.8412168 -0.67116404
0.9096867 -0.4554831 -8.0752876e-23 -0.0049166335 -0.003455626 0.6554193 -0.6165327 0.5444097
0.38079458 -0.24020483 0.89999694 0.10003709 0.054615203 0.029690795 0.9607262 0.09475023
0.63606316 0.13710217 -0.746353 -0.5536083 0.28316143 0.29256478 -0.7425521 0.60988563
0.8180332 0.7591349 -0.43873802 0.3874983 0.13281825 -0.28939193 -0.45073187 -0.2941662
0.5671008 -0.3786044 -0.7375787 -0.52935314 -8.296976e-09 0.23290154 0.9526613 0.7926932
0.81811875 -0.034131706
00000000: 2029 b7be 9908 3a3e d847 413f f05e 3ebe
00000010: 066f 88be 3cd2 293e fc59 573f 68d1 2bbf
00000020: 3ae1 683f 1535 e9be 9c3f c39a b61b a1bb
00000030: c977 62bb 8fc9 273f 16d5 1dbf 6f5e 0b3f
00000040: 82f7 c23e 41f8 75be 3366 663f 3fe0 cc3d
00000050: 31b4 5f3d 1c3a f33c 27f2 753f 690c c23d
00000060: 09d5 223f 8364 0c3e fd10 3fbf 46b9 0dbf
00000070: 89fa 903e 0dcb 953e e517 3ebf 7721 1c3f
00000080: a06a 513f aa56 423f 45a2 e0be 2d66 c63e
00000090: 8201 083e 2e2b 94be 54c6 e6be f49c 96be
000000a0: 852d 113f 70d8 c1be f5d1 3cbf b083 07bf
000000b0: 7d8a 0eb2 be7d 6e3e 9ce1 733f f1ed 4a3f
000000c0: 3b70 513f b0cd 0bbd

weight f4 [50, 50]
-0.21053576 -0.63728887 0.29119205 -0.5256713 0.42499596 0.29558283 0.1477928 -1.205044
0.28912547 -0.22276382 1.32679e-40 0.18816057 0.055175725 0.32543206 -0.266253 0.2864135
-0.1000739 0.0013106879 0.42084023 0.06471991 -0.23887457 0.34653795 0.17628685 -0.37203062
-0.03219212 0.38545415 -0.23883851 -0.37608778 -0.25498042 -0.03936206 -0.9022176 0.3369609
0.2182873 0.09610493 -0.21838304 0.24916689 -0.31581625 -0.020856513 -0.2827587 -0.7078749
0.027132008 0.48306814 0.09903307 -0.67655784 -3.51502e-40 0.21824425 0.14485358 0.42995209
0.33245367 -0.09143326 -0.15434735 1.1351259 -0.053894695 -1.1050757 -0.4361493 0.41218692
0.38066906 0.021496557 0.15144905 0.41766807 3.57426e-40 -0.73134613 -0.77645713 0.036140487
-1.2848243 0.28080866 0.15429701 -0.48205304 0.49514005 0.60094625 -1.0008291 -0.15719448
0.3619652 0.13344206 0.42087424 -0.4498367 -0.5332763 -0.070277944 -0.13237752 0.46112624
-0.9722002 -0.37571207 0.34346798 0.49519172 -0.23265839 -0.39293692 0.12583908 -0.6450624
0.024048023 -0.12153884 -0.5176927 -0.10628542 -1.4107329 -0.41876024 -4.28317e-40 -0.8107706
0.4340054 0.4071528 0.37862295 -0.10800029 -0.26215792 0.1711949 0.19087629 0.18846211
-0.20094559 0.005241348 0.19199301 0.2770649 0.23426747 0.11879523 3.02239e-40 -0.044694494
0.054941334 0.017345328 0.22715762 0.032779634 0.15264261 0.14982645 0.18964078 -0.087972544
0.09521146 -0.15052253 0.071616665 0.0649478 0.19617131 -0.013009623 0.115589924 0.12571567
-0.11589903 0.11774317 0.22782378 0.067733996 0.10348303 0.1879642 0.09079605 -0.08009555
-0.075030595 -0.038164385 0.19072019 0.08874487 0.12724397 -0.19379649 -0.2730171 -0.014188744
2.8018e-41 0.19242361 -0.021176867 0.15815337 0.15554363 0.061414953 -0.12101677 -0.12782487
-0.016796332 -0.21029529 0.12448897 0.020236796 0.08197284 0.0006999747 0.24822266 0.25655326
-1.3609e-40 -0.10427045 0.0046245228 0.13548338 0.014818291 -0.015598309 -0.086439446 -0.075436234
0.19036578 0.018702079 -0.19603801 0.15897056 0.13272354 -0.078196265 0.08214817 0.22194403
-0.10278662 0.11270293 0.05848829 0.06320356 -0.50700027 0.12991963 0.22353521 0.060787685
-0.061483663 0.14687118 0.2355568 0.20050223 -0.09009625 -0.20898375 0.13248785 0.04932846
0.15189639 -0.19111982 8.9557e-41 -0.04482587 0.12803423 0.0048895823 0.15388581 -0.19829166
-0.37219724 0.26425493 0.050376084 0.018523525 -0.27430958 0.025158837 0.06271573 0.28193408
0.3074107 0.12062344 2.3518e-40 -0.026166167 -0.05868951 0.12019465 0.1201287 0.1855376
0.030931944 0.018319119 0.16192026 -0.02615823 0.061370734 -0.063454874 0.12052791 0.12826848
0.29049197 -0.089921236 0.1390442 0.1252872 0.024568912 0.22027281 -0.25196198 -0.03832339
0.14065894 0.16464995 0.06849628 0.007011756 -0.040512133 -0.022684168 0.11951902 0.0694747
-0.042876564 -0.32860038 -0.2918925 0.019134568 5.5334e-41 0.030533193 -0.06100243 0.042845376
0.12770548 0.030904334 -0.30348435 0.052218493 0.19926107 0.10030065 0.011075304 0.07576139
00000000: b096 57be 5d25 23bf 2017 953e 6592 06bf
00000010: 1299 d93e a256 973e ff56 173e e23e 9abf
00000020: 4108 943e 331c 64be db71 0100 2aad 403e
00000030: f1ff 613d 089f a63e 5052 88be caa4 923e
00000040: 8bf3 ccbd 63cb ab3a 5f78 d73e df8b 843d
00000050: 899b 74be 6c6d b13e 8a84 343e cc7a bebe
00000060: e2db 03bd 3f5a c53e 1592 74be 948e c0be
00000070: cb8c 82be 1d3a 21bd bcf7 66bf 2486 ac3e
00000080: b586 5f3e a9d2 c43d ce9f 5fbe 9b25 7f3e
00000090: abb2 a1be 47db aabc c0c5 90be 4a37 35bf
000000a0: f243 de3c b554 f73e dad1 ca3d e532 2dbf
000000b0: d8d3 0380 6c7b 5f3e 7f54 143e ae22 dc3e
000000c0: 5e37 aa3e 5c41 bbbd 3b0d 1ebe ce4b 913f
000000d0: afc0 5cbd 1f73 8dbf f64e dfbe 2a0a d33e
000000e0: 0ee7 c23e 8c19 b03c 7615 1b3e 97d8 d53e
000000f0: 5ce4 0300 8039 3bbf e5c5 46bf 0c08 143d
00000100: 1f75 a4bf 27c6 8f3e 0900 1e3e a8cf f6be
00000110: ff82 fd3e 9dd7 193f 2b1b 80bf 97f7 20be
00000120: 8153 b93e 09a5 083e d47c d73e ff50 e6be
00000130: cc84 08bf e2ed 8fbd f98d 07be bd18 ec3e
00000140: 1de2 78bf 555d c0be 09db af3e c589 fd3e
00000150: 003e 6ebe 072f c9be f6db 003e cf22 25bf
00000160: 5c00 c53c 5be9 f8bd 8287 04bf 2cac d9bd
00000170: e592 b4bf be67 d6be f9a9 0480 a98e 4fbf
00000180: f535 de3e 5576 d03e deda c13e 422f ddbd
00000190: 9039 86be b74d 2f3e 1375 433e 36fc 403e
000001a0: aec4 4dbe 9dbf ab3b d199 443e 73db 8d3e
000001b0: d0e3 6f3e ea4a f33d 854a 0300 9311 37bd
000001c0: 2a0a 613d ca17 8e3c 029c 683e f043 063d
000001d0: 584e 1c3e 1b6c 193e 3131 423e f32a b4bd
000001e0: 3afe c23d 9422 1abe c2ab 923d 5a03 853d
000001f0: 22e1 483e 5026 55bc 69ba ec3d 9cbb 003e
00000200: 785c edbd 5523 f13d a34a 693e 1fb8 8a3d
00000210: e9ee d33d b079 403e 48f3 b93d 2309 a4bd
00000220: a4a9 99bd 4252 1cbd 274c 433e dfbf b53d
00000230: 3e4c 023e 9672 46be e6c8 8bbe e877 68bc
00000240: 1a4e 0000 b20a 453e 1c7b adbc f5f2 213e
00000250: d446 1f3e 3f8e 7b3d a4d7 f7bd 86e4 02be
00000260: 7698 89bc a657 57be 13f4 fe3d a3c7 a53c
00000270: 60e1 a73d 827e 373a 152e 7e3e f35a 833e
00000280: 5d7b 0180 bf8b d5bd 4f89 973b 28bc 0a3e
00000290: 6bc8 723c 0d90 7fbc 2a07 b1bd 507e 9abd
000002a0: 3fef 423e 1a35 993c 30be 48be 2ec9 223e
000002b0: aee8 073e 5d25 a0bd 4d3d a83d 4c45 633e
000002c0: cb81 d2bd cbd0 e63d 6b91 6f3d de70 813d
000002d0: c5ca 01bf a709 053e 6ae6 643e 82fc 783d
000002e0: 4bd6 7bbd 6665 163e cd35 713e 7550 4d3e
000002f0: 6284 b8bd d6ff 55be e5aa 073e a40c 4a3d
00000300: ba8a 1b3e eab4 43be a6f9 0000 559b 37bd
00000310: 681b 033e ca38 a03b 3e94 1d3e f80c 4bbe
00000320: a390 bebe 6c4c 873e 2757 4e3d a6be 973c
00000330: 4e72 8cbe e819 ce3c 1b71 803d aa59 903e
00000340: ef64 9d3e 6c09 f73d 968f 0200 6e5a d6bc
00000350: 6964 70bd 9d28 f63d 0906 f63d 92fd 3d3e
00000360: fd64 fd3c fa11 963c 6dce 253e c949 d6bc
00000370: e15f 7b3d a1f4 81bd 56d7 f63d d058 033e
00000380: 5dbb 943e a028 b8bd 9a61 0e3e 4a4b 003e
00000390: be44 c93c 328f 613e 2901 81be fdf8 1cbd
000003a0: e608 103e ff99 283e c747 8c3d dfc2 e53b
000003b0: 0df0 25bd 26d4 b9bc 63c6 f43d c048 8e3d
000003c0: 569f 2fbd 4f3e a8be ef72 95be 19c0 9c3c
000003d0: 409a 0000 bf20 fa3c afdd 79bd a27e 2f3d
000003e0: 3ac5 023e 162b fd3c 4d62 9bbe 0fe3 553d
000003f0: 180b 4c3e 6d6a cd3d 3175 353c ca28 9b3d

bias f4 [50]
0.29635096 0.3419618 0.1649501 0.13675323 0.12139046 0.121755086 0.2784369 0.1905882
0.17760657 -0.014138775 0.16512837 0.10168137 -0.09466421 -0.2600347 -0.009636591 0.27581543
0.17624085 0.13501033 0.03464695 0.0886579 0.23803484 0.044071153 -0.11866877 0.21978454
0.09129465 0.11923483 0.21238054 0.1303667 0.21562621 0.17621164 0.092274226 0.20563672
0.09922658 0.20697664 -0.0014045619 0.09368466 0.12092745 0.19480878 0.1522832 0.15418714
0.22796476 0.1545551 0.14339133 0.3650976 0.062256187 -0.4552662 -0.12055567 -0.38618755
-0.5650971 0.089648016
00000000: 50bb 973e 9e15 af3e aee8 283e 0a09 0c3e
00000010: 909b f83d bb5a f93d 488f 8e3e 8e29 433e
00000020: 7fde 353e 52a6 67bc 6917 293e 523e d03d
00000030: 4fdf c1bd 4523 85be cbe2 1dbc ae37 8d3e
00000040: 7b78 343e 2640 0a3e f6e9 0d3d 4692 b53d
00000050: 68bf 733e f483 343d 9d08 f3bd 330f 613e
00000060: b1f8 ba3d 6431 f43d 497a 593e d97e 053e
00000070: 1ecd 5c3e d370 343e 45fa bc3d 6f92 523e
00000080: 4e37 cb3d aff1 533e 4719 b8ba bedd bf3d
00000090: d0a8 f73d f47b 473e 21f0 1b3e 3ce3 1d3e
000000a0: 986f 693e b143 1e3e 2dd5 123e 13ee ba3e
000000b0: 5800 7f3d a718 e9be e4e5 f6bd 60ba c5be
000000c0: 34aa 10bf 6199 b73d

weight f4 [50, 50]
0.08371316 0.13089041 0.06374686 -0.114384316 0.22412346 0.1388402 0.24225844 0.2905282
0.07731865 0.041372348 0.16503477 -0.17017621 -0.010218814 0.27296853 -0.6555593 0.1066924
0.15927401 0.2901282 -0.0033319278 -0.013885793 -0.11004034 0.17031638 -0.27900603 0.14157379
-0.13479117 -0.16671866 -0.013651199 0.26821095 0.2155433 0.2580891 0.110442325 -0.092168316
0.069406055 0.25072068 0.016440308 -0.27453154 0.27295676 0.11129918 0.17804067 -0.027398903
0.26025802 0.24581839 0.19243364 0.53931516 0.2150047 0.479652 -0.02630199 -0.15303224
-0.54955417 -0.06727696 -0.2383453 0.06940173 0.11682268 0.045141812 0.10947136 0.2122582
0.10789685 0.09577297 0.16683042 -0.0020768417 0.110796295 -0.061855927 -0.1120665 0.38234547
-0.78623104 0.04664492 0.08572881 0.10306242 -0.00013858645 0.1645232 0.12126471 0.05427196
-0.5486489 -0.08648853 0.023196185 -0.011824118 0.19522612 0.092144564 0.019277338 0.22662842
0.018247953 -0.06405007 0.1310831 0.09785004 0.04048524 -0.002333056 0.06522546 0.1319003
0.08171044 0.21629085 0.025519604 0.08149125 0.07724499 0.5468498 0.10839935 0.9052744
0.041267242 -0.19921301 -0.6698802 -0.07084967 9.322472e-29 4.2238397e-30 -5.123076e-30 -1.2131341e-29
1.1639389e-29 -1.8971396e-17 -1.7387867e-11 -3.4809017e-30 -4.6804283e-19 -4.281529e-12 -2.933366e-22 -1.9319222e-14
-1.3496402e-22 -1.0806987e-30 1.5851234e-29 -7.9407204e-15 -1.2951333e-11 -3.266214e-11 -4.88608e-40 3.5639574e-29
3.8903908e-29 1.5039683e-29 4.1542512e-30 -2.4842045e-13 -1.1054736e-25 4.3696226e-20 8.0483036e-29 3.0620402e-29
-3.4701172e-16 -2.1575233e-29 -2.7346385e-08 -2.2099547e-08 8.405142e-30 -1.426524e-15 -1.5552272e-10 2.264577e-29
-2.3379063e-22 -2.6343882e-30 -7.50593e-13 3.1854273e-29 -2.7024923e-29 -3.5100106e-29 9.375873e-23 -8.9206734e-29
-9.856553e-29 -2.7891608e-31 4.6759595e-31 1.5748094e-29 -1.3224446e-29 -1.1803937e-10 0.24924122 0.47612345
-0.18735781 0.17169712 -0.0075104036 0.26788187 0.035710346 -0.10920227 0.04779508 0.15749986
-0.1770041 0.05038115 0.055538215 -0.44892162 0.74034566 0.10932299 0.27839127 0.14974806
4.093915e-05 0.11018838 0.29644305 -0.14487973 0.5431722 0.27877438 0.2382478 0.1911519
0.03573697 0.24217142 -0.23025703 0.013899718 0.10886327 0.12924485 0.049937002 0.20111723
0.21763988 0.28904906 -0.2681169 -0.1967061 -0.13137764 -0.0012296094 0.018644903 0.16374925
-0.07047129 -0.36696675 0.06545536 -0.92934525 -0.086522356 -0.8223879 0.701367 0.14566241
0.106556416 0.099840164 0.21067128 0.07747496 0.14048322 0.11694621 0.11181482 0.11107581
0.17334634 0.09089455 0.1341769 -0.046390913 0.019111235 0.16747119 -1.0386838 -0.012644701
0.1941462 0.19995297 -1.2573045e-05 -0.15333346 -0.21203664 0.19305608 -0.060159612 0.047820598
-0.15498345 -0.040471394 -0.003096302 0.17597875 0.15418857 0.080193095 -0.01251901 -0.064560056
0.075828925 0.04868047 0.09564405 -0.31826156 0.21704029 0.31147966 0.20454007 -0.028332695
-0.087899655 -0.07517614 0.28538063 0.35568944 -0.09318681 -0.7742413 -0.08719477 -0.1875371
-1.0021104 0.1884125 0.60952854 0.072242916 0.17566198 0.07808112 0.08549875 0.15778324
00000000: ce71 ab3d 2308 063e b78d 823d 5342 eabd
00000010: 9f80 653e 202c 0e3e 9912 783e 1dc0 943e
00000020: 3e59 9e3d 0d76 293d e0fe 283e ac42 2ebe
00000030: d06c 27bc 88c2 8b3e bcd2 27bf 8c81 da3d
00000040: ba18 233e af8b 943e 795c 5abb 3d81 63bc
00000050: d45c e1bd 6b67 2e3e e1d9 8ebe b8f8 103e
00000060: b206 0abe 4cb8 2abe 47a9 5fbc f252 893e
00000070: 62b7 5c3e 4124 843e 962f e23d bec2 bcbd
00000080: c324 8e3d 765e 803e d3ad 863c 668f 8cbe
00000090: fdc0 8b3e d3f0 e33d 4b50 363e aa73 e0bc
000000a0: 8a40 853e d1b7 7b3e 530d 453e 8f10 0a3f
000000b0: 312a 5c3e f294 f53e 4577 d7bc 7cb4 1cbe
000000c0: 95af 0cbf 81c8 89bd ca10 74be 7f22 8e3d
000000d0: bb40 ef3d 9fe6 383d 8532 e03d 375a 593e
000000e0: 06f9 dc3d 9e24 c43d 98d5 2a3e 9f1b 08bb
000000f0: 2be9 e23d a45c 7dbd 1f83 e5bd c9c2 c33e
00000100: 7046 49bf be0e 3f3d 9692 af3d 6412 d33d
00000110: 8451 11b9 c578 283e a259 f83d 464c 5e3d
00000120: 4174 0cbf e620 b1bd ed05 be3c f2b9 41bc
00000130: 5be9 473e 4ab6 bc3d 82eb 9d3c 4811 683e
00000140: bb7c 953c af2c 83bd a63a 063e 9a65 c83d
00000150: dad3 253d 2fe6 18bb ed94 853d df10 073e
00000160: ce57 a73d 597b 5d3e 7d0e d13c e2e4 a63d
00000170: 9f32 9e3d 59fe 0b3f 7a00 de3d 10c0 673f
00000180: d707 293d 7ffe 4bbe 457d 2bbf a219 91bd
00000190: 4d5a ec10 dc56 ab0e 10d1 cf8e 860d 768f
000001a0: 2a13 6c0f f1fa aea3 fff1 98ad c033 8d8e
000001b0: 5124 0aa1 96a4 96ac a44f b19b 1803 aea8
000001c0: 5729 239b 785a af8d 28c0 a00f 1c0c 0fa8
000001d0: 9ed7 63ad 4da6 0fae 0a52 0580 d0b6 3410
000001e0: 2944 4510 4085 980f 3684 a80e 29d9 8baa
000001f0: dbd9 0896 7f59 4e1f 7a0c cc10 8e43 1b10
00000200: e409 c8a5 82cc da8f 56e7 eab2 6bd5 bdb2
00000210: fe79 2a0f 7295 cda6 c1ff 2aaf c8a7 e50f
00000220: 5951 8d9b 1aba 558e ed45 53ab 3685 2110
00000230: 5b08 0990 8bfa 3190 d8b1 e21a 7b2a e290
00000240: b0e4 f990 e206 b58c 5abe 170d 64b4 9f0f
00000250: a01c 868f 21c9 01af 1739 7f3e 74c6 f33e
00000260: bada 3fbe 5fd1 2f3e d519 f6bb d027 893e
00000270: 0345 123d 71a5 dfbd c6c4 433d a547 213e
00000280: 9040 35be 775c 4e3d 0a7c 633d 0ed9 e5be
00000290: 4b87 3d3f bbe4 df3d 4d89 8e3e 8e57 193e
000002a0: 14b6 2b38 72aa e13d 62c7 973e 5a5b 14be
000002b0: 550d 0b3f 84bb 8e3e 3bf7 733e 53bd 433e
000002c0: ee60 123d c9fb 773e 80c8 6bbe a5bb 633c
000002d0: b5f3 de3d c358 043e be8a 4c3d adf1 4d3e
000002e0: fddc 5e3e 3dfe 933e 9e46 89be 536d 49be
000002f0: dc87 06be d82a a1ba 32bd 983c e2ad 273e
00000300: 4053 90bd 11e3 bbbe 760d 863d 92e9 6dbf
00000310: a232 b1bd 0388 52bf ca8c 333f 8728 153e
00000320: 403a da3d 0079 cc3d 36ba 573e 31ab 9e3d
00000330: d5da 0f3e 7f81 ef3d 2bff e43d b77b e33d
00000340: b481 313e ec26 ba3d ab65 093e 6604 3ebd
00000350: 2a8f 9c3c 917d 2b3e 97f3 84bf b82b 4fbc
00000360: 43ce 463e 79c0 4c3e d1f0 52b7 7203 1dbe
00000370: 2220 59be 7eb0 453e ed69 76bd 88df 433d
00000380: fbb3 1ebe 55c5 25bd 54eb 4abb c633 343e
00000390: 9ce3 1d3e 473c a43d 891c 4dbc 1038 84bd
000003a0: 324c 9b3d 2c65 473d 07e1 c33d 2ef3 a2be
000003b0: cf3f 5e3e 437a 9f3e f472 513e f819 e8bc
000003c0: bc04 b4bd f3f5 99bd 691d 923e ed1c b63e
000003d0: bad8 bebd ae34 46bf 2c93 b2bd ba09 40be
000003e0: 2745 80bf 35ef 403e 100a 1c3f 18f4 933d
000003f0: bce0 333e ffe8 9f3d f819 af3d ee91 213e

bias f4 [50]
0.18560366 0.034702525 -3.6300913e-13 0.08800555 0.16691077 0.0788098 0.10265175 -0.053585175
0.124099895 0.008047468 -9.4129706e-07 0.019867226 0.0024289023 0.114932016 0.15855551 0.17328751
0.13068926 0.02006488 0.09288859 0.23218025 0.050457437 -0.00039823883 -0.0020659962 1.1984685e-09
0.15052845 0.18808791 -9.8953e-41 -0.0064742845 0.07329097 0.22040996 0.0011468456 -0.15983956
-0.050158605 -0.12126675 0.22407651 -1.3678785e-22 0.108867526 0.2627087 -0.40845928 0.057572242
0.23901926 0.002853218 0.024520362 0.05661715 0.2205716 0.10077028 0.028742943 0.15695304
0.13641036 0.15607738
00000000: e30e 3e3e 3c24 0e3d 215b ccaa 413c b43d
00000010: a8ea 2a3e 0867 a13d 153b d23d 217c 5bbd
00000020: 1628 fe3d 87d9 033c 71ad 7cb5 98c0 a23c
00000030: 382e 1f3b 7a61 eb3d 605c 223e 4872 313e
00000040: 68d3 053e 1a5f a43c 603c be3d a9c0 6d3e
00000050: 75ac 4e3d b6ca d0b9 aa65 07bb 5db7 a430
00000060: 2124 1a3e 1e9a 403e d713 0180 3c26 d4bb
00000070: 9319 963d 26b3 613e c151 963a fbac 23be
00000080: 1c73 4dbd b45a f8bd 5074 653e ca5d 259b
00000090: f0f5 de3d c181 863e 9321 d1be dfd0 6b3d
000000a0: 77c1 743e 0efd 3a3b edde c83c 62e7 673d
000000b0: 86dd 613e a660 ce3d 5276 eb3c 4cb8 203e
000000c0: 28af 0b3e c0d2 1f3e

weight f4 [2, 50]
-0.2971726 -0.25707835 6.825768e-30 0.28635257 -0.33288094 -0.24018836 -0.2000989 0.02545674
0.103665225 -0.17615922 -1.72007e-40 0.21431737 0.30181873 0.123995736 -0.12763177 0.12785783
-0.32728565 -0.20991024 0.21205519 -0.2280439 0.09765991 -6.56224e-40 -0.008971654 -2.7347162e-06
0.46639743 0.14065936 3.07341e-40 0.16142693 0.39949584 0.071975425 0.3591516 1.4483678
-1.1361997 2.5265343 0.28374168 4.1999744e-21 0.050631583 -0.27753574 1.4444218 -0.07774927
-0.2357962 -1.2344782 -0.0018292302 0.013961356 -0.22073698 -0.08975304 0.25268477 1.4549637
-0.19640101 0.5612829 0.096841455 0.29291224 -5.669409e-29 -0.34232727 -0.101016566 -0.24643
-0.14522837 0.068505995 0.23662029 -0.2273636 -6.75757e-40 -0.21253939 -0.197137 1.2079989
-0.2197566 0.31854597 0.08996566 -0.116709515 -0.2173879 -0.26835024 0.31878933 3.3294e-40
-0.028906422 0.00029048967 0.55418247 0.29400903 2.51467e-40 0.31735602 0.18603145 0.27929774
0.091416456 -0.07846153 -0.38545868 -0.84165514 -0.22179455 2.9871935e-20 0.23175807 0.28708476
-1.1268251 -0.2965032 0.21969755 -0.98625016 -8.845034e-05 0.30274335 -0.2760261 -0.25929174
-0.2490222 -1.4413329 -0.16301993 0.50573003
00000000: 0227 98be c69f 83be 6a71 0a0f ce9c 923e
00000010: 5f6f aabe f0f3 75be bae6 4cbe a78a d03c
00000020: 6f4e d43d 1563 34be 7cdf 0180 0376 5b3e
00000030: fc87 9a3e 7af1 fd3d e7b1 02be 2aed 023e
00000040: fc91 a7be b6f2 56be ff24 593e 5784 69be
00000050: eb01 c83d 4925 0780 d8fd 12bc 1186 37b6
00000060: a5cb ee3e 0209 103e be58 0300 1a4d 253e
00000070: b88a cc3e da67 933d b8e2 b73e 1e64 b93f
00000080: fe6e 91bf bdb2 2140 9746 913e a9ab 9e1d
00000090: 1063 4f3d 2a19 8ebe d0e2 b83f 023b 9fbd
000000a0: 8f74 71be 6203 9ebf c8c2 efba 2cbe 643c
000000b0: e008 62be 71d0 b7bd e65f 813e 403c ba3f
000000c0: 591d 49be 3cb0 0f3f d054 c63d 98f8 953e
000000d0: 91bc 8f90 8545 afbe c6e1 cebd 2558 7cbe
000000e0: bfb6 14be df4c 8c3d 974c 723e 01d2 68be
000000f0: bc5b 0780 eda3 59be 48de 49be b59f 9a3f
00000100: e007 61be 7518 a33e ea3f b83d 6605 efbd
00000110: ef9a 5ebe 3465 89be 5b38 a33e 1aa0 0300
00000120: 29cd ecbc dd4c 9839 e7de 0d3f 5a88 963e
00000130: fdbc 0200 7d7c a23e 077f 3e3e 1d00 8f3e
00000140: 8d38 bb3d 70b0 a0bd d75a c5be b676 57bf
00000150: 1c1e 63be f410 0d1f fd51 6d3e c6fc 923e
00000160: ce3b 90bf 44cf 97be 65f8 603e e47a 7cbf
00000170: 6a7e b9b8 2d01 9b3e 4b53 8dbe e3c1 84be
00000180: adff 7ebe 997d b8bf b2ee 26be 8677 013f

bias f4 [2]
-0.15458773 0.13795866
00000000: 3f4c 1ebe 0945 0d3e
