model/AOA_AOS_30_ms-1/D25_A2.16_S1.45.pt (torch, 24847 bytes, 8 tensors)

weight f4 [50, 2]
00000000: 153e 5fbf d576 f8be 4a9f fdbc f24f 5d3f
00000010: 728f b93e 8f23 45bf e9ef cabe 985e 4e3e
00000020: 0c97 143f 4347 b73e 8490 ebbe 9b86 1bbf
00000030: f883 a63e ae26 723f d175 32bf 6311 9a3e
00000040: 9f2b 0cbf f17e 2b3f aaef 22bd f2e0 0cbf
00000050: 9c3e 81be 3a2c 7abf 00c5 b83e 533a 64bf
00000060: 2528 103f d395 1f3d b660 5ebe 3db7 2a3f
00000070: 2643 27bf e980 2abf cfa5 073f ae57 1e3f
00000080: 9b01 3a3f d3d5 bb3e e132 023f eee4 05bf
00000090: 1bbc abbe ffa2 42bf 630e b03d 7569 4f3e
000000a0: 30a4 2b3f 8f4a 4cbf 7564 15bf 9fd4 063e
000000b0: 6df3 f4be 8b1f 33bf 2b1c ac3d a4ef 44bf
000000c0: 158e ae3e 9019 4b3f 57ff 4b3f edd3 efbe
000000d0: 0f57 59bf 66b0 babd a98b 243f c87c 87be
000000e0: 3e4e 153f 0454 623e 644f 38bf 99bc 33bf
000000f0: ae33 abbe 8514 cf3c 97a2 4ebd 1d26 18bf
00000100: 645d adbe 7fc9 f13e 6e6a 443f 8111 4abf
00000110: e218 0e3f 46fe 27be 3ba8 c23d dec0 0a3f
00000120: a858 94bd 4162 47bf f00f 423f ffed 28bf
00000130: 2db1 293e 5a14 353f 8808 cabe 6918 bdbd
00000140: e432 eb3b 63c7 57bf 192c 623f 6b8b 40bd
00000150: dcf5 5fbc 8dda 59bf 042e febe c6c1 e63d
00000160: d00b 9d3e 3e75 4d3f 12db 0ebf fec0 2bbf
00000170: 81d4 313f 150f 1f3f 53df 5b3f aa74 5b3e
00000180: 9b83 21bf 3871 063f de89 8ebd 27c2 3f3f
-0.87204105 -0.48528162 -0.030959744 0.8645011 0.36242253 -0.77007383 -0.39636162 0.20153272
0.5804298 0.35796556 -0.46008694 -0.60752267 0.3252256 0.9459027 -0.69711024 0.3009139
-0.5475406 0.6699057 -0.039779343 -0.5503074 -0.2524308 -0.97723734 0.360878 -0.89151496
0.56311256 0.038961243 -0.2171658 0.6668585 -0.65336835 -0.6660295 0.5298738 0.6185254
0.726587 0.36686572 0.50858885 -0.52302444 -0.3354195 -0.7602996 0.08596494 0.20255072
0.67047405 -0.7980127 -0.5835641 0.13167046 -0.4784197 -0.69970006 0.0840381 -0.7692816
0.34092775 0.7933588 0.7968649 -0.46841374 -0.84898466 -0.091156766 0.64275604 -0.26462388
0.58322513 0.22102362 -0.7199614 -0.7020965 -0.33437866 0.02527834 -0.050448027 -0.59433156
-0.33860314 0.47224042 0.767249 -0.7893296 0.5550672 -0.16405591 0.09504744 0.5420054
-0.07243472 -0.778843 0.7580557 -0.65988153 0.16571493 0.7073418 -0.39459634 -0.092331715
0.0071776975 -0.84288615 0.8834854 -0.04700796 -0.013669457 -0.8509911 -0.49644482 0.11267428
0.30673075 0.8025702 -0.55803025 -0.6709136 0.6946488 0.6213239 0.8588764 0.21431223
-0.6309144 0.5251651 -0.0695989 0.7490563

bias f4 [50]
00000000: 6b3e 463f 8527 e5bd 1f9e 3d3f cec6 003f
00000010: dd94 21be 2b36 533f a97b c6be f3c9 4f3f
00000020: 66c4 a73e 80fb a23c 9a40 06bf 6ee1 33bf
00000030: ec0d c6bd 3031 6ebe 3df3 ce3e 7465 303e
00000040: c746 063f 395c 553f 68dc 37be 21c1 183f
00000050: 1d2c 80bf 2f4e 1b3f 81d1 7ebf abf8 7dbe
00000060: 12ab 48bf b39a 393f 1343 2cbf f1f5 b8be
00000070: bf0a 803e d6f6 a1bf a812 e13e 8d57 4b3f
00000080: cc43 3dbe 296d be3e bf09 643f 5573 523f
00000090: 2877 a8be b48f b8bc 3680 ae3e 737f dcbd
000000a0: 203c 09be 39de 4d3c 87ec b83e de4d 043f
000000b0: 6da5 06bf 8f56 fcbd 0762 a23e c221 6e3e
000000c0: 2ba0 56bc 79e7 6b3e
0.7743899 -0.111891784 0.740694 0.5030335 -0.15779443 0.8250453 -0.3876622 0.81167525
0.32767028 0.019895315 -0.52442324 -0.70265853 -0.09670624 -0.23260951 0.4041995 0.17226201
0.5245175 0.83343846 -0.17955172 0.5966969 -1.0013462 0.60666174 -0.9953843 -0.2480189
-0.7838603 0.7250168 -0.6728985 -0.36125138 0.250082 -1.2653453 0.43959546 0.79430467
-0.18482894 0.37192658 0.8907737 0.8220723 -0.3290341 -0.02252946 0.34082192 -0.107664965
-0.13401842 0.012565189 0.36117956 0.51681316 -0.5259617 -0.12321197 0.31715414 0.23255065
-0.01309971 0.23037519

weight f4 [50, 50]
00000000: 4fb2 183e c539 e0bc 2691 133e 303d 5c3e
00000010: 94b9 093e c2fb 713e a670 cc3e 4bda 8b3e
00000020: 0d0f bcbd 1c18 533d b7a0 5ebd 460f e63d
00000030: c416 0a3d 65f4 02bf 3446 d83d 14e0 c4ba
00000040: 88ef 2bbd 0733 783e 9ab3 9d3d ef51 a83d
00000050: 9e36 eb3d 0ee4 5b3d 8439 1dbe b6be 853e
00000060: c2c9 b0be 3f48 343e 2a81 67be 4150 163e
00000070: 0004 733e 8313 02bf e245 d23e e2e7 683e
00000080: f550 97bd 000c 3b3e 8123 7a3e 7397 493e
00000090: 063b d33d 9597 8d3d 03ea 04be 5638 b4bc
000000a0: eb8a 833e 9476 e03d ea34 623e c2d5 223e
000000b0: 7c45 9d3e 8bfd a23c fa78 f23d c7c9 af3d
000000c0: 5cf1 24be 44e5 4c3d 0d86 973c a49a 22be
000000d0: 5375 a83d 836f 8b3c 515a 6bbe c531 5d3e
000000e0: ae53 f1bd cf50 af3d 4320 27be b9b9 913d
000000f0: 4c96 343e 325d 383e e1ec ab3c d758 a6bd
00000100: e445 bf3d a3fc 92bd 393b 2f3e ef2a 403e
00000110: 7a80 6c3e f81f 183e c3f9 473e eb2f 273e
00000120: 74b7 c33e d95a 543e 538a f23d d1be 2c3e
00000130: c315 8e3e 35c3 183e fa54 483e 87f3 ee3e
00000140: 4fbe df3d 5fc6 833d 75aa 8dbe 1cda 233e
00000150: b340 d73a a996 ecbc 6e30 e03d 46b7 863d
00000160: 01cd 7cbd 1146 673e 09ff 473c 0cbc b83e
00000170: 3b38 2a3d 611d 0a3e 8121 84ba bd7b 773e
00000180: 867e 0cbe 7481 543e 1af4 29be 0cd9 373b
00000190: 6d57 97bd cf29 753e 4f6d 3bbd aebc 273e
000001a0: aed2 5c3c 9a8d e43d 35bd 0c3d c6f7 693e
000001b0: 2152 393b 1213 ce3b e66a 91be 3743 61be
000001c0: 88e5 7b3d ce28 1d3e b4fc c33c 8e3a b53d
000001d0: d15f 043e 44a9 d93d a883 abbd 8404 223e
000001e0: 28a9 a0bd 489c 123e 3080 30bf 7345 edbd
000001f0: a71b 65bd 3dd4 8dbc 57de 80be d26d a0be
00000200: 21ad 493e c852 29bf a3aa c33d 111e fbbd
00000210: ac42 8a3b a4c0 62bd f7d2 583e cda6 533e
00000220: f220 293c da11 97bd a904 113e 4858 2dbe
00000230: 742f babd 074b 183e 2c6a aaba a4b3 5c3e
00000240: bee5 66bc 87fb ed3d 6aa6 2e3e fc8e 93bb
00000250: 7853 7d3d 9e2e 113e 0c7d 993d 3d6b 0d3e
00000260: 54fb 933e fea7 3b3e e01f 573e 69b6 93bb
00000270: 835a 073e a9f8 de3d e4d3 293e 52a0 1dbd
00000280: dfb9 e5be c9c5 25bc c5a6 043e b80f 5d3d
00000290: e811 ea3c b66f 393e 0bd4 48bd fbe3 983e
000002a0: 5c19 283e 9625 533e 38eb bdbc f524 123d
000002b0: c93d 55bf 8405 b5bc 23b8 91bd 1066 a23e
000002c0: 97f3 eebe 941c 90be 96a7 113e cb37 3cbf
000002d0: dee8 8e3e 3c6c ab3d 5e9d 0a3e 6238 633e
000002e0: faec 873e fd9e b0bc 1b8d 86bd 0550 a83d
000002f0: 8ae8 173e 0f05 19be f75e 883c 380c d53d
00000300: 1989 6fbd 3a4e 4b3d e382 9b3c a27a a1bc
00000310: 4b0e 533e a783 4bbd 9871 b23c e074 f23d
00000320: 9471 cc3d cb84 4b3e 1814 cd3d 2f28 8c3e
00000330: da34 ea3d 7ec4 ed3d b4ce 223d 3f09 173e
00000340: aac3 0cbc cbbd eb3b eb1e 0fbf 371b bd3d
00000350: fe00 f33d 4036 c4bd cf7a 85bd cde2 c63d
00000360: 4510 613e 9a1d 523d f9cd 8dbd 38ff 5c3e
00000370: 87a3 bd3d df3d 113e eefa e6be 0665 c33d
00000380: 73bb 31be 367f a13d ee14 ebbe d234 973c
00000390: a77b 3a3e cd76 0fbf 18aa 453e 2f9e 5a3e
000003a0: 2f5b 6dbd 9dfe 7c3e 3ce4 ba3d 05da 6b3e
000003b0: 59e9 0cbe 876a 453d 60a9 383e 4d70 32be
000003c0: 2d11 963d e3dc 723e d709 203d 1e3f 4b3e
000003d0: 3832 333d a73d 723d b659 a23d fb36 443e
000003e0: c1ee d5bd cff5 d13d 3173 063e b1fd a1bc
000003f0: cb83 d33c 6bb8 543e 1654 f0be e83c 9d3d
0.1491177 -0.027371297 0.14410838 0.21507716 0.13449699 0.23631194 0.39929694 0.27314982
-0.09182558 0.051536664 -0.05435249 0.11233382 0.033713117 -0.51154166 0.10560265 -0.0015020394
-0.04197648 0.24238215 0.07700272 0.082187526 0.11485027 0.053684287 -0.15353972 0.26122063
-0.3452893 0.17605685 -0.22607866 0.14679052 0.23731995 -0.5081102 0.4106894 0.22744706
-0.07388488 0.18266296 0.24427606 0.1968668 0.10313992 0.069136776 -0.12979893 -0.02199952
0.25691923 0.10960117 0.22090498 0.15901855 0.30717075 0.01989629 0.11839481 0.08583408
-0.16107696 0.050023332 0.018496538 -0.15879303 0.08225503 0.017020946 -0.22983672 0.21601017
-0.11783539 0.08560335 -0.163209 0.07115502 0.17635459 0.18004301 0.020986976 -0.081224136
0.093395025 -0.07177093 0.17112435 0.18766378 0.23095885 0.14855945 0.1952887 0.16326873
0.382259 0.2073778 0.118427895 0.16869666 0.27750978 0.14918216 0.19563666 0.46670172
0.1092497 0.06434321 -0.2766911 0.16001171 0.001642248 -0.028880434 0.10946737 0.065779254
-0.061718944 0.22585322 0.012206801 0.36080968 0.04155753 0.1348777 -0.0010080786 0.24168296
-0.1372014 0.20752507 -0.16597024 0.0028052954 -0.07389722 0.2394173 -0.04575854 0.1638057
0.013477964 0.11159821 0.03436013 0.22848424 0.0028277712 0.0062888945 -0.2840187 -0.21998297
0.061498195 0.15347597 0.02392421 0.08849059 0.12927176 0.10627988 -0.08374721 0.15822035
-0.07844764 0.14317429 -0.689456 -0.11585512 -0.055934574 -0.017313117 -0.25169632 -0.31333786
0.1969495 -0.6614194 0.09554031 -0.12261594 0.0042193737 -0.055359498 0.21174227 0.20669098
0.010322796 -0.07376452 0.14161934 -0.16928208 -0.09091082 0.1487237 -0.0013001612 0.21552902
-0.014092861 0.11620241 0.1705567 -0.004503129 0.06184718 0.1417794 0.07494554 0.1381044
0.28902686 0.18325803 0.21008253 -0.004507829 0.13218121 0.10887272 0.16584736 -0.03848297
-0.4486837 -0.010117956 0.12954243 0.05397007 0.028572991 0.1810902 -0.049030345 0.29861435
0.16415924 0.20619807 -0.02318345 0.035679776 -0.832974 -0.022097357 -0.071151994 0.31718493
-0.4667022 -0.28146803 0.14224085 -0.73522633 0.2791204 0.083702534 0.13536593 0.22189477
0.26547986 -0.021560187 -0.065698825 0.082183875 0.148348 -0.14943336 0.016646845 0.10402721
-0.058480356 0.04963515 0.01898331 -0.019711796 0.20610921 -0.0496861 0.021782681 0.118386984
0.09982601 0.19874875 0.10013598 0.27374408 0.11435862 0.116097435 0.03974791 0.14749621
-0.008591572 0.007194256 -0.5590655 0.092337064 0.118654236 -0.0958066 -0.065175645 0.097112276
0.21978863 0.05129776 -0.06924052 0.21581733 0.09259706 0.14183758 -0.4511332 0.09540753
-0.17356662 0.07885592 -0.45914406 0.018457804 0.18211232 -0.5604065 0.19303167 0.21349405
-0.057948288 0.24706502 0.091255635 0.23032387 -0.1376089 0.048197296 0.18033361 -0.17425652
0.07327495 0.23717074 0.039071884 0.19848296 0.043749064 0.059140828 0.07927267 0.19161598
-0.10445929 0.102519624 0.1312988 -0.01977429 0.02581968 0.20773475 -0.46939152 0.076776326

bias f4 [50]
00000000: f6ff 353e 0943 0f3e 5a56 023e db6c b73d
00000010: 9077 ae3b 7777 7b3e d673 f83c 65e9 de3d
00000020: f3dc c1bd 8835 d13d 5420 ef3d 2092 4b3e
00000030: 1b04 0e3e aae2 b93d abe6 e03d 23e7 3b3e
00000040: 3318 b7bb b945 613e 9eef ba3c 4960 163e
00000050: 984a 123e 249a 153e b056 023e 453f 203f
00000060: 82da 463e 09d3 0e3e a1ed 203e fcae a33d
00000070: 60df 7d3b f021 223e e98f 1a3d 69ef d73d
00000080: ca8b 2f3b d97b 883d 09ac 5f3d 286b 003e
00000090: 78d3 173c c382 623c 0f26 42bf ed21 9d3c
000000a0: 79db 95bd 8d24 2abc 87fb e73d 01e5 403c
000000b0: 6f72 113e c4a0 343e b498 963d f833 023e
000000c0: 7835 adbd e126 503e
0.17773423 0.13990416 0.12728253 0.089563094 0.0053243116 0.24557291 0.030328672 0.1088436
-0.09465971 0.102152884 0.11676088 0.19879961 0.13868754 0.09076436 0.109814964 0.1834989
-0.0055876016 0.21999253 0.022819337 0.14685167 0.14286268 0.14609581 0.12728381 0.6259654
0.19419292 0.13947691 0.15715648 0.0799236 0.0038737878 0.15833259 0.0377349 0.10543711
0.0026786202 0.06664247 0.054607425 0.12540877 0.009266727 0.013825121 -0.7583932 0.019181216
-0.07317252 -0.010384691 0.11327272 0.011773349 0.14203809 0.17639452 0.073533446 0.12715137
-0.08457464 0.20327331

weight f4 [50, 50]
00000000: 3ebb 0bbe c602 f5bd 5f3a d43c 8a43 8e3d
00000010: 0874 223d 4ee3 0bbd 8aa7 1cbe 3614 d33d
00000020: bd59 c83c 2abe 563e 0d26 c1bd 4235 303e
00000030: 9b01 6e3d 4d7e 3e3e bec3 a0bc 1ffe 8ebd
00000040: d420 29be e907 2d3e 953c fdbc b5fd 2dbe
00000050: 6180 213e fa65 5c3d c9b8 ed3d a447 613f
00000060: fdde 8b3c b287 fb3d 2c2b 48be f729 533f
00000070: e9e5 113e 9399 aabd d32f 1e3e 324a 473d
00000080: 4aaa 923d 2340 2b3e 074c 603d 5d3c 1a3e
00000090: a83d 8a3e 2f03 023e 8f9e 5e3f fdb0 493e
000000a0: 4cc3 823a 69c5 123e e2d2 a1bd 5fbc 463d
000000b0: e1a3 bdbd 33b0 7d3e 168f 723d cfa6 1e3e
000000c0: 42f3 f7b7 46de 90be bd4b f03d cd6b e83d
000000d0: d5f1 29bd 1e4a 403d ed1f 823e 59d7 3b3e
000000e0: 278e 263e a5ad afbd 580c 933d bb12 0a3e
000000f0: e245 e53d f2d4 1bbe fe25 343e a104 b8be
00000100: 68bd 5b3e 46ba 773e 8366 3c3e db32 843e
00000110: a9f1 a63d 1c3e 833d badf 8bbe f17c 403e
00000120: e9be 3c3e e08f 66bf 5b2f 393e 5ded 893e
00000130: da5e 363e 578b 56bf 7aa2 2cbe 3b53 e63d
00000140: e23f 0c3d 4967 2a3e 3020 c9bd bca4 7b3e
00000150: 97d3 023d a53f 5dbe 4116 86be 4bfd 05be
00000160: 7f4d 7dbf b8b6 01bd 55d3 ab39 162c 6d3c
00000170: 78f2 673e fda0 febd cefe e83c cb29 a5bd
00000180: 19c5 71be 2eaa 643e cb43 3f37 c8c3 8d3e
00000190: a83f 9d3c 8eea 313e 7576 bd3d 04a8 7bbe
000001a0: b6fc 07be 7713 8b3e dc51 b63d 8f92 8a3d
000001b0: 6811 bfba 5951 2a3e 205c 5bbe e138 e53d
000001c0: 9424 6a3e 6625 913e 907a 78be 8e29 b73d
000001d0: e113 683e 6d98 3f3e ecdd 2e3e 81b8 bd3d
000001e0: 73a8 4b3e 2d80 0bbe fe1d 91be ea46 353f
000001f0: d58b f73c de5e 9d3d dd1c 06be 757d 883f
00000200: 4af1 453e 826a 2cbe 2947 2e3e d607 7a3e
00000210: 2234 8b3e f693 60be ab49 0b3e 60b5 303d
00000220: 2104 043d 9675 663d 682b f13e 595c 7c3e
00000230: 506b e21c 9b23 c23b d3d0 c23d f1c1 493e
00000240: efc7 bc3d 5b01 613e a224 0f3c 875a 8abe
00000250: 927d 9696 546f 8e3d aeb3 33be 954a 0dbe
00000260: 39f7 d33d 1d2f b13d df5b 103e 6271 5f3e
00000270: d3d0 50be 4b39 583e 37df ee3d d26f 373d
00000280: 2537 113d 751e e63d 2d1e a43c 71c4 503e
00000290: 80eb cf3d 69c6 31be 650c 73be 8ffa b83d
000002a0: 790d c93d 1b8b 26be 0ed5 773e 4c33 ed3d
000002b0: 8753 3f3e 1aff ea3e 247e fab9 d2b4 853c
000002c0: 8866 3dbd 5f59 413f a966 383e 1e43 1f3e
000002d0: b90d 743c 51ec ad3d 20b2 b0bc 2bb4 2e3e
000002e0: a13c 2b3e fe9d c53d c4a3 743e 0bb7 bf3c
000002f0: 8e97 4ebf 47f6 043e e1b8 2a99 ea95 473e
00000300: edce 3fbe b0be 673e 438e 8ebe cc64 6fbb
00000310: 29aa 053d ebfb 163d fded 4d17 f7cd 86be
00000320: 4c19 c2bd d7f5 6a3d 9888 443d c982 aabd
00000330: 244e 10be 4c24 123e 9634 7ebd ac0b 593d
00000340: 4a1a 3699 325e 523c 7624 f0bd 56d0 373e
00000350: ee6e 513e 6d68 3e3e 864d 1ebe aa13 21be
00000360: 81c8 b3bb 0373 0e3e d024 f33d 8fff 933d
00000370: 51bf 113e 1c76 60bd f3ed 78bd 6732 1d3f
00000380: ca9c d13c 7b19 e3bd 5b34 3dbe a03e 6e3f
00000390: 34d6 163e ceef 943c c7af 5e3e a435 293e
000003a0: ce52 8f3e 98e5 8cbc fd88 423e 3de9 bd3d
000003b0: fdec 203e 7d63 f33d 4d14 6e3f e6d2 ee3d
000003c0: 8446 d717 c2a0 3f3c 6048 07be 42cd 773d
000003d0: 41fc 3cbe 0c2d 253e 4e69 a73d d1d6 453c
000003e0: 2532 4c98 02c1 4dbe a597 01be 0785 18be
000003f0: a3ad 113e 124e 6d3e 05af 433e e63b dcbe
-0.13645646 -0.119634196 0.02590674 0.06946476 0.039661437 -0.03415232 -0.15298286 0.10306589
0.024456853 0.2097098 -0.09431086 0.17207816 0.058107 0.18602867 -0.019624587 -0.069820635
-0.16516429 0.16897549 -0.030912677 -0.16991313 0.15771629 0.05380819 0.116075106 0.8799994
0.017074103 0.12281741 -0.19547719 0.8248591 0.1424786 -0.08330073 0.15447931 0.048654743
0.07161386 0.16723685 0.054760005 0.1506209 0.27000165 0.12696527 0.8696069 0.19696422
0.0009976416 0.14333118 -0.07901551 0.04851949 -0.09259773 0.24774246 0.05921849 0.1549332
-2.955797e-05 -0.2829458 0.11733196 0.11348686 -0.041490395 0.046945684 0.25414982 0.18343867
0.16265164 -0.08578042 0.07180089 0.13483708 0.1119497 -0.15217951 0.17592618 -0.35941032
0.21458972 0.24192151 0.1839848 0.2582005 0.08151562 0.06408331 -0.27319127 0.18797661
0.18432201 -0.90063286 0.18084471 0.26938906 0.1780962 -0.83806366 -0.16858855 0.11246344
0.03424061 0.16640963 -0.098205924 0.2457456 0.03194007 -0.2160631 -0.26188853 -0.13084905
-0.98946375 -0.031668395 0.00032773116 0.014475843 0.22651088 -0.1243305 0.028441813 -0.08064612
-0.23610343 0.22330543 1.1400271e-05 0.27688432 0.019195393 0.17374632 0.092511095 -0.24575812
-0.13279995 0.27163288 0.08902332 0.06766235 -0.0014577331 0.16632594 -0.21421862 0.111924894
0.22865516 0.28348845 -0.24265504 0.08943473 0.22663833 0.1871049 0.17076844 0.09263707
0.19888477 -0.13623114 -0.28343195 0.7081133 0.030218044 0.0768411 -0.13096948 1.0663286
0.19330326 -0.16837505 0.17019333 0.24417052 0.27188212 -0.21931443 0.13602321 0.043141723
0.0322305 0.056264482 0.4710343 0.24644603 1.4983165e-21 0.0059246547 0.09512486 0.19702889
0.09217822 0.21973173 0.008736761 -0.27022192 -2.4313053e-25 0.06954828 -0.17549011 -0.13797982
0.10349888 0.08651564 0.14097546 0.21820596 -0.2039216 0.21115606 0.116636686 0.044784375
0.03545298 0.11236278 0.02003392 0.20387436 0.1015234 -0.17360844 -0.23735197 0.09032165
0.09817023 -0.16264002 0.24202368 0.1158205 0.18684207 0.45897752 -0.00047777698 0.016321573
-0.04624036 0.75526994 0.18007912 0.15552947 0.01489585 0.084923394 -0.021569312 0.17060916
0.16722347 0.09649275 0.23890597 0.023402711 -0.80700004 0.12984572 -8.82613e-24 0.19490781
-0.1873128 0.22631335 -0.27842912 -0.0036528585 0.03263298 0.03686134 6.6539456e-25 -0.26329014
-0.09477481 0.057363357 0.04798183 -0.083257265 -0.14092308 0.14271659 -0.06206187 0.052989647
-9.4144885e-24 0.012839841 -0.11725704 0.17950568 0.20452473 0.18594523 -0.1545926 -0.15730157
-0.0054865484 0.13911061 0.11872256 0.07226478 0.14233138 -0.054800138 -0.0607738 0.6140503
0.025587458 -0.110888444 -0.18477003 0.9306431 0.1473015 0.018180754 0.21746741 0.16524369
0.27992862 -0.017199323 0.1899757 0.09273002 0.15715404 0.1188421 0.92999727 0.116613194
1.391185e-24 0.0116960425 -0.13211203 0.060498483 -0.18455602 0.16130465 0.08174382 0.012075142
-2.6391699e-24 -0.20093158 -0.12655504 -0.14894496 0.14226393 0.23174313 0.19109733 -0.4301445

bias f4 [50]
00000000: b942 473e a8d4 4d3e d4de c9bc 8f9a 0f3e
00000010: eb7e 35bd 31d2 833d 1d5f 2d3e c99d 1b3e
00000020: 022c bf3d bd16 1d3e 0373 513e b3a5 a3bc
00000030: 0b06 113d e4e6 fb3d fab8 9b3d 817f d03d
00000040: 12e1 233d 1b6d 89bd 38d3 4d3e 1466 4c3e
00000050: c109 22bd f6a0 933d 28ec ec3d 60bd d93d
00000060: fb07 a83b 62b6 843e 3109 ea3d b948 14bc
00000070: 2ab9 003e 5d6e eb3c 6512 1f3e 89a7 f53d
00000080: ba64 293d 4cae f63d 6bc1 a9bd e263 343e
00000090: 018d aa3d 51fa 433d c86e 703e 519b 7cbd
000000a0: 24af 183e 81d3 6e3e 6619 143e 5d5f 423e
000000b0: b000 50bd 9f65 813d 2883 873d c2d3 443e
000000c0: acfc f93c f477 213e
0.19459046 0.20100653 -0.024642386 0.14023803 -0.04431049 0.06436575 0.16930814 0.15196909
0.09334566 0.15340705 0.2045403 -0.019976472 0.035406154 0.12299898 0.07603641 0.101805694
0.040009566 -0.06710263 0.20100105 0.19960815 -0.039560083 0.07208435 0.11568481 0.106318235
0.0051279045 0.25920397 0.11427534 -0.009050542 0.12570634 0.028739149 0.1553436 0.119948454
0.041355826 0.12044963 -0.08288845 0.17616227 0.083276756 0.047846142 0.2347976 -0.06167156
0.14910561 0.2332287 0.14462814 0.1898169 -0.050781906 0.06318211 0.06616813 0.19221404
0.030515991 0.15768415

weight f4 [2, 50]
00000000: 5064 4d3e 5be2 8dbe 76c9 533e 0117 833e
00000010: 7328 9e3e 647d 713e 5ba7 8bbe 259c 5b3e
00000020: 4a6a 1a3d 4dc9 98be 813c 9cbe 6697 8a3a
00000030: 8fcf 18be 246c 9abe 25a7 2731 efcd 023e
00000040: c40c 513d ff71 14bf 06ce 543e d8d3 c0be
00000050: 76a1 853e 5741 303e 37a3 533e a6fe 503e
00000060: 7680 9b3e 5868 8bbe 395a 50be acec 9e3d
00000070: 83ef 663e 5a40 233e 7fe1 983e 1f94 11bf
00000080: 60e4 a3be 7903 e4be 4b33 9e3e 6075 68be
00000090: f5e8 a3be eea2 92be f746 98be 773c 533f
000000a0: 277f 68be 9862 a7be 16d5 99be d08e aabe
000000b0: 19cc 863e 6014 c8be ff9f 8ebd 1442 e3be
000000c0: 920c 88be 8312 823e 1b11 e2bd 97bf 293e
000000d0: fad6 6e3e 9390 6cbe ddab 643d f543 86be
000000e0: 6f1e d8be edef 2e3e 26de 863e 5177 1e3e
000000f0: a2cd 953e 44bc a83b d0b5 283f b029 34be
00000100: 7a82 a83d 007f 6abe 2b06 bc3d 8903 48bf
00000110: cf4a 74be 98d2 0c3e 850f 17be e109 a1be
00000120: cdab 6f3e ebeb 493e 90a8 20bd 56ab 333e
00000130: b32e 30be b68f e4bd ddbb 483e 2147 24be
00000140: 761c 143e 0e05 87be 677e 30be 9543 4cbe
00000150: ce9f 053e 888f 7b3e fd82 853e a76e 693e
00000160: 0e1e 683e b9fc 84bf e61a 0d3e 6316 86be
00000170: 6ca7 1e3f 3136 53be 5575 013e ed36 6dbe
00000180: 3c40 bb3d e0fd 4abe edc2 b6bd 759e 5bbe
0.20057797 -0.27711758 0.2068232 0.25603488 0.30890235 0.23582989 -0.2727612 0.21446283
0.03769902 -0.2984108 -0.3051491 0.0010573685 -0.14922927 -0.3016063 2.439671e-09 0.1277387
0.051037565 -0.57986444 0.20781717 -0.37661624 0.26099747 0.17212425 0.2066773 0.2040964
0.30371445 -0.27228045 -0.20346917 0.07759985 0.22552304 0.15942517 0.2985954 -0.5686664
-0.32010174 -0.445339 0.30898508 -0.22701025 -0.3201367 -0.2863993 -0.29741642 0.8251414
-0.22704755 -0.3269241 -0.30045384 -0.33312082 0.2632759 -0.39078045 -0.069641106 -0.4438635
-0.2657209 0.25404748 -0.11038419 0.16576992 0.23324195 -0.23102026 0.055827964 -0.26223722
-0.4221072 0.17083712 0.2634136 0.15475203 0.29258448 0.005149396 0.65902424 -0.17594028
0.082280114 -0.22900009 0.09180864 -0.78130394 -0.23856662 0.1375221 -0.14752014 -0.3145285
0.2340538 0.19718902 -0.039223254 0.17545828 -0.17205314 -0.11160223 0.19602914 -0.16042759
0.14463982 -0.26371044 -0.17235719 -0.19947655 0.13049242 0.24566472 0.260765 0.22796117
0.22667715 -1.0389625 0.13779792 -0.26188955 0.61974216 -0.20626141 0.12642415 -0.23165484
0.09143111 -0.19823408 -0.08923898 -0.21447165

bias f4 [2]
00000000: 2062 c3bc ab24 2b3e
-0.0238505 0.16713206
