model/AOA_AOS_30_ms-1/D36_A2.11_S1.70.pt (torch, 24847 bytes, 8 tensors)

weight f4 [50, 2]
000000 6e 4d 4c bf fd b5 54 be a6 6f e7 be 8a 7f fa be
       -0.7980565 -0.20772548 -0.45202368 -0.4892543
000010 d8 ad f3 be aa 14 0a bf b1 f7 c3 3e e3 06 40 3f
       -0.4759357 -0.5393778 0.3827491 0.7501051
000020 91 37 ba be 00 0e 36 bf aa 1c 3a bf be 7f 3e bd
       -0.3637052 -0.7111511 -0.7269999 -0.046508543
000030 fd 3e 1e bf 44 c1 bc be b1 c6 77 3e 19 16 4e 3f
       -0.6181486 -0.368662 0.24196889 0.8050247
000040 92 c5 30 bf e7 0b 17 bf 35 b2 f6 bb 10 fb 03 bf
       -0.6905147 -0.59002537 -0.007528568 -0.51554966
000050 12 d2 0f 3f 45 e6 df 3e fb cb f7 be f8 97 12 3f
       0.56179917 0.4373037 -0.48397812 0.57263136
000060 6b ac a4 3e 31 fe 08 3f 1f b6 0c 3f b0 72 aa be
       0.32162794 0.53512865 0.54965395 -0.33290625
000070 c2 06 20 3d 00 b7 09 bf 62 94 05 bf 13 50 5c 3e
       0.039068945 -0.5379486 -0.5217954 0.21514921
000080 c2 59 25 9b 2d 74 c4 af 0f e4 48 bf c7 9a 4d bf
       -1.3677482e-22 -3.573474e-10 -0.7847299 -0.80314296
000090 a0 cc 5d 3f 37 12 ac bd 9d ec 18 be 40 31 33 3f
       0.8664036 -0.08401912 -0.14934011 0.69997025
0000a0 49 61 75 bf d7 2c fc be 18 bf 01 3f 2c 54 3a bf
       -0.9585157 -0.4925296 0.5068221 -0.72784686
0000b0 21 f4 ec be c4 4c 41 3e 11 98 d7 0a 94 2b 69 94
       -0.46280006 0.1887694 2.0760948e-32 -1.1772088e-26
0000c0 18 ec 23 bf cc 24 1b 3f f8 27 34 3f 5c ef d6 3e
       -0.64032125 0.6060302 0.7037349 0.41979492
0000d0 e6 f4 03 3f b6 14 62 bf d6 68 1c 3f 7f 1f df be
       0.5154556 -0.8831285 0.61097467 -0.43578717
0000e0 21 69 21 3f 08 e9 84 3f 67 43 2e 3f e3 dd 4f bf
       0.6305104 1.0383615 0.680716 -0.8119795
0000f0 c3 a6 68 3f dc 6a 71 3f 85 d3 bc 3e ea d1 59 be
       0.9087946 0.9430368 0.36880127 -0.21271482
000100 a3 e7 02 3f 57 05 4a bf e2 ed 9d be 42 62 50 3f
       0.511347 -0.789144 -0.30845553 0.8139993
000110 ec 84 d9 be 03 c8 4c bf e9 64 1e bf f9 2d d6 3e
       -0.42484224 -0.79992694 -0.61872727 0.4183195
000120 a2 af 9d 3e 91 03 18 3f fb 44 b5 3d 3f 12 48 bf
       0.3079806 0.5938044 0.088510476 -0.7815284
000130 86 33 24 bf 7a 3b 6d 3e 40 4a 37 bf ca 7f e7 3e
       -0.6414112 0.2316722 -0.7159767 0.45214683
000140 69 43 7b 3f bb 5a e0 be 92 84 56 bf f4 60 3f 3f
       0.98149735 -0.43819222 -0.83796036 0.74757314
000150 b6 ed 84 be 34 bd 2a 3f f3 7f 33 3f c1 fc f5 be
       -0.2596261 0.6669495 0.7011711 -0.48044398
000160 1f 57 05 bf 4b 98 3d bf 8a ab 94 84 24 73 14 30
       -0.5208606 -0.74060506 -3.4952167e-36 5.400571e-10
000170 0b 2e d9 be 3b a7 34 bf fd 5e c5 be f6 1a 15 bf
       -0.4241794 -0.70567673 -0.38549033 -0.58244264
000180 06 44 27 bf bc c8 ab be 20 26 ff be bf 3e 57 bc
       -0.6533817 -0.33551586 -0.49833775 -0.013137518

bias f4 [50]
000000 bd f3 02 3f cf 96 81 3f df f5 93 be 2d 0a 3f 3f
       0.51153165 1.0124148 -0.28898522 0.746249
000010 35 55 be be d2 7f 1b bf 25 e6 39 be 4f bf 1d 3f
       -0.37174383 -0.60741913 -0.181542 0.6162004
000020 b9 96 66 3f ba 64 d8 3e ef a8 9e 3e c0 b0 7a 3e
       0.90073735 0.42264348 0.3098826 0.24481487
000030 61 d8 b8 bd 05 dc 07 be 9b 0a 2e 3f c2 35 48 3f
       -0.09025646 -0.13267525 0.6798493 0.7820703
000040 a8 8f ab bb 3d 44 d9 3c 5f e6 d8 be 87 ff 9f 3e
       -0.005235631 0.026521796 -0.4236326 0.3124964
000050 c8 7e 2c 3e 6c 5a 39 bf dd 91 0e 3f b9 83 63 b7
       0.16845238 -0.724036 0.5569132 -1.3560923e-05
000060 fb cb 94 3e f6 0a 54 3e dd 39 7c 3f 5a 63 a8 3e
       0.29061875 0.20707306 0.9852579 0.328883
000070 86 fe 06 bf e2 39 70 bf 49 8d 2a bf 06 95 46 3f
       -0.5273212 -0.9383832 -0.66621834 0.7757114
000080 df 0b 34 bf c3 97 14 3f 83 b9 80 3a d6 8a 5f 3f
       -0.70330614 0.5804407 0.0009820912 0.8732122
000090 2b b5 82 3e 6f 5b 81 3e fe 98 3a 3f 8f d4 4e bf
       0.25528845 0.2526507 0.728897 -0.8079309
0000a0 83 66 01 bf 3b 54 68 be 1f cb ac be eb 91 6d 3f
       -0.50547045 -0.22688381 -0.3374872 0.9280078
0000b0 73 6e 27 bf d9 b1 b8 bb f4 18 f2 3d 27 14 af be
       -0.6540291 -0.0056364355 0.11821166 -0.34195063
0000c0 b1 4d eb 3d db 6c 25 3f
       0.11489428 0.64619225

weight f4 [50, 50]
000000 c2 ab ae 3d 07 ca 89 3d 45 39 64 3e e5 77 6d bb
       0.08528854 0.06727987 0.22287472 -0.0036234793
000010 01 f3 5d 3e 2e 8d 8f 3e 47 ff 9e 3d 2c a8 a0 3b
       0.2167473 0.280374 0.07763534 0.00490286
000020 48 c3 01 3e 9c 89 f8 3d db 2b 4a bd 39 ef eb 3d
       0.1267215 0.12135622 -0.04935823 0.115202375
000030 92 6c d7 ba 02 f7 ed 3d 34 e8 e7 3d 55 e8 b1 3d
       -0.0016435555 0.116193786 0.11323586 0.08686892
000040 89 f6 16 05 18 41 d7 3d 1c 7b 7a bd 6b 0e 8b bd
       7.0982475e-36 0.105104625 -0.061152562 -0.067898594
000050 82 81 fc 3d 65 68 f3 3c 04 20 02 3e b2 a6 17 84
       0.12329389 0.029712865 0.12707525 -1.7826507e-36
000060 54 32 e8 3d e7 a5 c4 3c eb 3a bc 3d 06 e7 a7 3c
       0.11337724 0.02400489 0.09190925 0.020495903
000070 33 b4 50 bd 12 97 66 be 3a 49 5e bc 55 b0 60 3e
       -0.0509531 -0.22518566 -0.013567263 0.21942265
000080 f9 23 80 be 2d bf b2 3d ad 63 d8 3d 22 94 f3 3d
       -0.25027445 0.0872787 0.10565887 0.118934885
000090 b7 90 4b 3d 0f 05 f0 3d 9a f3 2f bc 6a 4a e9 bd
       0.049698558 0.11719715 -0.0107392315 -0.113911465
0000a0 d6 71 03 3d cf d5 35 bd 11 19 b3 3d 38 66 cd 3c
       0.032090984 -0.044393357 0.087450154 0.025073156
0000b0 50 3c 9d 3d 6a b5 fc 04 9b 69 53 3e 6a ac fb 3d
       0.07677519 5.9411518e-36 0.20645754 0.12288745
0000c0 9e 3b 4c 3e c7 79 f5 3d 2c 4f 3a bd b6 f1 aa 3d
       0.19944617 0.11986118 -0.04548566 0.08346884
0000d0 eb 9c 60 3d d8 ba 81 3d e1 90 99 3c be 03 9a 3d
       0.05483715 0.06334466 0.018745841 0.07520245
0000e0 76 52 a4 3e 0e 0c 39 3e 7c c7 e3 3c 20 79 82 3d
       0.32094163 0.18071005 0.027805082 0.06370759
0000f0 fe 7a 1b 3e ca 59 41 bb 95 f0 5b bd 3a 8f 47 3e
       0.15183637 -0.0029502981 -0.053696234 0.1948823
000100 72 f8 82 3e 17 0a b0 3e 3c 54 66 85 44 a6 2f 3e
       0.25580174 0.34382698 -1.08300194e-35 0.17153269
000110 16 2f 8d 3e 60 bb bb bd c8 8d 43 3d c2 53 30 3d
       0.27574986 -0.09166598 0.047742635 0.043048628
000120 06 87 0c 3e 53 47 0a 06 64 8e 02 3e 09 a4 63 3d
       0.13723382 2.6007316e-35 0.1274963 0.055576358
000130 5d 91 fa 3d 9e 1a b7 3d 4c ad 4d bd a0 6d a2 3d
       0.12234757 0.08940624 -0.050214097 0.079310656
000140 2f 15 93 3d 05 11 0f 3e 40 c6 17 3e 2d 4a b9 3d
       0.07181775 0.13971336 0.1482172 0.09047351
000150 02 85 61 3e 2c ca 81 3d 3c 23 3d bd 3a 49 6c 3e
       0.22023395 0.06337389 -0.04617618 0.23074809
000160 f6 e2 a8 3d c9 bb 14 bf 4c a9 6f 3d 42 95 11 be
       0.08246414 -0.5809904 0.058511063 -0.14217094
000170 bb 58 9c be 9f ca 0b 3e 84 c2 4d 3e e5 78 22 86
       -0.30536446 0.13651513 0.20093733 -3.0557633e-35
000180 84 94 12 3d 74 1d 3a bd 71 8d f1 bd a3 7d 96 3e
       0.035786167 -0.045438245 -0.11794556 0.29392728
000190 a9 ab e3 3d a6 db ad 3d a1 55 30 3e 50 05 cd bd
       0.11116726 0.0848916 0.17220165 -0.10010779
0001a0 ee e7 cf 3d 70 6f 09 3e 3f 53 b6 3d 2e 46 70 bd
       0.10151659 0.13421416 0.08902597 -0.05866068
0001b0 05 f5 3b 3e 4f 47 1a 3e cc 4d 52 bd 84 ca 35 3e
       0.18355186 0.15066265 -0.051343724 0.17753035
0001c0 5f 2f b4 bd 80 50 fc 3c c0 a1 a2 bd c3 48 a5 3d
       -0.08798098 0.030800104 -0.079410076 0.08070519
0001d0 be aa 1f 04 c9 15 6b 3e 4b 50 01 bf 42 d6 21 3e
       1.8768761e-36 0.22957529 -0.5051314 0.15804389
0001e0 56 f1 57 3d da c9 f5 bd a3 59 2b 3e b5 f9 a3 89
       0.05272039 -0.12001391 0.16733412 -3.9475646e-33
0001f0 c2 ca 1e 3c 67 bb 5a be e7 38 fc 3d 23 23 f5 3c
       0.009691896 -0.21360551 0.12315541 0.029923981
000200 a0 71 b2 3d 1a cd e0 be cf aa d1 39 d5 a1 9f be
       0.087130785 -0.4390648 0.0003999085 -0.31178156
000210 b5 65 db be 5e f3 fb 3d f2 59 9d 3c 30 6a 27 3e
       -0.42851034 0.12302278 0.019207928 0.16349101
000220 78 13 d0 3d e6 05 80 3d 65 57 32 3e 68 b6 a2 3e
       0.10159963 0.06251125 0.17416151 0.3177979
000230 0e 7e 28 be 38 b5 d0 bc 4a dd 97 3d 65 ad 49 3e
       -0.16454336 -0.025477037 0.074152544 0.19695051
000240 98 a8 4d bd 46 55 76 86 c8 d8 93 3e d3 22 e5 3d
       -0.05020961 -4.6330107e-35 0.28876328 0.11188283
000250 2c 88 93 3e cb 83 2c 3d 3c 14 5e bf 23 0c 71 be
       0.28814828 0.042117875 -0.86749625 -0.23539786
000260 7e 86 12 ba da c5 e2 3e 71 69 16 bd fe 99 34 23
       -0.0005589499 0.44291574 -0.03672165 9.790429e-18
000270 32 84 d1 b8 3c 9a eb 3e b7 4c 71 bf 4d e9 9e bc
       -9.99052e-05 0.4601611 -0.9425768 -0.019398356
000280 0f bb f9 3e 2f de 1c be 65 80 20 3f fd 56 29 be
       0.48775527 -0.15319131 0.62695915 -0.1653709
000290 41 e6 63 bd 38 27 84 3d e9 55 c5 8e 0e ff 0c bd
       -0.05563951 0.06452793 -4.8646978e-30 -0.034422927
0002a0 66 e1 05 bf 01 1c 48 3d fe ef fd 3c 68 ef 17 bf
       -0.52297056 0.04885483 0.030998226 -0.5934968
0002b0 33 1d 60 be f8 db 09 89 86 54 cd be c7 99 07 3f
       -0.21886139 -1.6594204e-33 -0.4010355 0.5296902
0002c0 6a 4e 9b be ba 5a 83 be 7b 84 47 3f 1d 98 89 bf
       -0.30333263 -0.25655156 0.77936524 -1.0749546
0002d0 4f 9b 3e 3f b6 62 51 3e 2d a4 9d bf 75 76 5f 3e
       0.7445573 0.20447811 -1.2315727 0.21822532
0002e0 a1 6b 5c bc ed 03 09 3e 4d fd 0c 3f 54 02 aa be
       -0.013453395 0.13380404 0.55074006 -0.332049
0002f0 8d a5 47 bd 1e eb c5 3e 34 3f 97 be 99 7e 34 bf
       -0.048741866 0.38655943 -0.29540408 -0.7050567
000300 be 13 ad 3c b1 5c 3d 3e 5a 0f ca ba 08 9d e6 04
       0.021127578 0.1849239 -0.0015415952 5.421695e-36
000310 8e ad 18 be f4 45 df bb ac 5d 87 3d eb 7b a1 be
       -0.14909956 -0.006813759 0.06609663 -0.31539854
000320 f9 03 8d 3d c9 3f 18 bf 3a 4a 41 bf 63 da 3b be
       0.06885523 -0.5947233 -0.75503886 -0.18345027
000330 20 69 6e be 62 b9 95 be b6 be 3f bd a7 59 fb bd
       -0.2328229 -0.29242998 -0.046812735 -0.12272959
000340 b4 9f 04 be 10 19 93 3d 41 38 df be 16 39 7d 3e
       -0.12951547 0.07182515 -0.43597606 0.24728808
000350 20 7d 8a 3e 96 35 c6 b7 a5 eb b4 3e 0a 1c 94 be
       0.27048588 -2.3628392e-05 0.35336033 -0.28927642
000360 5d cf 0d 06 47 af 6f 3d 1f c6 c5 3e cc 51 4e 3e
       2.66715e-35 0.058516767 0.38627717 0.2014839
000370 3e cb 6d 3e 09 a9 df 3b a0 b8 d6 bd 78 f0 ef 8d
       0.23222062 0.0068255705 -0.10484433 -1.4787403e-30
000380 1f 3f 6a 3e 1b ab ef be d9 47 0a bd 83 2b a2 3d
       0.22875641 -0.4681023 -0.033759926 0.079184555
000390 ee 96 0e 3f b5 58 49 39 42 1f 35 3f 5a be 2d bf
       0.5569905 0.000192019 0.7075082 -0.6786858
0003a0 a2 30 3f b0 7d 45 9b 3d 9b ce a8 3d 86 19 03 b8
       -6.9554507e-10 0.07581613 0.08242532 -3.1256604e-05
0003b0 49 e8 65 3c 31 5c e0 bd 5b 11 9b bc 4d 31 24 3f
       0.014032432 -0.10955084 -0.018929174 0.6413773
0003c0 ef 54 5c b9 e0 12 1d 3f 0e 16 41 3f a5 27 03 bf
       -0.00021012475 0.61356926 0.7542428 -0.5123237
0003d0 57 e8 aa 3a d9 be 18 11 c2 a9 94 3e ca 94 ee be
       0.0013039213 1.2049495e-28 0.29035765 -0.46597892
0003e0 dd d1 9c 3e 78 dc af bd cd 60 20 be f2 7f 8f 3d
       0.30628863 -0.08586973 -0.15661927 0.070068255
0003f0 02 15 eb 3e 68 00 c8 3e ea 92 cc 3e d6 67 85 3f
       0.45914465 0.3906281 0.39955837 1.0422313

bias f4 [50]
000000 2f 05 26 3e ea f8 21 3e d4 4c d4 3c 3c 36 94 3d
       0.16212915 0.1581761 0.02591554 0.07236907
000010 bc 9b a0 be 73 87 85 3d 33 b2 11 3e 35 cc 24 3e
       -0.31368816 0.065199755 0.14228134 0.16093524
000020 a6 a5 7b 3d d2 f1 8a 3d dd 1f 23 3e ee 86 39 3e
       0.06143727 0.06784405 0.15930124 0.18117878
000030 a2 60 f3 3e 9b a9 3b 3e 6e 60 fb 3e ee b8 92 3e
       0.47534662 0.18326418 0.49097008 0.28656715
000040 41 2a 6a be 47 d9 24 3d 88 d8 46 3e af b5 6a ba
       -0.22867681 0.040246274 0.19418538 -0.00089534646
000050 cf a5 1d 3e 3a 1e 17 3e e6 36 2e 3e 22 fc 6a 3e
       0.15395282 0.14757624 0.1701313 0.22947744
000060 6c 14 09 bf df d6 69 3e 8d e1 12 3e 00 f0 dd 3d
       -0.53546786 0.22835873 0.14343853 0.10836792
000070 93 10 32 3e 13 cd 2b 3e b2 f4 04 3e a7 3a e0 3d
       0.17389135 0.16777448 0.12983969 0.10948687
000080 64 8e e8 3d f6 0c 42 3d 7e 8f 8a 3d c0 19 6d be
       0.11355284 0.04737564 0.0676565 -0.23154354
000090 e5 57 68 3e c6 53 83 3e 5e ff 66 3e b5 71 4a 3e
       0.22689779 0.25649852 0.22558352 0.19769938
0000a0 f2 05 86 3e ff 03 24 3e c3 72 24 3e ef c9 70 bb
       0.2617641 0.1601715 0.16059403 -0.0036741456
0000b0 0c b3 0a 3e dd c0 2a 3f 92 93 e1 3d d1 b4 a3 3d
       0.13544863 0.66700536 0.11014475 0.07993472
0000c0 e3 3b 44 bd dd fb 85 3e
       -0.047908675 0.2616872

weight f4 [50, 50]
000000 7b 58 7e 3d 87 68 cc 3d a9 1d 13 bd 5d d0 b9 be
       0.0620961 0.099808745 -0.035916958 -0.3629178
000010 1a d6 20 bf b2 1e 95 3e 89 be af 3d 38 b8 4a 3e
       -0.62826693 0.2912498 0.085812636 0.19796836
000020 4d 18 47 bd 8a ab 80 3e 27 2f a0 3d 37 12 cd 3d
       -0.04860716 0.25130874 0.078214936 0.1001324
000030 2e a5 9f 3e 96 a6 bd 3d 53 ba 09 3d ae f2 83 3d
       0.3118071 0.09260289 0.03362496 0.06442772
000040 d1 48 14 bf 2e b8 46 be 3e 81 9f 3d 4e c8 41 b7
       -0.5792361 -0.19406196 0.07788323 -1.15503335e-05
000050 0a 82 14 3e a4 41 b0 3d 1a d8 b5 3d a7 12 2c 3c
       0.14502731 0.0860627 0.08879109 0.010502494
000060 89 e8 df 3e d2 40 97 3d 11 ce f5 bc 12 cd d2 3d
       0.43732098 0.0738541 -0.030005487 0.1029302
000070 03 26 ec ba c6 f8 84 bc 8a 88 86 bd 10 6d 62 08
       -0.00180167 -0.016231906 -0.065690115 6.8137604e-34
000080 0f 9f 29 3d a2 1b 11 bb 1b 22 9c 3c 20 c6 dc be
       0.041411456 -0.0022141715 0.019059232 -0.43119907
000090 aa 71 48 3c 92 11 f8 be a9 4f 31 3d 1a 99 8c bb
       0.012234131 -0.48450905 0.04328886 -0.004290712
0000a0 26 aa 33 3d 2e a2 f0 be 9f a8 ff bd 11 16 99 3b
       0.043863438 -0.46998733 -0.12483334 0.00467182
0000b0 ac 62 0b 3e 1e 95 8e 3f 95 f0 c3 3c 0c c9 a9 be
       0.13611859 1.1139257 0.02391843 -0.331612
0000c0 61 af 47 3e 0e 62 d8 bb 26 a6 66 39 19 ba f8 3d
       0.19500495 -0.006603486 0.00021996404 0.1214487
0000d0 e1 08 a2 bd b1 ab 0b bf 3f 0d 8f 3f d1 02 6e be
       -0.0791185 -0.54558855 1.1175917 -0.23243262
0000e0 2a 8c 76 be 88 7e 53 3e 5e aa 04 3e 96 48 89 3c
       -0.24076906 0.20653737 0.12955615 0.016758244
0000f0 83 23 6a be 32 e7 b7 3d 0d 1a b2 bf 2b 9e 1f 3f
       -0.22865109 0.08979644 -1.39142 0.6235072
000100 87 b7 e4 3e cf f0 95 be 5f d4 56 bf 7d ae b0 3c
       0.4467127 -0.29285285 -0.839178 0.021567577
000110 44 d5 33 be a6 a3 a1 b6 e8 0a d3 3d a4 bf 97 be
       -0.17561823 -4.817225e-06 0.103048146 -0.29638398
000120 78 f6 8e be 4c 97 ef 3d 45 be fc 3e 6f 8d bb 3d
       -0.27922416 0.116987795 0.49363914 0.09157836
000130 2e a9 f1 3d 11 5d a5 bd 76 f5 33 3e 43 28 d0 3a
       0.117998466 -0.08074392 0.17574105 0.001588114
000140 b0 7f 6f 3d 58 08 2f 27 de e1 b9 3d 85 8a 30 3e
       0.05847138 2.4290652e-15 0.09076284 0.17240341
000150 69 c2 f0 3d a7 a1 1e bf 23 4f fd bc 0f bd c6 bc
       0.11755831 -0.6196541 -0.030921524 -0.024260072
000160 97 2a 21 3e 29 af 56 3d c7 62 9c 3c 37 56 f8 bb
       0.15738903 0.05241314 0.01909007 -0.007578637
000170 67 92 25 be 8b 2f 17 3b de e0 9b bd 9d c7 4f 3f
       -0.1616913 0.002306911 -0.076112494 0.8116396
000180 41 bf d4 3d 6f 24 d3 be 96 11 22 3d 07 6d c9 3d
       0.10388041 -0.41238734 0.039567553 0.098352484
000190 a0 dd d5 89 79 44 3f 0d 25 8f 5b 87 d5 06 95 03
       -5.14863e-33 5.893884e-31 -1.6517795e-34 8.7590015e-37
0001a0 74 54 36 03 ca 09 bd 86 89 69 f8 a9 df c8 d0 bc
       5.358194e-37 -7.110828e-35 -1.103172e-13 -0.025486408
0001b0 62 0f 3e bb da 63 2b 04 e0 c5 13 80 d3 d7 0c 3b
       -0.0029000868 2.0146803e-36 -1.815859e-39 0.0021490946
0001c0 d2 12 bd 05 b2 92 0a 09 ac 9d 29 04 40 08 7e bc
       1.7780388e-35 1.6680122e-33 1.9938254e-36 -0.015504897
0001d0 dd 7b 25 88 6e 72 18 03 c6 01 f0 b6 6e fb 43 07
       -4.979848e-34 4.4800144e-37 -7.152764e-06 1.4744058e-34
0001e0 b8 ec fa bb 81 4f 21 bb f2 1a 54 08 d2 ea ad 3c
       -0.0076576136 -0.0024614038 6.3828103e-34 0.021230135
0001f0 51 29 60 89 4b fb d1 39 74 54 89 bc 83 9f 9d 0c
       -2.6982446e-33 0.00040050814 -0.016763903 2.4285683e-31
000200 c6 53 99 03 de ae 04 0f 52 c9 b1 8a 5e 8e de 83
       9.011765e-37 6.541781e-30 -1.7120208e-32 -1.3080673e-36
000210 4f f7 7c ba d3 91 54 3d 58 60 69 3d 38 e4 e6 0d
       -0.0009649889 0.05189688 0.056976646 1.4229786e-30
000220 51 c6 b0 b3 70 0f e0 04 cd 08 ab bd 98 7e 4a bc
       -8.231712e-08 5.2676324e-36 -0.08351288 -0.012359284
000230 66 a3 5d bd 2d d4 e7 83 99 10 4e 0e e3 90 c9 0d
       -0.054110907 -1.3625673e-36 2.5399452e-30 1.2422462e-30
000240 ef 3f 93 3b 21 3a 8f 84 73 39 ef 3b b0 04 c6 02
       0.0044937055 -3.367252e-36 0.0073005497 2.9096176e-37
000250 04 e7 58 05 65 32 fd bb 85 e2 24 3d 44 1c 9e bd
       1.0198702e-35 -0.0077269548 0.04025509 -0.07720235
000260 38 fc 1a 3d 3a 27 5c 3f 04 e8 f9 3e 80 96 4b bf
       0.03783819 0.85997355 0.48809826 -0.7952652
000270 77 a9 20 3e be 4f 7b 3c d7 96 70 be 1b 6e 4a be
       0.15689646 0.015338836 -0.23495041 -0.19768564
000280 d3 6f bc 3c 78 e7 50 bd 4b 48 77 3d 13 57 f8 be
       0.02300254 -0.051001996 0.06037168 -0.48503932
000290 9d 5d 30 3f 67 b1 a7 3d 1e 2c d9 3e c5 f2 68 3e
       0.6889284 0.08188134 0.4241647 0.22748859
0002a0 1c 8a 76 3e 26 d7 05 b5 cf 15 1d bd 7f 45 25 3e
       0.24076122 -4.9859443e-07 -0.038350876 0.16139792
0002b0 c4 e0 f0 3d e3 c6 70 bd 6a 00 c0 bf 48 a7 f4 bd
       0.11761621 -0.058783423 -1.5000126 -0.11945969
0002c0 0e 6c 8a 3e d2 10 30 3e 79 f3 7c 3d f6 2f 69 3d
       0.27035564 0.17193916 0.06175563 0.056930505
0002d0 e0 a0 23 3e bb 5e f3 35 79 35 2c 3e 0e cc 7e 3e
       0.15979338 1.8132481e-06 0.16817273 0.24882528
0002e0 3a a4 53 be ab 3f af 3e 89 5e 2d 3e f5 01 8e 3e
       -0.20668116 0.34228262 0.16930594 0.27735868
0002f0 31 56 49 3e 1e 32 9e 3d 55 b9 10 3d 5c 89 1f 3e
       0.19661786 0.07724403 0.035332996 0.15579742
000300 80 80 65 3e 99 13 c5 ba 3a eb bf 3c b7 b9 86 3f
       0.224123 -0.0015035748 0.023427594 1.0525426
000310 32 a1 21 be b0 df 52 be bb 74 5f be 86 5b 69 3e
       -0.15784147 -0.20593143 -0.21821873 0.2278882
000320 0a 84 36 bd f0 ab 86 bd ce c7 1b 3e fd 78 67 3f
       -0.044559516 -0.06575763 0.15212938 0.9041899
000330 95 11 11 3f 21 b3 4d bf 76 f1 1e 3e 9b 26 76 be
       0.56667453 -0.80351454 0.15521798 -0.24038164
000340 5b 63 f9 3d 79 68 47 be d0 54 1d 3e 51 09 26 be
       0.12177154 -0.19473447 0.15364385 -0.16214491
000350 6e ae 10 3d 49 5c e7 be 8c f6 3c 3f 3b 09 b8 3d
       0.0353226 -0.45187595 0.738137 0.089861356
000360 e2 13 af 3e ff 60 77 3e 33 52 63 3d a4 18 2c b5
       0.34194857 0.24158095 0.055498313 -6.411085e-07
000370 69 3b 3c be c7 06 6d 3e 29 17 4a 3e 04 ad b8 3d
       -0.18382038 0.23147117 0.19735397 0.09017375
000380 ab b6 bd bf f3 42 86 be 35 4c 52 3d c2 22 5d 3d
       -1.4821371 -0.26222953 0.051342208 0.053988226
000390 07 ae 92 3e cb 6b 37 3e 92 3e 83 3e f7 83 56 b8
       0.28648397 0.17912214 0.25633675 -5.1144478e-05
0003a0 b5 53 fc 3c 98 5d 09 3e 62 17 eb bd 35 53 9c 3e
       0.030801633 0.1341461 -0.11479069 0.30532232
0003b0 14 55 8d 3e ec 36 5c 3e 7b a7 1e 3e b8 74 ee 3c
       0.27603972 0.21505326 0.15493576 0.02910839
0003c0 d0 79 85 bd 45 f8 49 3e de e2 7f 3e 6f 68 81 ba
       -0.065173745 0.19723614 0.24988887 -0.0009873043
0003d0 ef d1 d8 3d 18 40 67 3f 34 9a f3 3d f6 2c 50 be
       0.10586917 0.90332174 0.11894646 -0.20329651
0003e0 ed 4d de bd 9c 92 53 3e 07 cc 04 3e b1 30 fb bd
       -0.10854707 0.20661396 0.12968455 -0.122651465
0003f0 4d ef 6e 3d 48 5c 78 3f a1 56 fe 3e 5f 87 3d bf
       0.058333684 0.9701581 0.49675468 -0.74034685

bias f4 [50]
000000 10 a7 c4 3d 79 13 a2 3d 17 77 37 3d 1e 33 c6 3d
       0.09602177 0.0791387 0.044791307 0.096777186
000010 f4 39 29 3e 1b 82 58 3e d3 f3 0b 3e 8d 40 d3 bd
       0.16526014 0.21143381 0.1366723 -0.103150465
000020 b3 73 2e 3e 5a 02 2c 3c 3d 9f 98 3d 1e bb 83 bd
       0.17036323 0.0104986075 0.07452247 -0.06432174
000030 38 af b2 3d b5 e2 bd 3d 22 8f e6 3d 50 b4 01 3e
       0.087248266 0.092717566 0.11257769 0.1266644
000040 8a 94 52 3e d2 46 45 3b af 5d b4 bd 59 dd 1c 3c
       0.20564476 0.0030102027 -0.08806931 0.009574258
000050 74 03 f4 3d b9 86 36 bc 0e a0 20 3e 37 90 2a 3d
       0.11914721 -0.011140519 0.15686056 0.04164144
000060 df ad a6 3d 8e bc 1d 3e 37 1f 46 3e fa 39 3a be
       0.08138632 0.15403959 0.19347845 -0.18186179
000070 1a df 35 b8 68 66 77 3e cb db c1 3c 3a e0 5e 3e
       -4.3361542e-05 0.24160159 0.023664376 0.21765223
000080 05 72 2f 3e 8a 82 98 3d c7 f1 28 3e e3 40 ab bd
       0.17133339 0.07446773 0.1649848 -0.083619855
000090 09 ee 18 be d4 c7 cc 3d 71 f5 2b 3e 80 08 4b 3d
       -0.14934553 0.09999052 0.16792847 0.049568653
0000a0 0f f0 2d 2c 33 03 c0 3c cc 79 4b 3e 6f fe 27 bd
       2.4718038e-12 0.023439026 0.1987068 -0.04101413
0000b0 60 74 8c 3c 02 26 88 3e 79 69 09 3e 78 d6 51 3e
       0.017145336 0.26591498 0.13419141 0.2049197
0000c0 89 aa b2 bd 44 7e be 3d
       -0.08723933 0.09301427

weight f4 [2, 50]
000000 ca 46 36 bf 45 80 bf be b6 0b 19 3d ae 44 92 3e
       -0.71201766 -0.3740255 0.037364684 0.28568023
000010 27 9b 87 3e be 8f 72 3e 72 aa 85 be 45 ce 15 3f
       0.2648556 0.23687646 -0.26106602 0.5851787
000020 6b c3 8f be bb 41 92 3e f5 4a 85 3e a0 2a 5b 3e
       -0.2807878 0.28565773 0.2603375 0.21402979
000030 f0 78 a3 3e b2 e6 bf 3e 15 ef 97 be d9 e7 00 3e
       0.31928205 0.37480694 -0.29674593 0.12588443
000040 c7 90 df 3e 12 ca b1 b1 53 fa 51 be bc 4d 65 3e
       0.43665144 -5.1743507e-09 -0.20505647 0.22392935
000050 fc 4f 09 3f 01 9e b6 bf 87 de 93 be 68 f6 9c be
       0.5363767 -1.4266969 -0.28880712 -0.30656743
000060 0a d8 b2 be 90 a8 67 be 8a 5c a4 be e9 8a 90 3f
       -0.3493045 -0.22622895 -0.32101852 1.1292392
000070 aa 56 f6 39 cf f5 b0 3e 56 1f 99 be a1 08 85 3e
       0.00046985346 0.34562537 -0.2990672 0.25983146
000080 62 7a c3 be bd 79 4a 3e 98 19 8e be 30 2b 24 bd
       -0.38179308 0.19773002 -0.277539 -0.04008025
000090 54 b1 08 bf d6 9a b6 be 6a 0a 98 be 12 fd bf be
       -0.5339558 -0.35665005 -0.29695445 -0.37497765
0000a0 62 45 a1 3b c2 14 98 be 5d f4 b1 be 22 f3 76 3e
       0.004921601 -0.29703337 -0.34756747 0.24116185
0000b0 c1 28 81 3e 85 52 b6 be a2 71 f0 3e 19 0a ab be
       0.25226405 -0.35609832 0.46961695 -0.3340614
0000c0 e8 b6 7b 3e 24 b2 97 be ed 49 24 3f 97 c9 bf be
       0.24581492 -0.29628098 0.641753 -0.37458488
0000d0 e2 df 63 33 ad da 9d be 03 d1 a1 be c7 90 65 be
       5.3056176e-08 -0.308309 -0.31604776 -0.2241851
0000e0 c2 fa 2c 3e 78 35 64 bf 45 56 45 3e 31 ff 2e be
       0.16892532 -0.89144087 0.1927119 -0.17089535
0000f0 a1 37 7c 3e 53 cd 1a 3e 4a ff a9 be 4e 68 da be
       0.24630596 0.15117387 -0.33202583 -0.42657703
000100 cd d8 59 3e 9d 1c 99 3e e8 41 cc be a2 00 17 34
       0.21274109 0.29904643 -0.39894032 1.4063201e-07
000110 a7 51 97 be 46 b1 4a 3e 22 f3 5c be 3f 7c b0 bf
       -0.29554483 0.19794187 -0.21577123 -1.3787917
000120 72 71 91 be 0f b2 47 3e f2 6d 82 be a3 d3 51 be
       -0.28406864 0.19501518 -0.25474507 -0.20490889
000130 26 cb 9a 3e 35 92 08 bf 28 07 9d b9 c4 60 8c be
       0.30233115 -0.53348094 -0.00029950705 -0.27417576
000140 31 d4 92 be d3 f6 7c 3e ef d5 9d be ef 37 3d 3e
       -0.28677514 0.24703531 -0.3082728 0.18478368
000150 5f d1 5c 3e 8a 17 ac 3d 04 3d 3e 3f 11 1b 8c be
       0.21564244 0.08402927 0.7431185 -0.273644
000160 4b 9b 84 be 4b 50 9b be 0f 17 92 b0 1b 98 84 3e
       -0.2589973 -0.30334696 -1.0629452e-09 0.25897297
000170 23 56 67 be 72 4c 34 3e ae 3c 56 3e 4b 1a a1 3e
       -0.22591452 0.17607287 0.20921585 0.31465372
000180 17 06 ad be b1 1b 8d be 3a 41 09 3e f3 a9 76 3e
       -0.3379371 -0.2756019 0.13403788 0.24088268

bias f4 [2]
000000 80 2a 55 be 12 68 0f be
       -0.20816994 -0.14004543
