model/AOA_AOS_30_ms-1/MIX_A0.58_S0.53.pt (torch, 25615 bytes, 8 tensors)

weight f4 [50, 6]
00000000: 3806 efbc 5c16 4a3e 53c7 15bf d5b2 1fbd
00000010: a307 38bd c9b5 3d3f c872 3b3e 5ae0 c4be
00000020: 77ff 13be 456d 11bf 8965 d9be a297 2b3d
00000030: e50d 0ebe d97b 9bbe cd4a dbbe e0e9 9cbd
00000040: ef3d 66bd 040b 4f3d 20b6 81bd 4a4b ad3e
00000050: fb9c d93c 2bbe 1cbe 8b36 afbe cf9a 86be
00000060: e72b 8a3e 8ac8 7e39 4806 3bbf 6e35 b13c
00000070: 38f7 58be c9c3 c33e 0089 35be c43a bfbe
00000080: 2f26 babe 3681 b23e ad2e 933e 0394 2bbe
00000090: e9a5 96be 367d 1a3e c3b1 af3e d842 19be
000000a0: 232d ebbe c772 0bbf 0830 693e e248 a8bd
000000b0: 1f4e f23e 1184 e2be 7e18 99bd a87b 01bf
000000c0: 76e1 c33e d45b 093e b609 e63e 19da ffbe
000000d0: 46da 9abe 13a4 73bd bea2 433e 10f2 4cbe
000000e0: e024 ef3e d1b7 d33e cdae ff3e 8164 a13e
000000f0: 28a9 1bbf f6f8 9d3e 6606 cbbd 4fc7 f2be
00000100: b751 fcbe f67c f63d 1de0 e33e f05a 413e
00000110: dcbd 3e37 0556 c9be d8fc c9be 473b bfbd
00000120: 799f 3abe 91ea 78be 4947 87be 4730 4fbe
00000130: e131 90be 0e79 6dbe 8ad7 f9be 0cf1 e13e
00000140: a2cf b1bc 0c6a ad3e c041 b13e 899b 153f
00000150: c6a9 c23e 7450 d33e 81b9 e6bd c67f 943c
00000160: e98b d0be dfae 20bd f7b9 e63e 0d61 1bbf
00000170: 95af c23e 6b35 473c 7c87 363e 6a4f 713e
00000180: cf27 a4be 1f0a 0cbf 2a53 13be 3d0b c1be
00000190: 83f8 07be 5088 26be be7b eebe 2df6 e23e
000001a0: dc52 c6be 9645 f33e b611 303e 4d15 803e
000001b0: 7925 aebe 8aad 373e 0801 58be cbe9 09be
000001c0: b21f 63be 76b6 22bf 4617 a13e 1046 f73e
000001d0: d70f a73e e412 dfbe fbd9 dfbe decb cfbe
000001e0: 0173 7f3e 2588 2a3f 1e61 a0bd 7b89 6f3e
000001f0: 0c12 4d3e f593 893d 790b 7c3e 4f64 14bf
00000200: fa91 07be 2cd5 1b3e 474b 19bf e626 36be
00000210: 6a5a db3e fd84 08bf 1c62 32be f919 8f3e
00000220: a093 003f a66b cf3e 0e2e 113e 0e4f a9be
00000230: cc7e 1f3f b4ef 793e beeb 033f 4d4e f8bd
00000240: 18a1 4dbe d6ff b23d 0ee6 dcbe 27db ef3e
00000250: 803c e73e e750 d0bd 1062 b73e f08c cc3d
00000260: 0803 19be 89e7 fa3e 5c52 7abe ebc0 a93e
00000270: 2596 52be 185c b3be be09 d0bd 8eb4 fd3d
00000280: 1fa6 553e bc06 ba3e f6ef ed3c 3196 bdbd
00000290: 6548 c23e 9f3f 943d 3715 2ebe 30b7 e93e
000002a0: caa9 a23e a259 67bd 8a74 0b3f 6aa6 5f3d
000002b0: 036a 24be b58d d23d 16ef 2abf 8577 ffbe
000002c0: ca1b 433e 27c7 a03e e250 b3bd 6de3 d43d
000002d0: e3d1 c2be e60c 0abe 1a37 25be 9006 0abf
000002e0: 648c 6ebd a0eb 54bd d75a 4dbd 5d7b 12bf
000002f0: 3420 dabe ef17 373e 782c 35bd 23ff 75be
00000300: 42c2 98bd 2753 2dbf 6c15 2c3f f9da 3a3e
00000310: 5f96 11bf e75a 88be 01c0 c03d b7fc eabc
00000320: da27 aebe be46 8abe efe2 e3be 3c33 0fbe
00000330: 38ef 36be 957f fa3e ebeb f9be 7331 91be
00000340: b9cf f2be b3db c8bd 4a92 273f d7bf 173f
00000350: 666f 2ebf 453a 983d 1fa6 1e3f 6df6 26bf
00000360: be09 043e 15e6 fe3e 2dc5 3cbe c38e 22be
00000370: 46e4 513e dce0 783e 7438 0bbf d027 b9be
00000380: 91cd 903e 06c2 c2be 9bfe febe 0680 77be
00000390: 66d6 f1be f58a 0dbf 40f9 32be edb1 2bbe
000003a0: 4c03 c3be c204 03bf 3431 7a3e 36ee 19be
000003b0: f41d 1dbf 103a d33d 3cba b9bd 25dd 993e
000003c0: 9cf2 e83d 88fa fd3d 407f 353f c42b 9bbc
000003d0: c339 da3e 9577 87be 1786 aa3e bb48 89bd
000003e0: 1c61 613e 4aad fdbd ad51 95be 2054 0abf
000003f0: 03b0 f8be d093 4dbe 0eca 813e e88d 88bd
-0.02917777 0.19735092 -0.5850727 -0.038988907 -0.044929158 0.7410551 0.18305504 -0.38452417
-0.14452921 -0.5680736 -0.42460278 0.041892655 -0.13872488 -0.30367926 -0.42830506 -0.076617956
-0.05621141 0.050547615 -0.06333566 0.33846503 0.026564112 -0.15306918 -0.342213 -0.26289985
0.2698662 0.00024298034 -0.7305646 0.021631923 -0.21188056 0.3823531 -0.17728043 -0.37349522
-0.36357257 0.34864205 0.28746548 -0.1675568 -0.29423454 0.15086827 0.3431531 -0.14966905
-0.45932874 -0.5447201 0.22772229 -0.08217026 0.47325227 -0.44241384 -0.07475375 -0.5057931
0.3825795 0.13413936 0.44929284 -0.49971083 -0.30244654 -0.059482645 0.1910505 -0.20014215
0.4670782 0.41351178 0.4993805 0.3152199 -0.60804987 0.30854005 -0.0991333 -0.47417685
-0.49281093 0.12035553 0.44506922 0.18882346 1.1369088e-05 -0.3932344 -0.39450717 -0.09337478
-0.18224896 -0.2430823 -0.26421574 -0.2023326 -0.28163055 -0.2319071 -0.48797256 0.44129217
-0.021705452 0.3386997 0.34620476 0.5844045 0.38020152 0.41272318 -0.11265851 0.018127333
-0.40731743 -0.03922927 0.45063755 -0.6069496 0.38024583 0.012158732 0.1782512 0.2356545
-0.32061622 -0.54702944 -0.14387193 -0.37703887 -0.13278393 -0.16262937 -0.46578783 0.44328442
-0.38735092 0.47514027 0.17194256 0.2501625 -0.34012964 0.17937294 -0.21094143 -0.13468091
-0.2218006 -0.63559663 0.3146307 0.4829564 0.32629272 -0.435691 -0.43720993 -0.40585226
0.24946214 0.6661399 -0.07831024 0.23392288 0.20026416 0.06717674 0.24613751 -0.5796556
-0.1323928 0.15218037 -0.5988049 -0.17788276 0.42842418 -0.53327924 -0.17420238 0.27949503
0.5022526 0.40511817 0.14177725 -0.33068126 0.6230285 0.24407846 0.5153159 -0.1212431
-0.20080984 0.08740203 -0.43144268 0.46846887 0.45163345 -0.10171681 0.35817003 0.09987819
-0.14942563 0.49004772 -0.2444548 0.33154997 -0.20565088 -0.350312 -0.10158108 0.12387954
0.20864151 0.36333263 0.029045086 -0.09257162 0.37945858 0.07238697 -0.1700028 0.45647573
0.31770164 -0.056481965 0.544747 0.054602064 -0.16056065 0.10280935 -0.66771066 -0.49895874
0.1905357 0.3140194 -0.087556615 0.103949405 -0.38050756 -0.13481483 -0.16134301 -0.53916264
-0.058239356 -0.051982522 -0.05013546 -0.5721949 -0.42602694 0.17880224 -0.04423186 -0.24023108
-0.07458927 -0.67705005 0.6722019 0.18247594 -0.56870073 -0.26631853 0.09411622 -0.028684957
-0.3401478 -0.27007097 -0.44509074 -0.13984388 -0.17864692 0.48925462 -0.48812804 -0.2835804
-0.47424105 -0.09807529 0.65457594 0.592771 -0.6813873 0.07432989 0.6197223 -0.65219766
0.12894341 0.49784914 -0.18434592 -0.15874772 0.20497236 0.24304527 -0.54383016 -0.36163187
0.28281835 -0.38038653 -0.49803624 -0.24169931 -0.47233886 -0.55290157 -0.17477894 -0.16767092
-0.38088453 -0.51179135 0.24432832 -0.15032277 -0.6137383 0.10313809 -0.090687245 0.30051532
0.11374399 0.12401301 0.70897293 -0.018941768 0.42622194 -0.2645842 0.33305427 -0.06703325
0.220097 -0.12386568 -0.29163876 -0.54034615 -0.48571786 -0.20075917 0.25349468 -0.066676915

bias f4 [50]
00000000: ce59 163f c7e0 6bbe 077a d6bd 4922 fb3e
00000010: e609 883e 3cfa 64bd 0df3 87be 7c24 98be
00000020: af81 eb3e d714 ae3e 3e3f 903d bcfd a13e
00000030: 49e5 9c3e 3bd3 caba be1d 283f 6dbf 5c3e
00000040: 33c1 f53e 6d8d acbd 1253 063f 13f2 a9be
00000050: 152d 153f 7cb9 d63e 3d97 47be b402 e3be
00000060: f866 cbbd 5a71 313f 1211 9e3d 2158 ec3e
00000070: 1e84 493e dbb5 3fbe 99fa 0d3e 17b4 aabd
00000080: c17e 72be fda0 2abe dc56 103d d544 a6be
00000090: 6d52 c53e c483 aebe 90bc 843e 49db c93e
000000a0: ed8d babe 8703 fe3e 5b4a 47bd 2c3b 76be
000000b0: fb11 c2be 39bf 433e 137e 31bd c36f 043f
000000c0: 0a99 d13d 414e 073e
0.5873078 -0.23034965 -0.104724936 0.49049595 0.26570052 -0.055902705 -0.2655262 -0.29715335
0.45997378 0.34000275 0.070433125 0.31638896 0.3064368 -0.0015474329 0.6567038 0.21557398
0.47998962 -0.08425412 0.52470505 -0.331925 0.58271915 0.41938388 -0.19491287 -0.44338
-0.09931749 0.69313586 0.077181 0.46160987 0.19679305 -0.18721716 0.13865127 -0.08335131
-0.23681165 -0.16662975 0.035239086 -0.3247439 0.38539448 -0.34084904 0.25925112 0.39425114
-0.36436406 0.49612066 -0.048654895 -0.2404601 -0.37904343 0.19115914 -0.043333124 0.51733035
0.10234268 0.13213445

weight f4 [50, 50]
00000000: da16 0c3d 697d aabc 8d09 3a3e 2094 403e
00000010: 5201 773e 57f8 373e ba8b 3a3e ac5b bc3d
00000020: 1898 7e3e 508f 72bb bd66 a33d fbe4 f53d
00000030: 30b9 3e3e e58d 2c3c 12ba 503e d639 283e
00000040: 7c6d c63c 6b54 553e 96ba f03d 8f4a ce3d
00000050: ed96 553e 3a5d 363d e856 2c3e 0a94 0f3e
00000060: 8c9b c4bb 0b70 213e f4d9 9c3d 9bef ae3d
00000070: e252 563e 1f0a 013e ce8e a4bb e619 be3d
00000080: 919a 6ebd f3d2 6f3e ebf5 033e 7fd5 433e
00000090: a3de ce3d eee5 e73b 716a 1d3e abb0 433e
000000a0: 32df fc3d a1c5 da3d 7446 8bbc bd7e 723e
000000b0: 8e23 3abb b237 793e 67db ae3d 3b4b 013c
000000c0: f1cd 213e f9ba 0e3e 6e29 393e ae2c bbbd
000000d0: 3c78 02bc afc0 81be a9c3 f53d 407b 243e
000000e0: 9c0e 51be 6612 babe 7b92 533e 19cf 293e
000000f0: 73a3 003d ceb3 78be fa8c 0bbc 38d3 8a3d
00000100: cebf 833e 4246 393e 3e8e 8f3d 3daf 283d
00000110: 2c06 3cbe 1e64 e4be 38dd ee3d 888d 6a3d
00000120: f70e 873e da97 393b 2c91 613e 208f 1f3d
00000130: 18ef 073e 5592 623e f066 8b3e 7d71 633e
00000140: 0925 143c eea3 33bd 09f0 bdbd 1832 44bd
00000150: 7a9a cebe fde1 a2be 4884 7d3e c4a8 61bd
00000160: 464d 4c3d c2d8 503e eb71 a03c 6109 9f3d
00000170: b74b 8f3e 50be c53c 5c31 473e 34c7 133e
00000180: 45b8 74be a8f5 d43c e1e7 683e d0a9 4c3d
00000190: 0432 ce3e 47d1 7cbd 75b7 fc3d 76ab 83be
000001a0: 3e25 ce3e 12ff 7b3d afd1 b63e 663c 87be
000001b0: 2157 893d f1b8 193d ba6c 733e d8ad 2e3e
000001c0: c583 ca3d 8244 623e 2128 4cbe 6f7c 9ebe
000001d0: d224 eebd 7f2b 003f 11df d33d 44f3 babe
000001e0: f05f 8c3d 317b 3bbe bfde 9fbe d5fa ddbe
000001f0: ebe9 533e de98 7c3e 199b acbd 95ae abbd
00000200: 4eab 273e 3833 0abe aedc 0e3e 2cad e83a
00000210: 7f19 1abf 2868 2c3e 0bb4 173f 6d9b 293f
00000220: d38f 87bc 6235 66be f41f 993b fff0 203e
00000230: a490 afbe bef4 f9be 84c7 debc bed1 003c
00000240: 336c 80bd cfbf 513e 1c38 41be e598 d7bd
00000250: 3dcb 80be 4cc6 6ebd f9e8 1e3e 961f 8c3d
00000260: 9eaf 423d 205c 9fbd 1f1a cb3c b733 9c3d
00000270: a548 b9be 77e9 aabe 9ab2 73bc c526 c93d
00000280: 16e8 593d b873 9ebc 03b1 c03d 9856 f93c
00000290: f45e b73d c48e 553e 86ac 7b3e b762 2fbd
000002a0: 3de9 593e ddcc b4be 8c71 5b3e 7406 4b3e
000002b0: 07f0 2b3e 86dc 483b 2943 3f3e 1177 c83d
000002c0: e411 173e 5a9c 723e d526 9f3c f40d 7b3e
000002d0: 981c 943d 773f 5c3e e9dd 353e eb57 013e
000002e0: 9968 52be d48d 173e cb53 d23d 12d7 ffbc
000002f0: c03b 1f3e a831 3a3d 46e6 45be 05c7 4c3e
00000300: 2b67 053e d17c b83d 2ea2 65bd e574 4d3c
00000310: b2a3 8fbe b61e 443e 9be6 2b3e a5d2 223e
00000320: 2e26 663d 0736 873e f4bd 753e 3fea 803e
00000330: 0701 723d 0e30 363e eca4 0e3e fa78 24bd
00000340: 02ea f8bd 08eb bb3d 967a 253e a7cd 563d
00000350: fff8 193e ce7d 1e3e 48a6 0a3d 6a4c 89be
00000360: 7e63 033d 4cbc 1f3d 9883 353e 860e e83d
00000370: 263e e23d 7ddc 253e 190d 393d 71fc c3ba
00000380: 602a daba d299 8f3d dc6f 623e 2d4e da3d
00000390: fb17 eabd 1326 7a3e 23de fd3d 52aa 173e
000003a0: 12a8 143e a4f2 1c3e 3543 07be 852f f83e
000003b0: 3069 bd3e 352f 8f3e 110a 0b3e dea1 edbb
000003c0: 9317 18be b9bf 5f3d 7bbf 263e f5be 42be
000003d0: 8d50 623e fc80 883d fea8 903d 4a48 28be
000003e0: 0702 1f3e 12e0 8ebe 9486 ba3d 56ec 013e
000003f0: 2739 41bd af19 613d 75b0 da3d fc69 243e
0.03420148 -0.020811753 0.18167706 0.18806505 0.24121597 0.17965828 0.18217364 0.091971725
0.24862707 -0.003701169 0.0797858 0.12006565 0.18625331 0.010531877 0.2038348 0.16428313
0.024222128 0.20832984 0.117543384 0.10072815 0.20858355 0.0445225 0.16830027 0.14021316
-0.005999988 0.15765397 0.07658759 0.08541795 0.20930055 0.12601517 -0.0050219065 0.092822835
-0.058252875 0.23420314 0.12886779 0.19124411 0.10101058 0.0070769703 0.15372635 0.19110362
0.123472586 0.10682226 -0.017001368 0.2368116 -0.002840254 0.24337652 0.085379414 0.0078914715
0.15801217 0.13938512 0.1808221 -0.09139381 -0.007963236 -0.25342318 0.1200021 0.16062641
-0.2041573 -0.36342162 0.20661347 0.16582908 0.031405877 -0.2428734 -0.008517498 0.06778568
0.25732273 0.18093207 0.070095524 0.041182745 -0.1836173 -0.44607633 0.11663288 0.05726388
0.26378605 0.002831927 0.22028035 0.038954854 0.13274801 0.22126134 0.27226973 0.22211261
0.009042033 -0.043857507 -0.09274299 -0.047899336 -0.4035223 -0.3181304 0.24757493 -0.055092588
0.04987838 0.20395187 0.01958557 0.07765461 0.27987453 0.0241386 0.19452423 0.14431459
-0.23898418 0.025996044 0.22744705 0.049966633 0.40272534 -0.06172302 0.12339679 -0.25716752
0.4026279 0.06152255 0.3570685 -0.26413268 0.06706072 0.03752989 0.23771945 0.17058504
0.09888414 0.22096446 -0.19937183 -0.3095431 -0.11628117 0.5006637 0.10345281 -0.36513722
0.06854236 -0.18308713 -0.3122463 -0.43355432 0.20694701 0.24667689 -0.0842802 -0.08382908
0.16373941 -0.13496101 0.1395137 0.0017751805 -0.60195154 0.16836607 0.592591 0.66252786
-0.016548073 -0.22481301 0.0046729986 0.15716933 -0.3429004 -0.48819536 -0.027194746 0.007862506
-0.06270637 0.20483325 -0.1886906 -0.10527209 -0.25155059 -0.05829458 0.1551856 0.06841962
0.047530763 -0.07781243 0.024792729 0.07627051 -0.36188236 -0.33381245 -0.014874125 0.09821848
0.05319985 -0.019342288 0.09408762 0.030436799 0.08953658 0.20855242 0.24577531 -0.04281875
0.2128038 -0.35312548 0.21430033 0.1982668 0.16790782 0.003064902 0.18677963 0.09788335
0.14752918 0.23692456 0.019427696 0.24517041 0.07232016 0.21508585 0.17760433 0.12631194
-0.20547713 0.14800197 0.102698885 -0.031230483 0.15550137 0.045457512 -0.19326124 0.19997795
0.13027637 0.09008182 -0.05606287 0.012540077 -0.28054577 0.1915234 0.16787188 0.15900667
0.056188755 0.26408407 0.23998243 0.25178716 0.05908301 0.17791769 0.139301 -0.040154435
-0.121540084 0.09175688 0.16160044 0.05244222 0.1503639 0.15477678 0.033849984 -0.26816112
0.032077305 0.038997933 0.1772598 0.11330895 0.1104701 0.16197391 0.045178507 -0.0014952553
-0.0016644709 0.07011761 0.22112983 0.10659442 -0.11430355 0.24428587 0.12395885 0.14811066
0.14517239 0.15326935 -0.13209231 0.48473755 0.36994314 0.27965704 0.13578059 -0.007251962
-0.14852743 0.0546262 0.16283982 -0.19018157 0.2210104 0.06665227 0.07063483 -0.16433826
0.15528117 -0.27905327 0.091077 0.12687811 -0.047173645 0.054956134 0.10678188 0.16056055

bias f4 [50]
00000000: 5659 0f3e aee5 703d 0513 30bd 6b62 1a3e
00000010: 5eb9 213e 4632 ba3d f4d2 05be 5d13 50bd
00000020: 43e7 bc3d 05b5 d83d 3b37 653d 0fa7 703e
00000030: eee3 06be 5eaf e73d e8a6 4d3e 7900 0a3e
00000040: b6ba 5e3e c588 89bc f581 873d 1c80 8d3d
00000050: 6e7d 6c3d bec1 a23d 10cd 683e ad65 203e
00000060: 71a5 a3bd 25f8 3bbc 83d8 033e 7f3f 4d3e
00000070: 96e5 cb3d 9f13 9a3d fe6d 3d3e 6066 af3d
00000080: 87cd f73d 8adc 953e 5f05 343e 39f2 51bd
00000090: 791c 933d 568a 823e aeb8 e83d 79c6 833e
000000a0: 74f2 ddbd c6e5 1dbd a343 e03e 8d8c 1b3e
000000b0: 8dc5 80bd 74a4 703e 8493 603e 227d 7f3c
000000c0: d783 dbbc daa2 843d
0.13998923 0.05881279 -0.04298689 0.15076606 0.15793368 0.0909162 -0.13068753 -0.050799716
0.09223797 0.10581402 0.055960875 0.23501228 -0.13172886 0.113127455 0.20083201 0.13476743
0.21750912 -0.01678885 0.06616584 0.069092005 0.057736807 0.0794711 0.22734475 0.15663786
-0.0799054 -0.0114727365 0.12875561 0.20043753 0.099558994 0.07523274 0.1849899 0.08564448
0.12099748 0.2926982 0.17580174 -0.051256392 0.07183165 0.25496167 0.1136335 0.2573736
-0.1083726 -0.038549207 0.43801603 0.15190335 -0.0628768 0.23500234 0.21931273 0.015593799
-0.026796265 0.06476374

weight f4 [50, 50]
00000000: 38a7 04be 4ad5 f53e 52be 44bf c676 553e
00000010: 9b1d a43e 4b31 853d cf11 98bf cf65 953e
00000020: d2a8 70bf 625b ce3f 7c5d 16be 07df 6cbf
00000030: 3e89 843e 81e3 40bf 2203 d63c 4fac 13bd
00000040: 11ee edbe eca3 a53e 38e8 203c 2bd0 f4bd
00000050: e399 da3e 8888 cebe cdfe 093f 1e24 de3e
00000060: 5b52 483f 19e5 35be cacc 24bf 6181 1fbf
00000070: df17 74bd 499f c23e eba5 973e f4d6 0ebe
00000080: 159a 4a3d d85a 65bd b1fa c33e 4910 4cbd
00000090: a5eb dfbe c677 5bbf b190 223c ef06 0cbf
000000a0: 9ee1 4dbc b81b 893e 5422 0380 2c44 fb3e
000000b0: d1e1 6dbd be4b 62bf e0f7 7c3e 7ce3 efbd
000000c0: 1e72 273e 1b5d 48bf eae3 963d 8750 03be
000000d0: 6097 4f3f dec5 f8bd 58d6 ee3a a2b0 35bd
000000e0: 486a 213f f75d 043d bf7a 933c 3627 4cbf
000000f0: 0124 563e f45b 393e 2949 4d3e 484d 45be
00000100: 1a43 6cbe c48e 6dbe d61b 1cbe 2c87 bb3a
00000110: 0e98 273e 5076 babd 3e85 21bd 397c 673e
00000120: 16c4 93bd 7af1 683c 4462 c9bd fb4a 613e
00000130: 6363 0e3e cdaf 003e 77df 053d 1c55 423d
00000140: 8f13 4d3d 1aba d73d dffc 08be d861 39be
00000150: 6963 4dbe 1ed5 1bbd b435 d9bc b6c7 343e
00000160: 3df0 6fbd 3ee2 20bc 0875 7f3e fdcd 6a3e
00000170: a4ea 8a3f 76c6 353d 9ed4 4e3e 6b12 d83c
00000180: 4167 c43d 1d46 513e 18ea 5b3e a6e3 af3d
00000190: 656b 353e f069 edbd 4771 01bf b45c 143d
000001a0: 9f57 223e fad9 2b3e eec6 0f3f 03e5 613e
000001b0: cbdc ae3d bf86 18bf 6e29 753e 7601 80be
000001c0: 7ed2 473e fb9f f0bd 2a96 efbd 76da 20be
000001d0: 901a 58bc 263e c7bc 866c 0b3e 9249 d1bd
000001e0: 6f03 e13a 92be 08bd 9b24 243f 4580 a1bc
000001f0: 689e 713e 426b 023e cce6 cb3d 12bd f53d
00000200: 902c 583e 903d 643e daa7 52bc c7a7 3b3e
00000210: 8cd7 dcbd b36f f93d 7329 d3bd d170 923c
00000220: d48e e6bd 7036 8bbe 655e 46be 58bc de3c
00000230: 8841 4d3e 190a 3e3e 0dd9 21bf bee2 533e
00000240: 0156 da3d 9fa0 b33a 8da9 c63d fa7a 7d3e
00000250: 5f34 373e 0655 25be 1b16 823e de83 51be
00000260: 60bb 623f eca5 71be d224 293d 07cf fabd
00000270: 3a77 0b3f ebfe d43d 7d64 6c3e 1807 7ebf
00000280: 678a a73d fae3 213e f2bf 0d3b 74bf e33d
00000290: 4fa8 2dbd 7c02 05bd 80b5 303e 4890 dfbd
000002a0: 408b bd3c 2b42 393e 28fe 1abe 6a7d 6d3c
000002b0: 5202 c3be bbed 37be 0439 70bd 288e 853e
000002c0: 6caf 783e 16fd 823e 8b67 303d 174f 73be
000002d0: 043f febd c260 843e b68f 30bd c2df 2dbd
000002e0: 1147 00be 0647 373a c9f3 363e 1df0 6d3e
000002f0: ea3a eb3d 1502 5a3e 45ae 8d3e eff1 fb3d
00000300: 8065 763f 1652 d33c c7f1 c63d 00af eb3d
00000310: deb3 813e 75b0 403d 651d a23c 2fd1 433e
00000320: 5b50 7c3d 401c 87be 2b2c febe 886e 1d3e
00000330: e7e4 7e3e cc1e 8cbc 2835 173f 3ef3 8cbb
00000340: 4cd2 8d3c 1114 09bf 3b9b a73d e3d7 78be
00000350: 8812 1d3e c855 03be da7b b7bd 352c 61be
00000360: b7cf 11be ac14 6e3e ce95 1d3e ea93 0abe
00000370: 7faa 4c3e 1682 123e 7b5e 283f ecbd 90bc
00000380: 1e52 2c3e 8721 ab3d 006b 3e3e 6681 193e
00000390: 29bc 7a3e 6013 8f3d d436 1e3e 8adb fa3c
000003a0: 36f5 1dbe 3484 113e a3bd 80be e8a8 44bd
000003b0: a43a 78be 9b34 a5be 7b11 57bd 21c7 6c3e
000003c0: 3824 6d3e 6187 323e 20c4 26bf 5c6d fe3d
000003d0: 572f 613e 99fb b73d 6b97 e9bc 77a2 663c
000003e0: f1dd 28bc 21ae d6bc eab4 e1bc 6074 cabd
000003f0: ca16 0ebf 1f06 1c3e 9590 1c3e 4aab c23b
-0.12954414 0.4801429 -0.76852906 0.2084609 0.32053837 0.065035425 -1.1880435 0.29179236
-0.940076 1.6121638 -0.14684099 -0.9252781 0.25885957 -0.75347143 0.02612454 -0.036053
-0.46470693 0.32351625 0.00982099 -0.119537674 0.4269553 -0.4033854 0.5390442 0.4338693
0.78250664 -0.17763175 -0.64374983 -0.6230679 -0.059593078 0.3801215 0.29618773 -0.13949186
0.04946335 -0.05599484 0.382772 -0.04982022 -0.4373447 -0.85729635 0.009922192 -0.5469808
-0.012565998 0.2677896 -2.87821e-40 0.4907545 -0.058076683 -0.88396823 0.24703932 -0.11713311
0.16352126 -0.7826707 0.0736769 -0.12823687 0.81090355 -0.12147115 0.0018221838 -0.044357903
0.630528 0.032316174 0.018002866 -0.7974733 0.20912172 0.18101484 0.2004744 -0.19267762
-0.23072472 -0.23198992 -0.15244994 0.0014307252 0.16366598 -0.091045976 -0.03943371 0.22605981
-0.07215135 0.014217729 -0.09833196 0.22001259 0.139051 0.12567063 0.032683816 0.047444448
0.05006748 0.10533543 -0.13377713 -0.1810373 -0.20057453 -0.03804504 -0.026514865 0.17654309
-0.05857872 -0.009819565 0.24946988 0.22930141 1.0852857 0.04437872 0.20198295 0.02637597
0.095900066 0.20436902 0.21476018 0.08588342 0.17716749 -0.115924716 -0.5056347 0.03622122
0.15853737 0.1678237 0.5616292 0.22060017 0.08538207 -0.59580606 0.23941585 -0.25001115
0.1951389 -0.11749264 -0.116985634 -0.15708336 -0.013189927 -0.024321627 0.13615617 -0.102191105
0.0017167161 -0.033384867 0.64118356 -0.019714484 0.23595583 0.12736228 0.099561304 0.11998953
0.21110749 0.22289109 -0.012857402 0.1832572 -0.107833 0.12179508 -0.1031064 0.01787606
-0.11257711 -0.2718997 -0.19371946 0.027189419 0.2004453 0.1855854 -0.6322182 0.20691964
0.10660935 0.0013704485 0.09700308 0.24753943 0.17891072 -0.16145715 0.2540749 -0.2046046
0.8856716 -0.2359845 0.04129488 -0.122465186 0.544788 0.10400184 0.23085208 -0.99229574
0.08180695 0.15809622 0.00216293 0.11120501 -0.04239684 -0.032473072 0.17256737 -0.10916191
0.023137689 0.18091647 -0.15136015 0.014495233 -0.38087708 -0.1796178 -0.058648124 0.2608502
0.24285668 0.25583714 0.043067496 -0.23760639 -0.12414363 0.2585507 -0.043105803 -0.04244972
-0.1252711 0.00069914793 0.17866434 0.23236127 0.11485846 0.21289857 0.2767202 0.123020045
0.96248627 0.025795978 0.09714084 0.11507988 0.2533254 0.047043283 0.019789407 0.19122766
0.06160007 -0.2638874 -0.49643072 0.15374196 0.24892007 -0.017104529 0.59065485 -0.0043014577
0.017312191 -0.53546244 0.08183905 -0.24301104 0.153391 -0.12825692 -0.0895917 -0.2198952
-0.14239393 0.23250073 0.15389177 -0.13532987 0.19986914 0.14307436 0.65769166 -0.017668687
0.168282 0.08356004 0.18595505 0.14990768 0.2448584 0.06986117 0.15450603 0.030622263
-0.15425572 0.14210588 -0.2514468 -0.048012644 -0.2424112 -0.32266697 -0.052506905 0.23122837
0.23158348 0.17434455 -0.65143013 0.124232024 0.21990715 0.08983535 -0.028514585 0.014076821
-0.010306821 -0.026206078 -0.027552087 -0.09885478 -0.55503523 0.1523671 0.15289529 0.0059408294

bias f4 [50]
00000000: 3edf 9cbc ab19 243e 1a71 e73d db4e cf3c
00000010: 4fdc ba3d 9345 133c 2b9a 86bc ef1d 343e
00000020: c645 423e 6df6 433e 3814 693e cc62 2c3e
00000030: cbb5 2abd 1e96 c43d 20af 163a 415c f53c
00000040: 5f4c 443e 8839 a43e 80bd 703e fa65 4c3e
00000050: 098b 403e 9da0 c63d bda6 18bd 172d 263e
00000060: a203 08ae ff69 eabb 9de4 86bc 95a0 513e
00000070: ced7 0c3d 644f 153e 5ec3 4b3d a69a 763c
00000080: ee13 403d ee0f 013e 12be 9bbd a8b9 1914
00000090: 1140 db3d c361 0f3e 2500 603c d18f e4bc
000000a0: 01e1 153e 9d02 353e 4bf6 213e 691b bfbd
000000b0: 0f4d e03d a17c 503e 5c3c 4dbe 2f47 413b
000000c0: 499b 3f3e 199d 8bbd
-0.019149419 0.16025417 0.11300869 0.025306156 0.09124052 0.008988756 -0.016430935 0.17589544
0.18971929 0.19136973 0.22761619 0.16834563 -0.041677278 0.09598945 0.00057481416 0.029951217
0.19169758 0.32075143 0.23509789 0.19960776 0.18803038 0.09698603 -0.03726839 0.16228138
-3.0926046e-11 -0.007153749 -0.016466433 0.20471413 0.034385495 0.14581066 0.049746864 0.0150515195
0.046894006 0.12603733 -0.076046124 7.76114e-27 0.10705579 0.14002137 0.013671909 -0.027900608
0.14636613 0.17676778 0.1581661 -0.093314 0.10952198 0.20360042 -0.20042557 0.0029491892
0.1871158 -0.068170734

weight f4 [2, 50]
00000000: 504c cb3f 8839 58be 30a7 353e 6f4a 9abe
00000010: 0d82 273e a8da 6f3e 1ca3 3b3b f843 833e
00000020: 4172 64be 6c81 5abe 6fdc 55be 3f77 893e
00000030: 7cd4 70bd 9fc2 a43e e80e 963d ba3b 89be
00000040: 9784 a03e a450 17bf ca59 423e e468 9fbe
00000050: 60d2 633e 1cae 6f3e 35be be3c 7ea4 81be
00000060: ccbf efa1 275b 9abe c184 653e 147d 83be
00000070: e16a 993e eecf 8fbe 2591 a4be 93b2 8311
00000080: 9310 55be 6d78 7cbe 69f0 043f ed77 9c12
00000090: 2188 963e f13d 9abe 7940 97be 3cad 5b3e
000000a0: 5d39 713e 4874 8e3e 18dd a3be 85b1 dbbb
000000b0: bba6 8f3e 0f31 943e 66de 523e edbd 7abe
000000c0: 89d5 72be db87 8a3e 2297 bebe 1a67 993e
000000d0: f884 893e 6e98 653e be35 6e3e 64bb 7c3e
000000e0: 1093 8e37 2044 95be 978f e3be c754 a6be
000000f0: 5b4f 84be 9f1b 75be 787d 873d 0b28 39bd
00000100: 98e2 8a3d e956 a9be ca91 96be 7d1b 1bbf
00000110: 1af5 5bbe ae57 b1be 2350 43be 4228 80be
00000120: 8b20 6b3e ff1c 82be 2404 c220 41e4 293e
00000130: 9bae 493e 7f15 ee3d 9004 833d 34cf 023c
00000140: b66f 973e 01e4 cb28 af7f 90be e360 3a3e
00000150: 2d50 863e c5ba a20e 40bb 9dbe 1d0b 6bbe
00000160: 873e 69be 1fc2 8a3e bde5 73bd c7fa 88be
00000170: 7a64 9cbe a1d8 883e eb2f 773e 8185 93be
00000180: f374 61bf 541a 833e 5971 59be 10ef 8b3e
1.5882664 -0.21115696 0.17739558 -0.30134913 0.16358204 0.23423254 0.0028631156 0.25637794
-0.2230921 -0.21338433 -0.2088487 0.2684879 -0.05879639 0.32179734 0.07327062 -0.2680338
0.31351158 -0.5910742 0.18979564 -0.31134713 0.2224822 0.23406261 0.023284057 -0.2532081
-1.6246038e-18 -0.3014767 0.22413923 -0.25681365 0.29964355 -0.28088325 -0.32141986 2.077821e-28
-0.20807104 -0.24655314 0.51929337 9.874548e-28 0.29400733 -0.30125383 -0.29541376 0.21452802
0.23557039 0.2782309 -0.3200462 -0.0067045116 0.28056893 0.2894368 0.20592651 -0.24486513
-0.2371427 0.27056774 -0.3722468 0.29961473 0.2685926 0.22421429 0.23262689 0.24680859
1.69962e-05 -0.29153538 -0.44445488 -0.32486555 -0.25841793 -0.23936318 0.06615728 -0.045204204
0.067815006 -0.3307412 -0.29408103 -0.6058882 -0.21480218 -0.34637207 -0.19073538 -0.25030714
0.22961633 -0.25412747 3.2867618e-19 0.16590978 0.19695513 0.11625194 0.063973546 0.007983971
0.29577416 2.2636408e-14 -0.28222415 0.18201022 0.26233044 4.0115936e-30 -0.30806923 -0.22953458
-0.22777759 0.27101228 -0.059545267 -0.26753828 -0.30545408 0.26727775 0.24139373 -0.28812793
-0.88069075 0.25606024 -0.21234645 0.27330828

bias f4 [2]
00000000: a5d3 46be 91f6 2dbe
-0.19416673 -0.16988589
