model/Velocity_outdoor/MIX_out_X0.10_Y0.14_Z0.14.pt (torch, 88847 bytes, 8 tensors)

weight f4 [100, 8]
0	0xbe7f74d5	-0.24946912
1	0x3e7c228a	0.2462255
2	0x3e2bbdaa	0.1677157
3	0x3f20f69c	0.62876296
4	0x3f235177	0.6379618
5	0x3e970e0c	0.29502904
6	0x3e926f97	0.2860076
7	0x3eae40e2	0.34033877
8	0x3ec634cc	0.38712156
9	0x3ee56e28	0.44810605
10	0x3f0aedbd	0.5426901
11	0x3eb3c2bc	0.35109508
12	0x3e90dd6f	0.2829394
13	0x3d9b28c0	0.07576132
14	0xbb9e3be6	-0.004828918
15	0x3bb73a85	0.005591693
16	0xbe778342	-0.24171165
17	0x3dab26dd	0.08357022
18	0xbe092e75	-0.13396628
19	0x3f3095c7	0.6897854
20	0x3e885f5e	0.2663526
21	0x3d8bfebf	0.06835698
22	0x3ec58eee	0.3858561
23	0x3e3c488e	0.18387052
24	0xbd9397ba	-0.07206674
25	0x3eb9aaed	0.3626322
26	0x3eb44394	0.35207808
27	0x3efbef42	0.49205977
28	0xbd169c72	-0.03677029
29	0xbdb5168f	-0.08842193
30	0x3ef1edbe	0.47251695
31	0xbd1073db	-0.03526674
32	0x3e7bf3b2	0.24604681
33	0x3efbb397	0.49160454
34	0xbe7920ce	-0.2432892
35	0xbd8be8a2	-0.068314806
36	0x3de245ff	0.11048507
37	0xbdb87406	-0.09006505
38	0x3db7f2b3	0.08981838
39	0xbebab216	-0.36463994
40	0xbe1da962	-0.15396646
41	0x3eba57cd	0.36395112
42	0x3e35b005	0.17742927
43	0xbeb7e63c	-0.35917842
44	0x3f37a65d	0.71738225
45	0x3edb27d7	0.42803833
46	0xbe2363a1	-0.15955974
47	0x3e9b5b69	0.30343178
48	0xbe67eaff	-0.22648238
49	0xbee78804	-0.4522096
50	0xbe5e0fd4	-0.21685725
51	0x3d1f4bc4	0.038890615
52	0x3e81f4ba	0.25382024
53	0x3f0bc700	0.54600525
54	0xbdac9e97	-0.08428686
55	0xbec38f50	-0.38195276
56	0x3f04b7d2	0.5184299
57	0x3e0b38da	0.13595906
58	0xbe924620	-0.28569126
59	0x3e402d45	0.18767269
60	0x3f0b100b	0.54321355
61	0x3eb040ca	0.3442443
62	0x3ecae6cd	0.39629212
63	0xbe806235	-0.25074926
64	0x3eb1d676	0.34733933
65	0x3eba0e7b	0.36339173
66	0x3e2c3d55	0.16820271
67	0x3ec043cb	0.37551722
68	0xbe0a034b	-0.13477819
69	0xbf08079c	-0.5313661
70	0xbcf25d9a	-0.029585648
71	0x3f003ead	0.50095636
72	0x3d59449f	0.053043958
73	0x3eeefc76	0.46676987
74	0x3ed36674	0.41289103
75	0xbd5541c3	-0.05206467
76	0x3e73583f	0.23764132
77	0x3e57ea72	0.21085528
78	0x3dbf3f16	0.093382046
79	0x3ec8210b	0.3908771
80	0xbe710031	-0.2353523
81	0xbf0031e3	-0.5007612
82	0xbeaa4399	-0.33254698
83	0xbedc63df	-0.43044946
84	0x3f02c469	0.5108095
85	0x3e1d5e73	0.15368061
86	0xbe8cd1ba	-0.2750376
87	0x3e5cfcde	0.21580836
88	0xbf1aea9e	-0.6051425
89	0xbf28dd4e	-0.65962684
90	0xbe9ae821	-0.30255225
91	0xbed4311c	-0.41443717
92	0x3e6029c0	0.21890926
93	0x3eae41e4	0.34034646
94	0xbf039ebe	-0.51414096
95	0x3e465015	0.19366486
96	0xbf23045c	-0.63678527
97	0xbedebd23	-0.43503675
98	0xbe751aa0	-0.23935938
99	0x3edab615	0.42717043
100	0x3e316566	0.17323837
101	0x3e34d1bd	0.17658134
102	0x3f06769b	0.5252473
103	0x3f010f7f	0.5041427
104	0xbf2dd622	-0.67904866
105	0xbeace1af	-0.33765933
106	0x3e37fa7a	0.17966643
107	0xbd2b72e2	-0.041857608
108	0x3e79b828	0.24386656
109	0x3e12fca2	0.14354184
110	0xbf0b5225	-0.5442222
111	0xbede2a7b	-0.43391785
112	0x3e886db2	0.2664619
113	0x3f17b15f	0.5925502
114	0x3e8d6798	0.27618098
115	0xbea14ff7	-0.3150632
116	0x3edaba27	0.42720148
117	0x3eac08de	0.33600515
118	0xbecb70ca	-0.3973449
119	0x3d87f5de	0.06638692
120	0x3e9b127f	0.3028755
121	0x3dab48d2	0.08363499
122	0xbeb9ac06	-0.36264056
123	0xbf036451	-0.51324946
124	0x3ef0bb34	0.47017825
125	0x3d8e3ad2	0.06944813
126	0xbf1a1828	-0.6019311
127	0xbe60fae4	-0.21970707
128	0xbf0d7555	-0.5525716
129	0xbedf8f6c	-0.4366411
130	0xbe42827d	-0.1899509
131	0xbf22fe27	-0.63669056
132	0xbe8f8fcc	-0.28039396
133	0xbe74f597	-0.2392181
134	0xbf307943	-0.6893503
135	0xbd63c0d6	-0.055603825
136	0x3e7ae07f	0.24499701
137	0x3f17093e	0.5899848
138	0x3dea3ba1	0.114371546
139	0xbe986b76	-0.29769486
140	0xbeef162c	-0.46696603
141	0xbf12e178	-0.5737529
142	0xbf01fd00	-0.5077667
143	0x3e85efd2	0.2615953
144	0x3f25d769	0.64781815
145	0x3ef7d0ef	0.4840159
146	0xbdda0600	-0.10645676
147	0x3d4915ca	0.049093045
148	0x3dfc9381	0.12332822
149	0x3e969a9a	0.29414827
150	0x3e645f16	0.22301897
151	0xbdeef3ec	-0.11667618
152	0x3e2a65ee	0.16640446
153	0x3df22828	0.118240654
154	0xbd836327	-0.06415396
155	0x3f03c9e4	0.51479936
156	0x3e7e6089	0.24841513
157	0x3d32f2c8	0.043688565
158	0x3e97ed68	0.29673314
159	0x3ea46952	0.32111603
160	0x3f0ad9cc	0.5423858
161	0xbc3ac71b	-0.0114000095
162	0x3e7f9d9e	0.2496247
163	0x3dca3486	0.09873299
164	0xbea57b93	-0.32320842
165	0xbf1bac6e	-0.6080998
166	0xbdf77c35	-0.120842375
167	0x3e51300c	0.20428485
168	0x3c596f87	0.013271219
169	0x3e021da1	0.12706615
170	0x3d97094a	0.073748186
171	0xbf111e2a	-0.5668665
172	0xbf532768	-0.82482004
173	0xbf6055af	-0.8763074
174	0xbf3007cc	-0.687619
175	0xbdac3b77	-0.084097795
176	0xbf34f91c	-0.7069261
177	0xbe8f491f	-0.27985474
178	0x3e44f9d1	0.19235922
179	0x3f34ed19	0.7067428
180	0xbd08d3ee	-0.033405237
181	0x3f09e1e5	0.5386031
182	0x3ea68bcc	0.32528532
183	0x3de0c769	0.109755345
184	0x3e8d8a03	0.27644357
185	0x3edfe2fc	0.43727863
186	0xbdee3328	-0.11630851
187	0x3e130077	0.14355646
188	0xbe8dc50c	-0.27689397
189	0xbee7278f	-0.45147368
190	0x3e9ffb4d	0.31246415
191	0x3e97039d	0.29494944
192	0x3f0dbba4	0.5536444
193	0x3f08f6cf	0.535016
194	0x3ecdfadb	0.4023045
195	0x3e67f7fa	0.2265319
196	0x3ee28c0d	0.44247475
197	0x3f078202	0.5293275
198	0xbe9ed689	-0.31023052
199	0xbe367644	-0.17818552
200	0x3efb2101	0.49048617
201	0x3e8088f7	0.25104496
202	0xbdadccd4	-0.084863335
203	0x3ecb9b5c	0.39766967
204	0x3e21eca3	0.15812926
205	0x3e85ded9	0.26146582
206	0x3ee0e2a4	0.43922913
207	0x3c8f0497	0.017458243
208	0xbc99cd38	-0.018774614
209	0x3ed3e16c	0.4138292
210	0x3e330ba7	0.17484914
211	0xbf2dc902	-0.6788484
212	0xbe3388fd	-0.17532726
213	0xbe67b3bb	-0.22627155
214	0xbf27a07b	-0.6547925
215	0xbee0d7a4	-0.4391452
216	0x3ec6303f	0.38708684
217	0x3f0ef456	0.5584158
218	0xbea43d53	-0.32078037
219	0xbdd9de50	-0.10638106
220	0x3c4c979a	0.0124873165
221	0xbe965445	-0.29361168
222	0xbed8cf34	-0.42345583
223	0x3e130b86	0.14359865
224	0x3f0d9578	0.55306196
225	0xbdf31e20	-0.1187098
226	0x3e958e76	0.29210252
227	0x3df7c2ee	0.12097727
228	0x3f11f88c	0.5701988
229	0x3efce6a6	0.4939472
230	0xbd5c250a	-0.05374626
231	0x3dd0ddb1	0.10198534
232	0xbf0c5a3d	-0.5482519
233	0xbf21fdee	-0.6327809
234	0xbe666239	-0.22498406
235	0xbd9b9d17	-0.07598322
236	0x3f05de71	0.52292544
237	0x3d0e0b29	0.034678612
238	0xbed3f7d9	-0.4140003
239	0xbe12007b	-0.14257996
240	0xbef3fbcf	-0.47653052
241	0xbf45ef57	-0.7731833
242	0xbe5d55e7	-0.216148
243	0xbef743c9	-0.48293903
244	0xbec4dfad	-0.384519
245	0xbf00948a	-0.5022665
246	0xbe85ce3d	-0.2613391
247	0x3e540725	0.2070585
248	0x3e813ab1	0.2524009
249	0x3edac381	0.42727283
250	0xbde91760	-0.113814116
251	0x3dd4cdb1	0.10390795
252	0x3f30bdb9	0.69039494
253	0x3f102198	0.5630126
254	0x3ea0e6e4	0.31426156
255	0xbe24f6a6	-0.16109714

bias f4 [100]
0	0xbe7b3910	-0.24533486
1	0x3e399c94	0.18126136
2	0xbf0cd4c3	-0.5501215
3	0x3ed36225	0.41285816
4	0x3ed03b5f	0.40670297
5	0x3dda3026	0.10653715
6	0xbe91385b	-0.28363308
7	0x3e049c2e	0.12950203
8	0xbe01a8ac	-0.12662
9	0x3e40083d	0.18753143
10	0x3cfb3b3b	0.030667892
11	0xbc8c5992	-0.017132554
12	0xbea94e46	-0.3306753
13	0xbd6b1ac9	-0.05739859
14	0xbe83a93a	-0.25715047
15	0x3e373ea4	0.17894989
16	0xbf035ab8	-0.513103
17	0xbf07cdab	-0.530482
18	0xbcfddfe8	-0.030990556
19	0x3e7904e9	0.2431828
20	0xbe16913b	-0.14703839
21	0xbee4bda7	-0.44675943
22	0xbce5f1a1	-0.02806932
23	0xbe85e89c	-0.2615403
24	0x3dedaad5	0.11604849
25	0xbe4d731a	-0.20063439
26	0xbf1dbaa4	-0.61612916
27	0xbd4b9b7d	-0.049708832
28	0x3dee49eb	0.116351925
29	0xbe82ceeb	-0.2554849
30	0xbf1c00f6	-0.60938966
31	0x3ea3d9ff	0.32002255
32	0xbe853f54	-0.26024878
33	0x3e3302d1	0.17481543
34	0xbe32d0d4	-0.17462474
35	0x3db45edd	0.08807156
36	0xbde9fd47	-0.11425262
37	0x3eb7f67c	0.3593024
38	0xbe0173f9	-0.12641896
39	0x3dc9abd5	0.098472275
40	0xbe7c7107	-0.24652492
41	0x3e0938f7	0.13400637
42	0xbed70670	-0.419971
43	0x3e94b9f7	0.2904813
44	0xbe54922e	-0.20758888
45	0x3e5037fe	0.2033386
46	0xbf05ec64	-0.5231383
47	0x3d57fd1f	0.05273163
48	0xbe61a154	-0.22034198
49	0xbf0979d7	-0.5370154
50	0xbd5a7f4d	-0.05334406
51	0xbe9dbce6	-0.3080818
52	0x3e5e14b0	0.21687579
53	0xbf63f6aa	-0.89048254
54	0xbed4fe69	-0.4160035
55	0xbf28a53a	-0.65877116
56	0xbeec92b7	-0.46205685
57	0xbecb65c7	-0.39726087
58	0xbd86731b	-0.065649234
59	0x3f0a3dbb	0.54000443
60	0x3e3e6e6d	0.18596812
61	0x3e68efb9	0.22747697
62	0x3e836b2a	0.25667697
63	0xbf327fce	-0.69726264
64	0x3e55a9dd	0.20865579
65	0xbe71d6c4	-0.23617083
66	0xbdd688c3	-0.10475304
67	0xbf6aaaf6	-0.91667116
68	0xbe9e30fa	-0.3089674
69	0x3d4b455a	0.049626686
70	0xbdf24d20	-0.11831117
71	0x3eb4d01b	0.35315022
72	0xbe16d16e	-0.14728329
73	0x3e99e860	0.300601
74	0xbe938d7a	-0.28818876
75	0x3efe21c0	0.49635124
76	0xbf1c26af	-0.60996526
77	0x3eb774c9	0.35831288
78	0x3efb9602	0.49137884
79	0xbee29355	-0.4425303
80	0xbdf7fcdc	-0.12108776
81	0x3e9fb610	0.3119359
82	0x3e9f85a3	0.31156644
83	0x3e98d9d8	0.29853702
84	0xbe0b45b4	-0.13600808
85	0xbf5de686	-0.86679876
86	0x3e059140	0.1304369
87	0xbe22a1d8	-0.15882051
88	0xbea5c1d1	-0.32374433
89	0xbf12d11d	-0.5735033
90	0xbde44471	-0.11145867
91	0xbf1f0239	-0.62112767
92	0xbeb3a35d	-0.35085574
93	0xbe62e6de	-0.22158381
94	0xbe8a1831	-0.26971582
95	0x3ea2f5f9	0.31828287
96	0xbeb870e0	-0.36023617
97	0xbf31b04d	-0.6940964
98	0x3e89922d	0.26869336
99	0x3e784d94	0.24248344

weight f4 [100, 100]
0	0xbe019ad5	-0.1265672
1	0xbf1100b9	-0.5664173
2	0xbcbab77c	-0.02279257
3	0xbf01598f	-0.5052728
4	0x3e6a71d3	0.22894983
5	0x3e30f6ae	0.17281601
6	0x3eb20e06	0.34776324
7	0xbe9e2b93	-0.3089262
8	0xbcb79aaa	-0.022412617
9	0xbed0d8de	-0.40790457
10	0x3ea3c0ca	0.31983024
11	0x3e5a5032	0.21319655
12	0x3f29f097	0.66382736
13	0x3e4b7edf	0.19872616
14	0x3e73f7ee	0.23825046
15	0x3e0319f5	0.1280287
16	0x3ed3e6d7	0.41387054
17	0x3f0c3485	0.5476764
18	0xbea48ff4	-0.32141078
19	0xbefc1f7d	-0.49242774
20	0x3eb6fa27	0.35737726
21	0x3f23412d	0.63771325
22	0x3ec26b1a	0.37972337
23	0x3e8275a7	0.25480387
24	0xbd791a1f	-0.060815927
25	0xbee6bd35	-0.45066229
26	0x3f095cba	0.53657115
27	0x3eab4358	0.33449817
28	0xbe484a6a	-0.19559637
29	0x3e458012	0.19287136
30	0x3ea8583c	0.32879817
31	0xbe51b930	-0.204808
32	0xbee408ac	-0.44537866
33	0x3e4d157e	0.2002773
34	0xbe2e6553	-0.1703084
35	0xbedcf07e	-0.4315223
36	0xbebc7ab4	-0.36812365
37	0xbf130aa4	-0.5743811
38	0x3e3a921b	0.18219797
39	0xbec19c4c	-0.37814558
40	0x3efc65a0	0.49296284
41	0xbd5e4139	-0.05426142
42	0xbebb7620	-0.3661356
43	0x3e8154ef	0.25260112
44	0x3eb7a6c7	0.3586943
45	0x3e41a7d0	0.18911672
46	0x3dd9c369	0.10632975
47	0x3eba4c23	0.36386213
48	0xbe127870	-0.14303756
49	0x3bfb3f2c	0.007667443
50	0x3ee000f7	0.43750736
51	0x3ef3baab	0.47603354
52	0x3dff694b	0.12471255
53	0x3eb13186	0.34608096
54	0x3dabca34	0.083881766
55	0x3f1614b7	0.5862536
56	0xbea37a9d	-0.31929484
57	0x3eb2979e	0.348813
58	0x3e9cc45f	0.3061857
59	0x3dfe9843	0.12431385
60	0xbe050105	-0.1298867
61	0x3e39d298	0.18146741
62	0x3e3e64d9	0.18593158
63	0xbed30748	-0.41216493
64	0x3e2ac8c1	0.16678144
65	0x3ee029c7	0.43781874
66	0x3b6585a7	0.003502229
67	0xbe5fe9ab	-0.21866481
68	0xbf1a630c	-0.60307384
69	0xbd347184	-0.04405357
70	0x3e213c08	0.15745556
71	0xbdc6446e	-0.09681021
72	0x3f0d99c2	0.5531274
73	0x3e16a6a0	0.14712
74	0x3ef5c850	0.4800439
75	0x3da7e5cf	0.081981294
76	0x3ed16fb5	0.40905538
77	0x3db6ff22	0.089353815
78	0x3ca6cd15	0.020361463
79	0x3f252478	0.6450877
80	0xbe66dca8	-0.22545111
81	0x3e452264	0.192514
82	0x3e834fcc	0.25646818
83	0x3e88aea7	0.2669575
84	0x3de807ea	0.113296345
85	0x3e08ca23	0.13358359
86	0xbee0b228	-0.43885922
87	0x3e588f5a	0.21148434
88	0xbf0a6406	-0.54058874
89	0x3eafb964	0.3432113
90	0x3e560ce9	0.20903362
91	0xbedcdbb7	-0.4313638
92	0x3e5da018	0.21643102
93	0x3e712f11	0.2355311
94	0x3efaf6c8	0.49016404
95	0xbec403bc	-0.382841
96	0x3f066bcd	0.5250824
97	0xbed307d7	-0.4121692
98	0xbda285ab	-0.079356514
99	0xbe8ef2ae	-0.27919525
100	0xbca7abc0	-0.020467639
101	0x3e269b90	0.1627028
102	0x3d091d46	0.033475183
103	0x3e4727fd	0.19448848
104	0x3deb00ea	0.11474784
105	0xbd900b43	-0.07033398
106	0xbd602f0b	-0.054732364
107	0x3e31ca1f	0.1736226
108	0x3e9e7154	0.30945837
109	0x3d486a0b	0.048929255
110	0x3d12271d	0.035681833
111	0x3c2b70f5	0.010463943
112	0x3db39e0b	0.08770379
113	0xbc94b48d	-0.0181525
114	0x3e92513a	0.28577596
115	0x3df51580	0.119669914
116	0xbddb6e3e	-0.107143864
117	0x3effc597	0.49955437
118	0x3e23aa06	0.15982828
119	0x3e30aa39	0.17252435
120	0x3ed14608	0.40873742
121	0x3e58051c	0.21095699
122	0x3d22ec66	0.03977623
123	0x3e992db0	0.2991767
124	0x3d5b6b71	0.05356926
125	0x3e8da929	0.2766812
126	0xbdc0ec34	-0.09420052
127	0x3e2fdf15	0.17174943
128	0x3d8d8d62	0.06911732
129	0xbda011bd	-0.07815883
130	0x3d17c559	0.03705344
131	0x3e58026e	0.21094677
132	0x3e323fa8	0.17407095
133	0x3d90b8ee	0.070665225
134	0x3e54aade	0.20768306
135	0x3dddb927	0.10826331
136	0x3dbfe370	0.09369552
137	0x3e03ccd0	0.12871099
138	0xbd2c497f	-0.04206228
139	0x3e466b85	0.19376953
140	0x3ddc274b	0.10749682
141	0x3e015531	0.12630154
142	0x3ea9b400	0.33145142
143	0x3e713fd2	0.23559502
144	0x3dcdd2be	0.100499615
145	0x3e7d75e5	0.24752004
146	0x3da82324	0.082098275
147	0x3ea3b8ae	0.31976837
148	0x3e4632c4	0.19355303
149	0x3e92d40b	0.286774
150	0x3e59fa81	0.21286966
151	0xbbdf62fd	-0.0068172202
152	0x3da014c5	0.078164615
153	0x3eeab3c3	0.45840272
154	0x3e96ed5e	0.29477972
155	0xbecc4179	-0.39893702
156	0x3e909c5e	0.282443
157	0x3e43cbe7	0.19120751
158	0x3d8528bd	0.06501911
159	0x3e70ad34	0.23503572
160	0x3b1b442c	0.0023691757
161	0x3cedccb9	0.029028283
162	0x3e44f38e	0.19233534
163	0x3e8eac2f	0.2786574
164	0x3dbfeb95	0.093711056
165	0x3e927506	0.28604907
166	0x3d9e6f74	0.07736102
167	0x3eb73c17	0.35788032
168	0x3e561a0d	0.20908375
169	0xbd039764	-0.0321268
170	0x3e06edf1	0.13176705
171	0x3e2530ed	0.16131945
172	0x3e98de6b	0.2985719
173	0x3e7bed37	0.24602209
174	0x3e85c3fb	0.26126084
175	0x3e67ff9a	0.22656098
176	0x3f0006d6	0.5001043
177	0x3e56f675	0.20992453
178	0x3e185b3e	0.14878556
179	0xbe0500b7	-0.12988554
180	0x3e22e179	0.15906323
181	0xbd1d6785	-0.038428802
182	0x3d94e435	0.072700895
183	0x3d8eb847	0.06968742
184	0x3e2c0bd4	0.16801387
185	0x3f0bd096	0.5461515
186	0x3e027f2f	0.12743829
187	0xbdbeafc3	-0.09310868
188	0x3e1a8357	0.15089165
189	0x3e17894c	0.14798468
190	0x3e190476	0.14943108
191	0x3eb0fc66	0.34567565
192	0x3cea3181	0.028588058
193	0x3dfe98b1	0.12431467
194	0x3e37eac5	0.17960651
195	0x3e6f7ece	0.23388216
196	0x3dc299ea	0.09502013
197	0x3e9d8ef6	0.30773133
198	0x3e14035b	0.14454405
199	0x3e2ec731	0.17068173
200	0xbe8c6091	-0.27417424
201	0x3e67b2cb	0.22626798
202	0xbe902e55	-0.2816035
203	0xbe0eba0f	-0.13938163
204	0x3dbc4d0b	0.09194382
205	0x3d693555	0.056935627
206	0x3e49f564	0.19722515
207	0x3decb825	0.1155856
208	0x3e7250d9	0.23663653
209	0x3e270857	0.16311775
210	0x3e0a4819	0.13504066
211	0x3e0cc77f	0.13747977
212	0xbef34885	-0.47516266
213	0x3e8b3727	0.27190515
214	0x3eaf8df9	0.34288004
215	0x3e063947	0.13107787
216	0x3e77011e	0.2412152
217	0x3f040119	0.51564175
218	0x3e3bf6cc	0.18355864
219	0xbca74722	-0.020419661
220	0x3ede6bf3	0.43441734
221	0x3f01d62d	0.5071743
222	0xbe952345	-0.2912847
223	0x3e94ea28	0.29084897
224	0x3e806992	0.25080544
225	0x3d56392f	0.05230063
226	0x3ef75869	0.4830964
227	0x3e6e87b7	0.23293959
228	0x3e4175b3	0.18892555
229	0x3e302084	0.17199904
230	0x3e9572c6	0.29189128
231	0x3d728366	0.059207343
232	0x3e254ff6	0.16143784
233	0x3e00618b	0.1253721
234	0x3ec093b8	0.376127
235	0x3e14d71c	0.14535183
236	0x3e3761d8	0.17908418
237	0x3e1a6cc6	0.15080556
238	0x3d9d6f9e	0.07687305
239	0x399276a2	0.00027935678
240	0xbecddeeb	-0.40209135
241	0x3dba7ff7	0.091064386
242	0x3edc5522	0.430337
243	0x3d787402	0.06065751
244	0x3e487bb3	0.19578438
245	0x3e119ceb	0.14220016
246	0xbec5adfe	-0.38609308
247	0x3e75617f	0.23962973
248	0x3dcab88f	0.09898483
249	0x3eb3bb3c	0.35103786
250	0xbeaaef95	-0.33385912
251	0xbe8f41dc	-0.27979934
252	0x3e16477a	0.14675704
253	0x3efe4fc3	0.49670228
254	0x3e2fc50a	0.17165008
255	0x3df15a3e	0.117847905

bias f4 [100]
0	0xbdc9fc32	-0.098625556
1	0x3e668952	0.22513321
2	0xbe20a1b9	-0.15686692
3	0x3e973225	0.29530445
4	0xbe836b66	-0.25667876
5	0x3e1b111e	0.15143248
6	0x3ec735c5	0.3890821
7	0xbd2f62ea	-0.04281894
8	0x3b6be764	0.0035996074
9	0x3e2f0068	0.17089999
10	0x3e88867d	0.26665106
11	0x3e276ec6	0.1635085
12	0x3eb89924	0.36054337
13	0x3e317cf4	0.17332822
14	0x3f50759c	0.8142946
15	0x3e3a0756	0.18166861
16	0xbd260d86	-0.04054024
17	0x3e83607c	0.2565955
18	0x3e8bd03e	0.27307314
19	0xbcb09fd1	-0.021560581
20	0x3e3f115e	0.18658969
21	0xbe94d62c	-0.2906965
22	0x3e31ddd0	0.17369771
23	0x3d894cc8	0.06704098
24	0xbe8986a3	-0.26860532
25	0x3cba4345	0.022737155
26	0x3dd2c966	0.1029232
27	0xbe0a5e57	-0.1351255
28	0x3d896424	0.067085534
29	0x3e472f36	0.19451603
30	0xbe3dadb8	-0.185233
31	0x3ea8897d	0.32917395
32	0x3e918ace	0.28426212
33	0x3dcaefee	0.09909044
34	0x3d5fa22d	0.054598022
35	0x3ea52f3c	0.322626
36	0x3e8240c5	0.2544004
37	0x3e0dd725	0.13851602
38	0xbdcdb9c2	-0.10045196
39	0x3e473c25	0.19456537
40	0x3e15ca27	0.14627896
41	0x3d3025ce	0.043004803
42	0xbf0b76d5	-0.544782
43	0x3e8f39b9	0.27973726
44	0xbe0066bd	-0.12539192
45	0x3df90bda	0.12160464
46	0x3e1db0b3	0.15399437
47	0xbe0f6a40	-0.14005375
48	0x3e57a151	0.21057631
49	0x3e37535c	0.17902893
50	0xbdb3a5f2	-0.08771886
51	0xbd66be5e	-0.056333892
52	0xbdb7dcc4	-0.089776546
53	0x3e240829	0.16018738
54	0xbd8a6bae	-0.067588195
55	0x3d59d54f	0.053181943
56	0x3db20a5b	0.086933814
57	0x3df510f0	0.11966121
58	0x3db93936	0.09044115
59	0x3d850d51	0.064966805
60	0x3e1695b0	0.14705539
61	0x3e9ea122	0.3098231
62	0x3e9aae21	0.30210975
63	0x3e94d09a	0.290654
64	0x3e964457	0.29349014
65	0x3eb4c611	0.35307363
66	0x3da19020	0.07888818
67	0xbc353905	-0.011060958
68	0x3e803bf0	0.2504573
69	0xbca522de	-0.020158228
70	0x3d12f7ef	0.03588098
71	0x3dc1cc2d	0.094627716
72	0x3dd53214	0.10409942
73	0x3e7a41ba	0.24439135
74	0xbde7d5a3	-0.11320045
75	0x3e994871	0.2993808
76	0x3c7ba4ac	0.015359085
77	0x3d63069d	0.05542623
78	0x3e45be5a	0.19310895
79	0x3ebc39ef	0.3676295
80	0xbc824852	-0.015903626
81	0x3d64e6de	0.055884235
82	0xbbb08681	-0.005387128
83	0x3d8daa68	0.06917268
84	0xbe18e595	-0.14931329
85	0x3d60837e	0.0548129
86	0x3dfe18e4	0.12407091
87	0x3e62d960	0.22153234
88	0xbd224ac6	-0.03962209
89	0x3c73325c	0.01484355
90	0xbc8eba61	-0.017422857
91	0x3e283fa8	0.16430533
92	0x3c91cebd	0.017798776
93	0xbd4a504b	-0.04939298
94	0xbc47b472	-0.012189018
95	0xbdcc9f06	-0.09991269
96	0x3e72a865	0.2369705
97	0x3af33dd3	0.0018557854
98	0x3ebc16a4	0.36736023
99	0x3d7d7cbe	0.06188654

weight f4 [100, 100]
0	0xbd77c41d	-0.060489763
1	0x3ded2d70	0.11580932
2	0x3e9689e7	0.29402086
3	0xbda0069f	-0.07813763
4	0x3ec8ab3b	0.39193138
5	0xbef182ed	-0.471702
6	0xbe285df3	-0.16442089
7	0xbcfe06be	-0.031009074
8	0x3eab285b	0.33429226
9	0xbd823d96	-0.06359403
10	0xbdd73277	-0.10507672
11	0x3ec0320b	0.3753818
12	0x3df9cd2b	0.12197336
13	0xbe744e82	-0.23858073
14	0x3f4d9a94	0.8031399
15	0xbe2fbb00	-0.17161179
16	0x3e40fb18	0.18845785
17	0x3e1ce099	0.15320052
18	0xbe972ce2	-0.2952643
19	0x3e1df6ef	0.15426229
20	0x3e305dbb	0.17223255
21	0x3e7ca09b	0.24670641
22	0xbdb6227a	-0.08893295
23	0x3e93a284	0.28834927
24	0x3e980042	0.29687697
25	0x3da348cb	0.079728685
26	0x3e5cc87e	0.21560857
27	0x3e9d917d	0.3077506
28	0x3ea4ee1f	0.32212922
29	0x3ea7c6c1	0.32768825
30	0x3e97ce05	0.29649368
31	0x3de32450	0.110909104
32	0x3de498d5	0.11161963
33	0xbdd7c0e2	-0.10534836
34	0x3d6f238a	0.058383502
35	0xbc47a007	-0.01218415
36	0xbe9c8301	-0.30568698
37	0x3dc9eebc	0.09859988
38	0x3eaab83f	0.33343694
39	0xbe379e5e	-0.17931506
40	0x3e01d574	0.12679082
41	0x3eead70d	0.45867196
42	0xbeb82cb5	-0.3597161
43	0xbe059b65	-0.1304756
44	0x3ec91e12	0.39280754
45	0xbdac6552	-0.08417763
46	0x3e1bd307	0.1521722
47	0x3ea36ab0	0.31917334
48	0xbe2e32f2	-0.17011622
49	0x3ed5a7a9	0.41729477
50	0x3ebb5e24	0.3659526
51	0x3e34f271	0.17670609
52	0x3e37de4b	0.17955892
53	0x3e3e8e2a	0.18608919
54	0x3e971494	0.29507887
55	0x3e39c690	0.18142152
56	0x3e438313	0.1909297
57	0x3eb74bf9	0.3580015
58	0x3ed5a508	0.4172747
59	0x3e99596e	0.29951042
60	0x3e154b4f	0.14579509
61	0xbe809120	-0.25110722
62	0xbe3822dd	-0.1798205
63	0xbe5d223b	-0.21595089
64	0x3e88dcb4	0.26730883
65	0x3d327f55	0.043578465
66	0x3e834077	0.2563512
67	0x3eb32a22	0.34993082
68	0x3e0e6926	0.13907298
69	0x3e95cb14	0.292565
70	0x3e22b53f	0.15889452
71	0x3ec6598a	0.38740188
72	0x3eb3b1bc	0.35096538
73	0xbe12e232	-0.14344099
74	0x3ee9961a	0.4562233
75	0xbe68a6a6	-0.22719821
76	0xbd827c3d	-0.06371353
77	0x3e8d5b18	0.27608562
78	0x3e3e360e	0.18575308
79	0x3afbaa08	0.0019200454
80	0x3d947340	0.07248545
81	0x3e948d7a	0.29014188
82	0x3eb6b367	0.35683748
83	0x3e4737cf	0.19454883
84	0x3eb9339e	0.36172193
85	0x3d9a246c	0.07526478
86	0x3e362764	0.17788464
87	0xbe873ec1	-0.26415065
88	0x3e9bec0a	0.3045352
89	0x3dd95824	0.106125146
90	0x3ecd603d	0.40112486
91	0xbe533bb6	-0.20628247
92	0x3e345399	0.17610015
93	0x3e2c71a6	0.16840228
94	0x3e9c808f	0.30566832
95	0x3ddcff76	0.10790913
96	0xbde44812	-0.11146559
97	0x3d183084	0.037155643
98	0xbd815a50	-0.06316054
99	0x3e91326f	0.2835879
100	0x3e04f694	0.12984687
101	0x3ebfd647	0.37468168
102	0x3eca5a4d	0.3952202
103	0xbd273dfa	-0.04083059
104	0x3e6b63df	0.22987317
105	0xbcddcc78	-0.027075037
106	0x3e5cfbc4	0.21580416
107	0xbe52b7f1	-0.2057798
108	0x3e8a0019	0.269532
109	0x3e0e72e1	0.1391101
110	0x3c4d80df	0.012542932
111	0x3e9135e7	0.28361437
112	0xbe623344	-0.22089869
113	0x3e4c6b14	0.19962722
114	0x3f30a49e	0.69001186
115	0xbc269ce0	-0.010169238
116	0x3e7eb9bc	0.2487554
117	0x3e7afc54	0.24510318
118	0xbe4d466a	-0.20046392
119	0x3e29bd73	0.16576175
120	0x3ebc0d07	0.3672869
121	0x3eb27278	0.34852958
122	0x3e8ad82f	0.2711806
123	0xbdda3a81	-0.1065569
124	0x3e9e3c8a	0.30905563
125	0x3dfe2c51	0.124107964
126	0x3ec7994b	0.3898414
127	0x3e446a75	0.19181235
128	0x3e7165f5	0.2357405
129	0xbda4a144	-0.080385715
130	0x3e5ff1cb	0.2186958
131	0xbe74f80b	-0.23922746
132	0x3ea818f9	0.32831553
133	0x3d2e21d4	0.04251273
134	0xbc8167af	-0.01579651
135	0x3e3b9672	0.18319109
136	0xbea7df34	-0.32787478
137	0x3e4106cf	0.18850254
138	0x3ec0b73a	0.3763979
139	0xbe960e96	-0.29308003
140	0x3ea06029	0.31323364
141	0x3e8f6e95	0.28014055
142	0xbe63541e	-0.22200057
143	0xbe736d66	-0.23772201
144	0x3e2a5b1e	0.16636321
145	0xbec2007e	-0.37891
146	0x3ea5ce84	0.3238412
147	0x3e3cd8b1	0.18442036
148	0xbe2fdda9	-0.171744
149	0x3ea50a89	0.322346
150	0x3e36b334	0.17841798
151	0xbb4a9e65	-0.0030917164
152	0x3df38cf7	0.11892121
153	0x3ebb0299	0.3652542
154	0x3e7442c2	0.23853591
155	0x3e87ec12	0.26547295
156	0xbd2bd078	-0.04194686
157	0x3e78c4ee	0.24293873
158	0x3e0adf45	0.13561733
159	0x3e9c8316	0.3056876
160	0x3e9de10c	0.3083576
161	0xbe895db5	-0.26829305
162	0xbe060cfe	-0.13090894
163	0xbea9c49d	-0.33157817
164	0x3ec27251	0.37977841
165	0x3e8053b8	0.25063872
166	0x3e66827b	0.22510712
167	0x3e98ed6a	0.29868633
168	0x3ec3b0b8	0.38220763
169	0x3d9671ef	0.0734595
170	0x3eafc2ac	0.3432821
171	0x3e5590f3	0.20856075
172	0xbde50427	-0.111824326
173	0xbea6eae1	-0.32601073
174	0x3e6148ce	0.22000429
175	0xbe0a2999	-0.13492431
176	0xbcdf6d12	-0.027273688
177	0x3e09d1b3	0.134589
178	0x3e98b162	0.29822832
179	0x3e96326e	0.2933535
180	0x3ebab6ad	0.36467496
181	0x3e6fddac	0.23424405
182	0x3e93e12e	0.28882736
183	0xbe566886	-0.2093831
184	0x3e281481	0.16414072
185	0x3ea8b042	0.32946974
186	0x3e955d30	0.2917266
187	0xbe70fda9	-0.23534264
188	0x3ea7302d	0.32653943
189	0x3e3aea4f	0.18253444
190	0x3e7b0439	0.2451333
191	0xbe3cec4c	-0.18449515
192	0x3d930f51	0.07180656
193	0x3e8daf2e	0.27672714
194	0x3e8f48c1	0.27985194
195	0xbd9aa7d7	-0.07551544
196	0xbe21293d	-0.15738387
197	0x3cef5f9c	0.029220395
198	0x3e40816b	0.18799369
199	0x3ebe3a6f	0.37153956
200	0xbef81062	-0.4845
201	0x3e324784	0.17410094
202	0x3c640469	0.013917067
203	0x3d7cfb29	0.061762962
204	0x3ea14fac	0.31506097
205	0xbda5b380	-0.080908775
206	0x3e36d021	0.17852832
207	0x3e4ac2e0	0.19800901
208	0x3e573ee7	0.21020089
209	0xbe636aa4	-0.22208649
210	0x3e08b9b1	0.13352086
211	0x3df18a40	0.11793947
212	0x3e4025e2	0.18764451
213	0x3e1e75e2	0.15474656
214	0x3f3152d2	0.69267
215	0xbeb58349	-0.35451725
216	0xbe51801c	-0.20459026
217	0x3e84179a	0.25799257
218	0xbebe8ba9	-0.37215927
219	0xbe89c1ce	-0.26905674
220	0x3e1b0e39	0.15142144
221	0x3e84cc1a	0.25936967
222	0xbeb9a90b	-0.36261782
223	0x3e733ab1	0.23752858
224	0x3e513540	0.2043047
225	0xbdd7c550	-0.10535681
226	0x3e1e07f7	0.15432726
227	0x3e506c1f	0.20353745
228	0x3e89fc6b	0.26950392
229	0x3e6e3101	0.23260881
230	0x3e02f9aa	0.12790552
231	0x3de0f23a	0.10983701
232	0xbbc417eb	-0.0059842966
233	0x3d6c3081	0.057663444
234	0x3d4759f9	0.04866979
235	0x3db409f1	0.08790959
236	0x3d64c9a2	0.055856355
237	0xbe8a26a5	-0.26982608
238	0x3e52e9d1	0.20597006
239	0x3d811e62	0.06304623
240	0xbe4717e3	-0.19442706
241	0x3e5a1dec	0.21300477
242	0xbf1f05e3	-0.6211836
243	0x3d97e058	0.07415837
244	0x3e468b60	0.19389105
245	0x3e680ac8	0.22660363
246	0x3e190de9	0.14946713
247	0x3e90ca19	0.28279188
248	0x3e6b507f	0.22979926
249	0x3dffb506	0.12485699
250	0x3e966236	0.29371804
251	0xbe4fe0a6	-0.2030054
252	0xbe035dcb	-0.12828748
253	0x3e33ba84	0.17551619
254	0xbea1ef40	-0.31627846
255	0xbe8340be	-0.25635332

bias f4 [100]
0	0xbe2785eb	-0.1635968
1	0x3d8f94e8	0.070108235
2	0xbd68bc5b	-0.056820255
3	0x3d3b1600	0.045675278
4	0x3ed3ea15	0.41389528
5	0x3c9cdbbd	0.019147748
6	0x3d3e6209	0.046480212
7	0x3e9b3e6d	0.30321065
8	0x3e00b800	0.1257019
9	0x3d68dd46	0.056851648
10	0xbe86dc8b	-0.26340136
11	0xbd8232bd	-0.06357334
12	0xbe19fe89	-0.15038504
13	0x3e24cd39	0.16093911
14	0xbdddcb30	-0.108297706
15	0x3cc348ea	0.02383848
16	0xbd8b76cb	-0.06809767
17	0x3edc68a2	0.43048579
18	0xbca6a416	-0.020341914
19	0x3c99ae69	0.018759923
20	0x3cc99ac3	0.024609929
21	0x3e186ecf	0.1488602
22	0x3df73171	0.12069977
23	0x3d42502d	0.047439743
24	0x3d9a3eb0	0.07531488
25	0x3cc6b50b	0.02425625
26	0x3dd096f4	0.10185042
27	0xbdd35307	-0.103185706
28	0xbe3ef307	-0.18647395
29	0xbcc4320d	-0.023949647
30	0x3ec2a07e	0.3801307
31	0x3dabf4f3	0.0839633
32	0x3db9b704	0.090681106
33	0x3d87bbc4	0.0662761
34	0x3d18094e	0.03711825
35	0x3e6d1f7e	0.23156545
36	0xbdca7362	-0.09885289
37	0xbd2e3814	-0.04253395
38	0xbd033f90	-0.03204304
39	0x3d8406e1	0.064466245
40	0x3e7d6814	0.24746734
41	0x3e428b73	0.18998508
42	0x3ee7bbdb	0.4526051
43	0x3e7683c0	0.24073696
44	0x3e2092f1	0.15681054
45	0xbdadf960	-0.0849483
46	0xbde5fa22	-0.1122935
47	0x3e74600b	0.23864762
48	0x3db37de1	0.08764244
49	0x3e913c9c	0.28366554
50	0x3e8e3435	0.27774206
51	0x3e8c3386	0.2738306
52	0x3dc8548f	0.09781753
53	0x3e01a615	0.12661012
54	0xba58f073	-0.0008275576
55	0x3d6e670d	0.058203746
56	0xbde7b3cb	-0.1131359
57	0xbe37c49d	-0.17946096
58	0xbcbf81b8	-0.023377284
59	0x3e5d2a1b	0.21598093
60	0xbde90cc0	-0.11379385
61	0xbd767d57	-0.060178127
62	0xbde78b3c	-0.11305854
63	0xbd280d71	-0.041028444
64	0x3ced0619	0.028933572
65	0x3e45b0e3	0.19305758
66	0xbe170841	-0.14749242
67	0xbb77e9ce	-0.0037828567
68	0xbdc0a442	-0.0940633
69	0xbda0a5b5	-0.07844106
70	0x3bcf548a	0.0063272165
71	0x3d96ddc6	0.07366519
72	0x3d7254af	0.05916279
73	0xbe5febb9	-0.21867265
74	0x3c86581b	0.016399434
75	0xbdd1397e	-0.10216044
76	0x3d11f319	0.035632227
77	0xba23dd75	-0.0006250956
78	0x3ea54b22	0.32283884
79	0x3e3f52af	0.18683885
80	0x3e61730c	0.22016543
81	0x3c9ea6f6	0.019366723
82	0xbdbecbc1	-0.09316207
83	0x3e19dce5	0.15025671
84	0x3c651536	0.013982108
85	0x3e13a4cf	0.14418338
86	0x3c9feb02	0.01952124
87	0xbcc89da3	-0.02448923
88	0xba20332d	-0.00061111414
89	0x3e8f03b5	0.27932516
90	0x3e0f058a	0.13966957
91	0x3eb15148	0.34632325
92	0x3d8ab3c1	0.067725666
93	0xbd36532c	-0.044512913
94	0xbd0d5116	-0.034501158
95	0xbd4a5f37	-0.04940721
96	0x3e290140	0.16504383
97	0x3e8a83c5	0.27053657
98	0x3e3180f9	0.17334355
99	0x3e49247b	0.19642822

weight f4 [3, 100]
0	0x3e4144a1	0.18873836
1	0xbe9ca93d	-0.3059787
2	0x3e071745	0.1319247
3	0x3de3ee2f	0.11129414
4	0xbf121c9e	-0.57074916
5	0xbd5d1eae	-0.053984337
6	0x3d76584f	0.06014281
7	0xbdea1dd0	-0.114314675
8	0xbdefa0f7	-0.117006235
9	0x3e7e23db	0.24818365
10	0x3de4f2b1	0.11179102
11	0x3e4a0301	0.19727708
12	0x3cf81a76	0.030286055
13	0xbdda5aa9	-0.10661823
14	0x3e703c4a	0.23460498
15	0x3d99f960	0.07518268
16	0x3e0e1d09	0.13878264
17	0xbed49f5a	-0.41527826
18	0x3e79fb79	0.24412335
19	0x3ea35091	0.31897405
20	0x3e94d39c	0.29067695
21	0xbe893bbb	-0.26803383
22	0x3c0052d2	0.007832246
23	0x3cb134a5	0.021631548
24	0x3e429d31	0.19005276
25	0xbe048039	-0.12939538
26	0x3e47a867	0.19497834
27	0x3e38992a	0.18027177
28	0x3e527298	0.20551527
29	0x391af9e5	0.00014779677
30	0xbf340b54	-0.70329785
31	0x3e71ecc8	0.23625481
32	0x3bc51725	0.006014722
33	0x3e1080ff	0.14111708
34	0x3e694576	0.22780403
35	0xbdfc097d	-0.12306497
36	0x3e853247	0.2601492
37	0xbdbc126c	-0.09183201
38	0x3e92ba20	0.28657627
39	0x3dd8df00	0.10589409
40	0xbe6f939f	-0.23396157
41	0x3cff977e	0.031200167
42	0xbea68208	-0.3252108
43	0xbd3dc703	-0.04633237
44	0xbdf87a5a	-0.12132712
45	0x3e3e9e5f	0.18615101
46	0x3d6e933c	0.058245882
47	0xbd888c92	-0.06667437
48	0x3e7cd984	0.2469235
49	0xbe22037b	-0.1582164
50	0xbe0da0a2	-0.13830808
51	0xbeae0c4a	-0.3399375
52	0xbb3290e6	-0.002724701
53	0xbed70698	-0.41997218
54	0x2342c464	1.0558348e-17
55	0xbce929fe	-0.028462406
56	0x3e628db4	0.22124368
57	0xbbc10f35	-0.0058917054
58	0x3ceb2125	0.028702328
59	0xbe401678	-0.18758571
60	0x3d7bfb13	0.06151874
61	0x3e20ac14	0.15690643
62	0x3df97cba	0.12181993
63	0x3e6e1bb0	0.2325275
64	0xbdca80b7	-0.09887832
65	0xbe39f14e	-0.18158457
66	0x3e1e751b	0.1547436
67	0x292afb6d	3.796566e-14
68	0x3cb9ecce	0.022695925
69	0x3ec8713f	0.391489
70	0x3df55d40	0.11980677
71	0x3e565044	0.20929056
72	0x3e6d7f68	0.23193133
73	0x3e75417b	0.2395076
74	0xbdb63b7e	-0.08898066
75	0x3e965fb8	0.29369903
76	0xbd723efb	-0.059142094
77	0x3ea2fccb	0.3183349
78	0xbeb4c043	-0.35302934
79	0xbe80c16a	-0.25147563
80	0xbdc22b4f	-0.09480917
81	0x3e00b8db	0.12570517
82	0x3e339aac	0.17539471
83	0xbe396c5e	-0.18107745
84	0x3d6c731f	0.057726976
85	0x3bd70f77	0.006563123
86	0x3dca685b	0.098831855
87	0xbeeed7c9	-0.46649006
88	0x3e6b926b	0.23005073
89	0xbe86cd0a	-0.26328307
90	0xbcdcfefb	-0.026977053
91	0xbf0d5bba	-0.5521809
92	0x3e852182	0.26002127
93	0x3e8d9e90	0.27660036
94	0xbe286ab5	-0.16446956
95	0x3e5edecc	0.21764678
96	0xbe516868	-0.20449984
97	0xbe91a2c7	-0.28444502
98	0x3dd7d035	0.10537759
99	0xbe3f4654	-0.18679172
100	0xbeafd83b	-0.34344658
101	0xbeb66186	-0.3562128
102	0x3e761896	0.24032816
103	0xbe3fba14	-0.18723327
104	0xbe93a316	-0.28835362
105	0xbeba4179	-0.36378077
106	0x3ead4654	0.3384272
107	0x3b6a5eff	0.0035762188
108	0x3e541f16	0.20714983
109	0xbe0972fd	-0.13422771
110	0xbea6cd92	-0.32578713
111	0x3ea0212f	0.31275317
112	0xbeb0599e	-0.34443372
113	0xbe1177d1	-0.14205863
114	0xbebe0236	-0.37111062
115	0x3ea8e57b	0.3298758
116	0x3ea5ed2d	0.32407513
117	0xbe248f8c	-0.16070384
118	0xbdf53908	-0.119737685
119	0xbd87ed80	-0.066370964
120	0x3e20bd51	0.15697218
121	0xbea81437	-0.32827923
122	0x3ea32ece	0.31871647
123	0xbd98ca80	-0.07460499
124	0x3e934a34	0.2876755
125	0xbeb48e7a	-0.3526495
126	0xbe256ed3	-0.16155557
127	0x3e7d0444	0.24708658
128	0xbe9a16c2	-0.30095488
129	0xbaab0e21	-0.0013050475
130	0xbc7c3073	-0.015392411
131	0xbdfedd29	-0.12444527
132	0x3e63ee3c	0.22258848
133	0xbe2f1d9c	-0.17101139
134	0xbe08517e	-0.13312337
135	0x3e8498aa	0.25897723
136	0x3e551bcf	0.2081139
137	0xbea5d257	-0.3238704
138	0xbdfcf408	-0.12351233
139	0xbc63cd55	-0.013903935
140	0x3e86b7bd	0.26312056
141	0x3e937c8a	0.28805953
142	0x3ec4b47b	0.38418946
143	0x3e752484	0.23939711
144	0x3e952577	0.29130146
145	0x3d3ce6ba	0.046118475
146	0xbc5a772c	-0.013334077
147	0x3e4c710a	0.19964996
148	0xbe52e4e8	-0.20595133
149	0x3e5a8519	0.21339835
150	0xbda896f1	-0.08231915
151	0x3e050f9a	0.12994233
152	0x3eb30d90	0.34971285
153	0x3ea266cb	0.3171905
154	0x2ba96227	1.2035415e-12
155	0xbe9e2a33	-0.3089157
156	0x3e80ad6a	0.25132304
157	0xbeb55c20	-0.35421848
158	0xbca5d14e	-0.020241406
159	0xbe1f238a	-0.15540901
160	0xbebc40c7	-0.3676817
161	0x3d7aec20	0.061260343
162	0xbe421fe0	-0.18957472
163	0x3e8bfa85	0.2733957
164	0xbeab92f1	-0.33510545
165	0x3e3ae780	0.18252373
166	0xbeb186c4	-0.3467313
167	0x265da324	7.6895874e-16
168	0xbea67a5a	-0.32515222
169	0x3deb2c90	0.11483109
170	0x3e87e9d6	0.2654559
171	0x3e8fdfc9	0.28100422
172	0xbe4b4fc8	-0.19854653
173	0xbeb88026	-0.3603527
174	0xbeb9b12c	-0.36267984
175	0x3e6da16d	0.2320611
176	0xbc9fee1c	-0.01952272
177	0xbe289ec4	-0.16466814
178	0xbe11f855	-0.14254887
179	0x3e1fafbf	0.15594386
180	0x3d10f59f	0.035390493
181	0x3ebd0945	0.36921135
182	0x3e7a6d9c	0.24455875
183	0xbeb7d0b2	-0.3590141
184	0x3d87556d	0.066080905
185	0x3e9b8a82	0.3037911
186	0xbc633432	-0.013867425
187	0x3ea1c4a5	0.3159534
188	0xbd0bcd77	-0.034131493
189	0x3e9b390f	0.3031697
190	0x3ebe61fe	0.37184137
191	0xbe314186	-0.17310151
192	0x3e3a3892	0.18185642
193	0xbdf370da	-0.11886759
194	0xbeae8ab1	-0.34090188
195	0x3e8b5291	0.2721143
196	0xbeac54ed	-0.33658543
197	0x3e9f3af5	0.31099668
198	0x3ebf06df	0.3730993
199	0x3e821a75	0.2541081
200	0x3ec2f72c	0.38079202
201	0x3ec0231c	0.37526786
202	0x3e613572	0.21993044
203	0xbebbfeaa	-0.3671773
204	0x3e8b0efa	0.27159864
205	0x3ebf4fb6	0.37365502
206	0x3dff0674	0.12452403
207	0xbeda2b4c	-0.42611158
208	0x3ea22f2f	0.31676623
209	0xbed3952a	-0.4132474
210	0x3e9634b4	0.29337084
211	0xbccbca39	-0.0248767
212	0x3eb35d94	0.35032332
213	0xbeec9912	-0.46210533
214	0x3e7f6a9d	0.24943013
215	0xbdbf273a	-0.09333654
216	0x3e4bf0f2	0.19916132
217	0xbef21f56	-0.47289532
218	0x3eaac4c0	0.33353233
219	0xbed955a5	-0.42448154
220	0x3e7bfb12	0.24607494
221	0x3eadbaba	0.33931524
222	0x3e594ae8	0.2121998
223	0x3d3a512f	0.04548758
224	0x3e5cc111	0.21558024
225	0x3e9286d4	0.2861849
226	0xbed7c514	-0.42142546
227	0x3e577d0f	0.210438
228	0x3eadde80	0.33958817
229	0xbb2c8649	-0.0026325157
230	0xbef522ba	-0.47878057
231	0xbee9d496	-0.45670003
232	0x3ea79a95	0.32735124
233	0xbed4c2e3	-0.41554937
234	0xbee7db5e	-0.4528455
235	0x3e889a7f	0.2668037
236	0x3e5f5a3d	0.21811767
237	0x3eade532	0.33963925
238	0xbed08644	-0.40727437
239	0xbed42293	-0.41432628
240	0x3e8d786c	0.27630937
241	0x3e7f49c0	0.24930477
242	0xbd9b2704	-0.07575801
243	0x3e4734d3	0.19453745
244	0x3dc45853	0.09587159
245	0x3ea916d3	0.33025226
246	0xbd7ff682	-0.062490948
247	0x3e84d55a	0.25944024
248	0xbee4fa60	-0.4472227
249	0x3e5d7cfe	0.21629712
250	0xbede1c54	-0.43380988
251	0x3e94781b	0.28997883
252	0x3d844b5e	0.06459688
253	0xbebc3e12	-0.36766106
254	0x211d23c8	5.3241025e-19
255	0x3ea32c2e	0.31869644

bias f4 [3]
0	0xbe81f0cb	-0.25379023
1	0xbd6a460e	-0.057195716
2	0xbd5271a5	-0.05137791
