model/Velocity_indoor/MIX_in_X0.08_Y0.10_Z0.12.pt (torch, 88847 bytes, 8 tensors)

weight f4 [100, 8]
0	0x3ecb22e8	0.3967507
1	0x3e989a4f	0.29805228
2	0xbd1317c1	-0.035911325
3	0xbf003170	-0.50075436
4	0xbe93bce5	-0.28855053
5	0xbe80519b	-0.2506226
6	0xbe64e740	-0.2235384
7	0xbe793b3f	-0.24339007
8	0xbefb502b	-0.490846
9	0xbf0f734f	-0.5603532
10	0xbef0118d	-0.4688839
11	0xbe1fe1be	-0.15613458
12	0x3e9d2830	0.30694723
13	0xbe9284ca	-0.28616935
14	0xbed7d7da	-0.4215687
15	0xbd9357f2	-0.071945086
16	0xbf03a552	-0.51424134
17	0xbeab87f2	-0.33502156
18	0xbee9c34c	-0.45656812
19	0xbeedcbcc	-0.46444547
20	0xbe798a53	-0.24369173
21	0xbe4f9520	-0.2027173
22	0xbe8f8556	-0.28031415
23	0xbeef04c6	-0.4668333
24	0x3ee43953	0.44574985
25	0xbd5e4bf1	-0.054271642
26	0xbc6fb548	-0.014630623
27	0xbf10e398	-0.5659728
28	0xbe359d17	-0.17735706
29	0xbd5ce16c	-0.053925917
30	0xbdf9f33c	-0.122045964
31	0xbedac1b4	-0.4272591
32	0xbf51c066	-0.819342
33	0xbef470fa	-0.47742444
34	0x3d47ef90	0.04881245
35	0x3da7cf59	0.08193845
36	0xbc5513e7	-0.013005233
37	0x3b02d0ec	0.0019960953
38	0xbe8adc14	-0.2712103
39	0x3d6ccdd4	0.05781348
40	0x3e484e77	0.19561182
41	0x3e3330dc	0.17499107
42	0x3f111079	0.5666576
43	0xbda20a1f	-0.07912087
44	0x3df726b1	0.12067927
45	0x3eb2d4d0	0.34927988
46	0xbeab837f	-0.3349876
47	0x3f25a71b	0.6470811
48	0xbe359a97	-0.17734753
49	0xbc4e0986	-0.012575513
50	0x3e9d9878	0.30780387
51	0x3eeb7489	0.45987347
52	0x3eb208ea	0.34772426
53	0x3f24623a	0.6421238
54	0x3e639c19	0.22227515
55	0x3e68f19d	0.22748418
56	0xbf4454d9	-0.7669197
57	0xbf03bcdc	-0.5146005
58	0x3d5263ec	0.051364824
59	0x3e9be81a	0.30450517
60	0x3e84ca72	0.25935704
61	0x3d9394a7	0.072060876
62	0x3f1c9264	0.61160874
63	0x3eab0769	0.3340409
64	0xbf08d2a2	-0.534464
65	0xbe9032e5	-0.2816383
66	0x3f25017c	0.6445539
67	0x3ecfbbc6	0.40572947
68	0xbf0f8fa5	-0.5607856
69	0xbe9144b8	-0.2837274
70	0x3f1f0ede	0.6213206
71	0x3d712aee	0.05887883
72	0x3cd5541b	0.026041081
73	0xbe5fd3ce	-0.21858141
74	0xbe98d392	-0.29848915
75	0xbf0d871b	-0.5528428
76	0x3daf41c1	0.085574634
77	0xbd831112	-0.0639974
78	0xbf0379d4	-0.5135777
79	0xbf0a8777	-0.5411295
80	0xbf0ff9c6	-0.562405
81	0x3e1948bd	0.14969154
82	0x3cc44f9b	0.02396374
83	0x3ee0cf78	0.43908286
84	0xbe8bb23c	-0.2728442
85	0xbef20790	-0.47271395
86	0x3f183b86	0.59465826
87	0x3e9f6994	0.31135237
88	0x3ef6ed93	0.4822813
89	0x3e7986a6	0.2436777
90	0xbdc5ce1d	-0.096584536
91	0xbea68662	-0.325244
92	0xbf00f3a6	-0.5037178
93	0xbf1b0988	-0.6056142
94	0x3b77b2e9	0.0037795848
95	0xbea0fe7b	-0.31444153
96	0x3f16bf80	0.58885956
97	0x3e42f2f4	0.19037992
98	0x3e0c2aee	0.13688251
99	0xbca7d513	-0.020487344
100	0x3c0f33eb	0.008740406
101	0xbe65cc6a	-0.22441259
102	0x3c3d1bc6	0.011542266
103	0xbda1f5d1	-0.07908214
104	0x3f0d9d81	0.55318457
105	0x3ed96f98	0.42467952
106	0x3eadff77	0.33983967
107	0xbed3fcb3	-0.41403732
108	0x3e86bc4b	0.2631553
109	0xbdebdaf8	-0.11516374
110	0xbe257d00	-0.16160965
111	0x3ed20cd4	0.41025412
112	0x3e7aaae9	0.2447926
113	0x3e6cd3bc	0.23127645
114	0x3e923bfa	0.28561383
115	0x3e534398	0.20631254
116	0xbd89daa8	-0.067311585
117	0xbe7e7af5	-0.24851592
118	0x3dc9ba58	0.098499954
119	0x3ec7bb75	0.39010206
120	0xbd94ae3b	-0.07259794
121	0x3e81d826	0.2536022
122	0xbf1aa0d8	-0.6040168
123	0x3a74076c	0.0009308967
124	0xbee6a8c0	-0.4505062
125	0xbeedaf88	-0.46422982
126	0xbec34a6f	-0.38142726
127	0xbe7a6dfe	-0.24456021
128	0x3ebdb4d4	0.37052023
129	0x3ecd91ab	0.40150198
130	0xbf042dc4	-0.5163233
131	0xbdf8cf47	-0.1214891
132	0x3efab4c0	0.48966026
133	0x3f152dd0	0.5827303
134	0xbee2f6d9	-0.44328955
135	0xbf03f915	-0.51551944
136	0xbef23856	-0.47308606
137	0xbf14071e	-0.5782336
138	0xbee38092	-0.4443403
139	0xbf0ba594	-0.5454953
140	0xbe14f7da	-0.14547673
141	0xbddc9a1b	-0.10771581
142	0xbed2a7df	-0.411437
143	0x3d30d532	0.04317207
144	0xbdfc4cc7	-0.123193316
145	0xbeb23f89	-0.34814098
146	0xbed82dfd	-0.42222586
147	0xbdbf6e85	-0.09347252
148	0x3ea66541	0.32499126
149	0x3f10c806	0.5655521
150	0xbed146ba	-0.40874273
151	0xbebe10ec	-0.37122285
152	0xbf45931b	-0.7717759
153	0xbf23abc3	-0.6393396
154	0xbe86f308	-0.26357293
155	0x3eb96733	0.36211547
156	0x3e9dba84	0.30806363
157	0x3f2f5836	0.68493974
158	0x3ea0d56d	0.3141283
159	0xbe0b79c7	-0.13620673
160	0x3f280dc8	0.6564603
161	0xbd372830	-0.04471606
162	0x3e048936	0.12942967
163	0x3e7e3e51	0.2482846
164	0x3dfc0653	0.12305894
165	0x3ed343e0	0.41262722
166	0x3e925c6c	0.28586137
167	0x3cdb4a10	0.026768714
168	0x3f1895b3	0.5960342
169	0x3ea7e2e4	0.3279029
170	0x3e9e30fb	0.30896744
171	0x3ded2757	0.11579769
172	0x3ed347e2	0.4126578
173	0xbcc04475	-0.023470143
174	0xbd359492	-0.04433114
175	0x3ee91ceb	0.45529875
176	0x3f038cba	0.51386607
177	0x3be92e1e	0.0071160933
178	0x3d2adf95	0.04171713
179	0x3efa8714	0.4893118
180	0x3d8e59f0	0.06950748
181	0x3dcce10e	0.10003863
182	0x3ef5a2d0	0.4797578
183	0xbc6858e6	-0.014181351
184	0x3e753f93	0.23950033
185	0x3f049b54	0.5179951
186	0x3ed26165	0.4108993
187	0xbebcbe3f	-0.36863896
188	0x3f0f6c54	0.5602467
189	0x3e716547	0.2357379
190	0xbe608c2a	-0.21928468
191	0xbe229a8a	-0.15879264
192	0x3eedfa87	0.464802
193	0x3da61ddc	0.08111164
194	0x3e7cb4ee	0.24678394
195	0x3c0f21f2	0.008736121
196	0x3f0f6b22	0.56022847
197	0x3e928cbb	0.28622994
198	0x3e7de61c	0.24794811
199	0x3f12d36d	0.5735386
200	0x3ea46811	0.32110646
201	0x3efd4856	0.4946925
202	0x3eb562a6	0.35426825
203	0x3e1ccd82	0.1531277
204	0x3eec4593	0.4614683
205	0x3e47075c	0.19436401
206	0xbe1dd438	-0.15412986
207	0x3ec75f0c	0.38939703
208	0xbf347719	-0.7049423
209	0xbea29f8c	-0.3176235
210	0xbe89d8d6	-0.26923245
211	0x3ef06b32	0.46956784
212	0x3f05535c	0.5208032
213	0x3f0e6d25	0.5563529
214	0x3efb5a7d	0.49092475
215	0x3d6f3f96	0.05841025
216	0xbf4b2a76	-0.79361665
217	0xbea5c226	-0.32374686
218	0xbd96e804	-0.07368472
219	0xbdac99ec	-0.08427796
220	0xbeadc817	-0.3394172
221	0xbf23e564	-0.640219
222	0xbeecc4e0	-0.46243954
223	0xbeb69d73	-0.35667
224	0x3de6752e	0.11252819
225	0x3e842db4	0.2581612
226	0xbee4d3f5	-0.4469296
227	0xbf0ccc29	-0.54999024
228	0xbe3f45b7	-0.18678938
229	0x3edf9797	0.4367034
230	0xbe4d50d3	-0.20050363
231	0xbe8c6947	-0.2742407
232	0xbf42ed08	-0.7614293
233	0xbf03f2ad	-0.5154217
234	0x3ee0daf0	0.43917036
235	0x3e8012e1	0.25014403
236	0xbed7aef3	-0.42125663
237	0xbe97db74	-0.29659617
238	0x3f28b730	0.6590452
239	0x3ed66465	0.4187347
240	0xbf13f886	-0.5780109
241	0xbf0066af	-0.5015668
242	0x3b90d31d	0.004419698
243	0xbeb981a6	-0.36231726
244	0xbea858c3	-0.3288022
245	0xbe1e1a7d	-0.15439792
246	0xbf1dcd43	-0.6164133
247	0xbea4329a	-0.32069856
248	0x3f15e32a	0.5854975
249	0x3edef891	0.43549016
250	0xbe80b923	-0.25141248
251	0xbd7673ea	-0.060169138
252	0x3f0e8456	0.5567068
253	0x3dda583d	0.10661361
254	0xbf01abed	-0.5065296
255	0x3e249a36	0.16074452

bias f4 [100]
0	0xbda9cf3c	-0.0829148
1	0xbda25522	-0.07926394
2	0xbeee6208	-0.46559167
3	0xbeea473b	-0.4575747
4	0xbf462148	-0.77394533
5	0x3ef6c9f6	0.4820096
6	0x3e605fc5	0.21911533
7	0xbe98521e	-0.2975015
8	0xbeec04d1	-0.46097425
9	0xbe5e0c71	-0.21684434
10	0xbee7499e	-0.45173353
11	0xbd365e14	-0.044523314
12	0xbf5a36f7	-0.8524012
13	0xbf21507d	-0.6301344
14	0xbeb3cfef	-0.35119578
15	0x3e91bce9	0.2846444
16	0x3f04b8bd	0.5184439
17	0x3e17b855	0.14816411
18	0x3e3a3bd8	0.18186891
19	0xbed6cf5e	-0.41955084
20	0xbd66434e	-0.05621653
21	0xbe792b29	-0.2433287
22	0xbdfbfad9	-0.12303705
23	0xbe22a1af	-0.1588199
24	0x3e53678f	0.20644973
25	0xbedd25c9	-0.4319289
26	0xbe55f0a9	-0.20892586
27	0xbf0c6a1f	-0.5484943
28	0xbed1732e	-0.40908188
29	0x3d54010c	0.05175881
30	0x3e3f6896	0.1869224
31	0x3e173a4c	0.14768332
32	0xbecca4db	-0.39969525
33	0xbf2fe9fa	-0.68716395
34	0x3e989161	0.29798415
35	0x3d153f59	0.036437366
36	0xbe034c8d	-0.1282217
37	0x3db8c6a1	0.090222605
38	0x3e8fe1f9	0.2810209
39	0xbf03c815	-0.51477176
40	0x3e22172f	0.15829156
41	0xbeb0bbee	-0.3451838
42	0xbdfe4684	-0.124157935
43	0x3ec4b72f	0.38421008
44	0xbe375432	-0.17903212
45	0xbef2f1d0	-0.47450113
46	0xbea82ba5	-0.32845798
47	0x3cfe7d68	0.031065658
48	0x3e824b9b	0.25448307
49	0x3ef1127b	0.47084412
50	0x3e42f6ce	0.19039461
51	0x3ee00e1c	0.43760765
52	0xbf0fcce0	-0.5617199
53	0xbed53924	-0.41645157
54	0xbeb68664	-0.35649407
55	0xbeb657f8	-0.3561399
56	0xbe0d496e	-0.13797542
57	0x3ecbdaed	0.39815465
58	0xbc8ea344	-0.017411835
59	0xbf17d3c6	-0.59307516
60	0x3ec060ca	0.37573844
61	0xbefe1e7d	-0.49632636
62	0x3ea650dd	0.3248357
63	0xbe486553	-0.19569902
64	0xbc188084	-0.009307984
65	0xbe83b975	-0.2572743
66	0xbd0488cc	-0.032357022
67	0x3de33dcb	0.110957704
68	0xbef783b3	-0.48342666
69	0xbf12bb75	-0.57317287
70	0x3e810684	0.25200284
71	0xbf1e4424	-0.61822724
72	0xbea75745	-0.3268377
73	0x3db51efc	0.088438004
74	0xbebb3894	-0.36566603
75	0xbec4ad8d	-0.3841366
76	0xbef618a4	-0.48065674
77	0x3e02344a	0.12715259
78	0x3e0a3f53	0.13500719
79	0xbdacfcc1	-0.084466465
80	0xbf2a4489	-0.66510826
81	0x3d7e5160	0.062089324
82	0xbe054cd5	-0.1301759
83	0x3f071be6	0.52776945
84	0x3f5adc43	0.8549234
85	0xbf129491	-0.57257944
86	0x3eaf3c7b	0.3422583
87	0x3e484362	0.19556955
88	0xbe3f084e	-0.18655512
89	0x3ea36fd8	0.31921268
90	0xbd6f66de	-0.05844771
91	0x3e9f5920	0.31122684
92	0xbe2b7738	-0.16744697
93	0xbe361d3a	-0.17784587
94	0x3eae694a	0.34064704
95	0xbed69f69	-0.41918495
96	0x3efe963c	0.49723995
97	0xbe9372e3	-0.2879859
98	0xbf0be1f3	-0.54641646
99	0xbefe9df2	-0.49729878

weight f4 [100, 100]
0	0x3dc7c38d	0.09754095
1	0x3e85b4a7	0.2611439
2	0x3e36d091	0.17853
3	0x3e663448	0.22480881
4	0x3ddbe7b1	0.10737551
5	0x3ea58978	0.32331443
6	0x3e96feab	0.2949117
7	0x3e0aa3a2	0.13538983
8	0xbe74715b	-0.23871367
9	0x3e2c04e5	0.16798742
10	0xbc179bc3	-0.009253445
11	0x3de8d961	0.11369587
12	0x3ea59d95	0.32346788
13	0x3e8f5c84	0.2800027
14	0x3e0ee281	0.13953592
15	0xbe835bc6	-0.25655955
16	0x3e3f4a01	0.18680574
17	0x3ddf1e37	0.10894435
18	0x3ebee4ed	0.37284032
19	0x3ec44df7	0.38340732
20	0x3e707dbc	0.23485464
21	0x3e5cc436	0.21559224
22	0x3e822868	0.25421453
23	0x3ea5563a	0.32292348
24	0x3e554689	0.20827688
25	0x3eac0a17	0.33601448
26	0x3edf522e	0.43617386
27	0xbdebf67d	-0.11521623
28	0x3eae2f44	0.34020436
29	0xbd0634f7	-0.032765355
30	0x3d0a5dc2	0.03378082
31	0x3e24fcc9	0.16112055
32	0x3e3eef58	0.1864599
33	0x3e9195e2	0.28434664
34	0x3e589418	0.21150243
35	0x3e8b2e1e	0.27183622
36	0x3e9fff3a	0.3124941
37	0x3e1b4d7f	0.15166281
38	0x3e8e05e3	0.27738866
39	0x3eaf18cc	0.34198606
40	0x3ecc2005	0.3986818
41	0x3ea89fde	0.3293447
42	0x3e55aa99	0.20865859
43	0x3ecb7411	0.3973699
44	0x3e8498bb	0.25897774
45	0xbdf0d1c4	-0.117587596
46	0x3d49e695	0.049292166
47	0x3e1d6ab4	0.15372735
48	0x3e95efb3	0.29284438
49	0x3e9bdafd	0.30440512
50	0x3e84ea44	0.2595998
51	0x3d90e9e0	0.07075858
52	0x3e919c75	0.2843968
53	0x3de3b1ec	0.1111792
54	0xbe6838bc	-0.22677892
55	0x3e802aaf	0.25032565
56	0x3e68daff	0.2273979
57	0x3e36e8ed	0.17862292
58	0x3ec0cc83	0.3765603
59	0x3e2729d1	0.16324545
60	0x3e760eac	0.24029034
61	0xbeb37bd7	-0.3505542
62	0x3e82bc4c	0.25534284
63	0x3e78fe7b	0.24315827
64	0x3e0b897f	0.1362667
65	0x3e6602a5	0.22461946
66	0x3eb43fcb	0.3520492
67	0x3d74b067	0.059738543
68	0xbe1c6ae4	-0.1527515
69	0x3e111e91	0.14171816
70	0x3e09134e	0.1338627
71	0x3e35ca35	0.17752917
72	0x3ea9f749	0.33196476
73	0x3e07a626	0.13246974
74	0x3e6c4401	0.23072816
75	0x3ea14313	0.31496486
76	0x3e6b315b	0.22968046
77	0x3eca6b19	0.39534834
78	0x3e68b7df	0.22726391
79	0x3e971818	0.2951057
80	0x3e186ef0	0.1488607
81	0xbd155752	-0.03646023
82	0x3e9551d9	0.29164007
83	0x3e4025d2	0.18764427
84	0x3e994436	0.29934853
85	0x3ecb0ab6	0.3965661
86	0x3e0f8abd	0.14017768
87	0x3e21b965	0.15793379
88	0x3e1ac104	0.15112692
89	0x3dd3a922	0.10334994
90	0x3ead288b	0.33819994
91	0x3e95593f	0.29169652
92	0x3e88a620	0.26689243
93	0x3eb72623	0.35771284
94	0x3e3b470b	0.1828882
95	0xbd787de0	-0.06066692
96	0x3e1d0825	0.15335138
97	0x3ebb4a13	0.36579952
98	0x3eacaf51	0.33727506
99	0x3e05874b	0.13039891
100	0x3d8e0eff	0.06936454
101	0x3eac0caf	0.33603427
102	0x3eba268f	0.36357543
103	0x3e966ed4	0.2938143
104	0x3eebfad7	0.46089813
105	0x3eefd87c	0.46844852
106	0x3eb72951	0.3577371
107	0x3e8fbbda	0.28073007
108	0x3cfc9280	0.030831575
109	0x3e59abba	0.21256915
110	0x3d8db71d	0.06919692
111	0xbe9806e5	-0.2969276
112	0xbf31f19e	-0.69509304
113	0xbd2580bd	-0.040405978
114	0xbda0bd9e	-0.078486666
115	0xbcd98da5	-0.0265568
116	0x3e4ce65b	0.20009749
117	0x3ea64461	0.32474044
118	0x3e886610	0.26640368
119	0x3eb7f565	0.3592941
120	0x3e911338	0.28334975
121	0x3d5a38f3	0.053276967
122	0xbda21b70	-0.079153895
123	0x3ea191a4	0.31556427
124	0x3ec9e292	0.39430672
125	0x3e904ac5	0.28182045
126	0x3e4dd0b7	0.2009915
127	0x3e7be473	0.24598865
128	0x3e77e948	0.24210083
129	0x3e18b2a2	0.14911893
130	0x3e062b91	0.13102557
131	0x3e60402f	0.21899484
132	0xbe859664	-0.260913
133	0xbe8fd2d4	-0.28090537
134	0x3e6d8231	0.23194195
135	0x3ebec770	0.37261534
136	0x3e96cbaa	0.29452258
137	0x3dd43d56	0.103632614
138	0x3e773f73	0.24145298
139	0x3e0d1218	0.13776433
140	0x3e9bce1f	0.30430695
141	0x3ead761e	0.3387918
142	0xbd19a3fa	-0.037509896
143	0x3eacc4c2	0.33743864
144	0x3e6a4799	0.22878875
145	0x3ea71c21	0.32638648
146	0xbea21d87	-0.31663153
147	0x3e8e9fe8	0.27856374
148	0x3e9b3390	0.30312777
149	0x3e7f86a7	0.2495371
150	0x3e58897a	0.21146193
151	0xbe8b7c2e	-0.2724318
152	0xbea6291d	-0.32453242
153	0x3eaa1d8f	0.33225676
154	0x3e5f5ada	0.21812001
155	0x3ebf34bc	0.3734492
156	0x3eae9fc5	0.3410627
157	0x3e10f7d4	0.14157039
158	0x3ea9a547	0.3313391
159	0x3e15dc54	0.1463483
160	0x3e0fb4aa	0.14033762
161	0xbb8ed3ac	-0.0043587293
162	0x3e1d22af	0.15345262
163	0x3e2c9ff7	0.16857897
164	0xbe8cf671	-0.2753177
165	0xbe19fe69	-0.15038456
166	0x3eb9eb5c	0.36312377
167	0xbe02cdb3	-0.1277378
168	0xbf0df091	-0.554452
169	0xbef0f0b6	-0.47058648
170	0x3ecd8272	0.40138584
171	0xbdf13c36	-0.117790624
172	0x3ea955e6	0.33073348
173	0x3deb5338	0.11490482
174	0x3db39bf7	0.08769982
175	0x3e9000f8	0.2812574
176	0xbcbc9b9b	-0.023023417
177	0x3ea90353	0.3301035
178	0x3e707763	0.23483042
179	0x3e90da5e	0.282916
180	0xbd93e716	-0.072218105
181	0x3e764528	0.24049819
182	0x3e7d4a35	0.24735339
183	0x3e0b1b72	0.13584688
184	0x3ea45835	0.32098547
185	0x3ea790af	0.32727572
186	0xbe95c656	-0.2925288
187	0x3e95a3a5	0.29226413
188	0x3e855d9f	0.2604799
189	0x3dda9dff	0.106746666
190	0x3ea0a375	0.31374708
191	0x3e5024f6	0.203266
192	0xbdcb4026	-0.09924345
193	0x3e899e45	0.26878563
194	0x3ecae58a	0.3962825
195	0x3d82775c	0.06370422
196	0x3e9000dc	0.28125656
197	0x3e956901	0.29181674
198	0xba2340f0	-0.0006227633
199	0x3e5d787b	0.21627991
200	0x3da3480c	0.07972726
201	0x3e770002	0.24121097
202	0x3e5220df	0.20520352
203	0x3e9c2b94	0.30501997
204	0x3ef01e9f	0.46898362
205	0x3ee8542d	0.4537672
206	0x3eab5c07	0.3346865
207	0x3e3fd525	0.18733652
208	0x3da5b52f	0.08091199
209	0x3eaf9827	0.3429577
210	0xbe658135	-0.2241257
211	0xbe03e9be	-0.12882134
212	0xbf3e6f7c	-0.7438886
213	0xbd9f7d49	-0.07787568
214	0xbd6b85af	-0.057500537
215	0xbe0b3979	-0.13596143
216	0x3e6a6cf8	0.22893131
217	0x3e196b41	0.1498232
218	0x3eab1eda	0.33421975
219	0x3ec16aa5	0.37776676
220	0x3e7fd268	0.24982607
221	0x3cf1816e	0.029480662
222	0xbe07e00e	-0.13269064
223	0x3ebbec2d	0.36703625
224	0x3ec23219	0.37928846
225	0x3ebcd923	0.36884412
226	0x3e8faf9d	0.2806367
227	0x3eb5571c	0.35418022
228	0x3e53132b	0.20612781
229	0x3dd30097	0.10302847
230	0x3e80c48d	0.25149956
231	0x3e05ffff	0.13085936
232	0xbe1b28a0	-0.15152216
233	0xbe46af23	-0.19402747
234	0x3e500e7d	0.20318027
235	0x3ee5599c	0.4479493
236	0x3e4e9df6	0.20177445
237	0x3d53679e	0.05161249
238	0x3e56894a	0.20950809
239	0x3ea3dfcd	0.32006684
240	0x3e6353f4	0.22199994
241	0x3ecec7f5	0.4038693
242	0xbd1af280	-0.037828922
243	0x3e927b28	0.28609586
244	0x3e756027	0.2396246
245	0x3d0c134a	0.034198083
246	0xbee267ac	-0.4421972
247	0x3eadc264	0.3393737
248	0x3e948ae2	0.2901221
249	0x3d863bf6	0.065544054
250	0x3e88ee9d	0.26744547
251	0xbe643e8b	-0.22289483
252	0xbe997572	-0.29972416
253	0x3ea48d72	0.32139164
254	0x3e2dd027	0.16973935
255	0x3e5cae68	0.21550906

bias f4 [100]
0	0x3df8031f	0.1210997
1	0x3d3a1cb7	0.04543754
2	0x3d6d8600	0.05798912
3	0x3e635ce0	0.22203398
4	0x3dd53e37	0.10412257
5	0x3e91cf65	0.28478542
6	0x3e9677a5	0.29388157
7	0x3e3b70f8	0.18304813
8	0x3d96edc1	0.07369567
9	0x3e99f5e2	0.30070406
10	0x3e169a75	0.14707358
11	0x3dcf3e1a	0.10119267
12	0x3dbd0060	0.09228587
13	0xbc64ca40	-0.013964236
14	0x3d42d519	0.047566507
15	0x3e82a931	0.25519708
16	0x3ea76c2c	0.32699716
17	0x3ddead90	0.10872948
18	0xbde51828	-0.11186248
19	0xbd09a09f	-0.033600446
20	0x3dab8e93	0.08376803
21	0x3df53ed0	0.11974871
22	0x3e0e3740	0.13888264
23	0x3e3ba17b	0.18323319
24	0xbe815a69	-0.2526429
25	0xbea04b46	-0.3130743
26	0x3d9ca5d9	0.076488204
27	0x3e0f35a8	0.13985312
28	0x3e413e3f	0.18871401
29	0x3e7d6298	0.24744642
30	0xbe92ab2c	-0.2864622
31	0x3de82caa	0.11336644
32	0x3e116bcc	0.14201277
33	0xbdc0160d	-0.09379206
34	0x3d8d8dc1	0.06911803
35	0x3e486ed5	0.19573529
36	0xbd015b34	-0.03158112
37	0x3eb7adf3	0.358749
38	0xbebb72dd	-0.3661107
39	0x3d1217d5	0.03566726
40	0x3e0b341b	0.13594095
41	0x3e6bcb0b	0.23026673
42	0xbe6c75dd	-0.23091836
43	0x3d20e7e8	0.039283663
44	0xbcac05c3	-0.020998841
45	0x3d128198	0.03576812
46	0xbe306cc7	-0.17228995
47	0x3e9b85aa	0.30375415
48	0xbddda2fb	-0.10822102
49	0x3e8df163	0.27723226
50	0x3eaad805	0.33367935
51	0x3d5baecf	0.053633507
52	0x3db39438	0.08768505
53	0x3e340dd3	0.17583399
54	0x3dfe8a8c	0.124287695
55	0x3decac2d	0.115562774
56	0xbe73d5e4	-0.23812062
57	0x3e63eab8	0.22257507
58	0x3e75d9a2	0.24008802
59	0x3eae881c	0.34088218
60	0xbd9ac703	-0.0755749
61	0x3e32214b	0.17395513
62	0xbeaa6d02	-0.3328629
63	0x3e720ed3	0.23638467
64	0x3e3b2aae	0.18278
65	0x3eab42b5	0.3344933
66	0x3e0f37ff	0.13986205
67	0x3e80aeb2	0.25133282
68	0x3e783923	0.24240546
69	0xbe9f9feb	-0.31176695
70	0xbe8aeb62	-0.27132708
71	0xbe784be0	-0.24247694
72	0xbe7b831b	-0.24561732
73	0x3e7820a2	0.24231198
74	0xbe851a6a	-0.25996715
75	0x3e1905af	0.14943574
76	0xbed016cc	-0.40642393
77	0x3d85ff11	0.06542791
78	0xbe4c74f9	-0.19966497
79	0x3e8f9119	0.28040388
80	0x3e654984	0.22391325
81	0xbe15bed5	-0.14623578
82	0x3eb5d268	0.3551209
83	0x3e1dfa78	0.15427577
84	0x3e728c4a	0.23686329
85	0x3e7981eb	0.24365966
86	0x3d06be14	0.032896116
87	0x3e7d256a	0.24721304
88	0x3cbfa4b1	0.02339396
89	0x3d4fe2db	0.050753456
90	0x3e0b944d	0.13630791
91	0x3dad4897	0.08461111
92	0x3dea00cf	0.114259355
93	0x3d84f6ed	0.0649241
94	0x3e37d531	0.1795242
95	0xbe6b59ae	-0.22983429
96	0x3e52d361	0.20588447
97	0x3e1c14cb	0.15242307
98	0x3eb27488	0.3485453
99	0x3e3ce6c2	0.18447402

weight f4 [100, 100]
0	0x3d8e074c	0.069349855
1	0x3d8c8194	0.068606526
2	0x3b5f3052	0.00340559
3	0xbd432d9e	-0.047650926
4	0xbd2ac8f6	-0.041695558
5	0xbdc27f3f	-0.094969265
6	0xbd10305e	-0.035202377
7	0x3aa8f033	0.0012888968
8	0x3a453c45	0.00075239345
9	0x3d15df09	0.036589656
10	0x3dac945b	0.08426734
11	0xbda1d699	-0.079022594
12	0xbda02b14	-0.078207165
13	0xa28e77dc	-3.8616083e-18
14	0xbdce3083	-0.100678466
15	0x3c59e657	0.013299546
16	0xbd7cd310	-0.061724722
17	0xbc8fe2a7	-0.017564131
18	0xbddd1ca8	-0.10796481
19	0xbd715400	-0.058918
20	0xbc0628f4	-0.008188475
21	0xbd38116f	-0.0449385
22	0x3c8ea597	0.017412944
23	0xbddd1e21	-0.10796762
24	0x3b2abf30	0.0026053898
25	0xbd95de56	-0.07317798
26	0xbddb07c0	-0.106948376
27	0xbdbf8157	-0.093508415
28	0xbc48ea50	-0.012262896
29	0xbd00f5db	-0.031484466
30	0xb50db5e8	-5.27913e-07
31	0xbb1d3c68	-0.0023992304
32	0xbd9badab	-0.07601484
33	0xbd212e50	-0.039350808
34	0x3cff3cc3	0.031156903
35	0x3cd3bc37	0.025846584
36	0xa6da3e9b	-1.5143758e-15
37	0xbd97d1cd	-0.07413063
38	0x3dade265	0.08490447
39	0x3d6b07b0	0.05738038
40	0x3d4b0c9d	0.049572576
41	0x3dad1fde	0.08453344
42	0xbd311445	-0.04323222
43	0x3ca57f7a	0.020202387
44	0x3c7cec19	0.015437149
45	0xbd8df9ad	-0.069323875
46	0xba4ee229	-0.0007891977
47	0xbd5d9532	-0.054097362
48	0xbd02433c	-0.0318024
49	0x3da5e99a	0.081011966
50	0xbd92c0d7	-0.071656875
51	0x3da04457	0.07825535
52	0x3bcc8da9	0.006242473
53	0x3d9b4afa	0.0758266
54	0x3d93ba81	0.07213307
55	0x3d480ce7	0.04884043
56	0x3cbed3f0	0.023294419
57	0xbc2f4e6e	-0.010699851
58	0x3d86bc51	0.06578887
59	0xbdaa2067	-0.083069615
60	0x3cf775b4	0.030207492
61	0xbd5e3d91	-0.054257933
62	0x3c45df5b	0.012077178
63	0xbd2e5b38	-0.04256746
64	0xbdca807c	-0.09887788
65	0xbd442359	-0.047885273
66	0xbc2f3367	-0.010693408
67	0x3b4e42cf	0.0031472926
68	0xbd81d340	-0.06339121
69	0xaaf0fd8f	-4.2808506e-13
70	0xbd2119de	-0.03933131
71	0x3d25316b	0.04033033
72	0xbd168aae	-0.03675335
73	0xbdb7e7e2	-0.08979775
74	0xa3702559	-1.3018335e-17
75	0x3b8d12a2	0.0043051997
76	0xbc35d963	-0.011099192
77	0x3d54046e	0.051762037
78	0x3c88f490	0.016718179
79	0xbca6c7b8	-0.020358905
80	0xbcf7edf0	-0.030264825
81	0xbd80936d	-0.06278119
82	0xad5ef5a7	-1.2673785e-11
83	0xbdc17902	-0.094469085
84	0xbcbb1679	-0.022837864
85	0xbd066947	-0.032815244
86	0xbc57e83c	-0.013177928
87	0x3d7d9cf9	0.06191728
88	0x3db258c9	0.08708341
89	0x3d982b57	0.074301414
90	0xbd6fb978	-0.058526486
91	0xbc3f84a4	-0.011689339
92	0xbdcfee17	-0.10152834
93	0xbbd00281	-0.0063479547
94	0xbd83d33c	-0.06436774
95	0x3da750e2	0.08169724
96	0x3d33d86f	0.04390758
97	0x3d035438	0.03206274
98	0xbdd4d6cc	-0.10392532
99	0x3d37fe94	0.04492052
100	0x3d304e4c	0.04304342
101	0xbea330b3	-0.31873092
102	0xbe424cb0	-0.18974566
103	0xbee3123b	-0.44349846
104	0x3cf8a7c6	0.030353438
105	0x3e4eb8e9	0.20187725
106	0xbe0488dc	-0.12942833
107	0x3e56ffcd	0.20996018
108	0xbe0979d2	-0.13425377
109	0x3e27286a	0.1632401
110	0x3de03c40	0.10948992
111	0x3e8e8231	0.27833703
112	0x3e327b05	0.1742974
113	0xa61aff69	-5.377563e-16
114	0xbe641df7	-0.22277056
115	0x3e257979	0.1615962
116	0xbe295315	-0.165356
117	0x3e4dda10	0.20102715
118	0xbe972797	-0.29522392
119	0xbe156f63	-0.14593272
120	0xbe46f066	-0.19427642
121	0xbe679386	-0.2261487
122	0x3b43d98f	0.0029884314
123	0xbcf565b5	-0.029955724
124	0x3e95f448	0.29287934
125	0x3ea4d4ea	0.3219369
126	0xbce91790	-0.028453618
127	0x3ea9e71a	0.3318413
128	0xbebff93b	-0.37494835
129	0xbe6b78cd	-0.229953
130	0xbd9116b6	-0.0708441
131	0x3e150625	0.14553125
132	0x3e4c9b30	0.19981074
133	0x3ebe81c7	0.37208387
134	0x3e44e114	0.19226485
135	0xbddfa00d	-0.10919199
136	0x3eb431e9	0.35194328
137	0x3eb8f432	0.36123806
138	0x3e1a09ae	0.15042755
139	0xbec70a33	-0.3887497
140	0xbe94b6a3	-0.2904559
141	0xbe51405b	-0.20434706
142	0xbe198708	-0.14992917
143	0xbe9d8895	-0.30768266
144	0x3e8ec8a2	0.27887446
145	0x3e702de5	0.23455007
146	0x3e4ecbb3	0.20194893
147	0xbaa5d4d3	-0.0012651928
148	0x3e741c66	0.23838958
149	0x3ea982c6	0.33107585
150	0x3ea1c338	0.31594253
151	0xbe963869	-0.29339913
152	0x3dbf0ce4	0.093286306
153	0x3d444951	0.047921482
154	0x3dbadd00	0.09124184
155	0xbe92dd09	-0.2868426
156	0x3e981ca5	0.29709354
157	0x3e303742	0.17208579
158	0x3eac3077	0.33630726
159	0xbcfc7a73	-0.030820107
160	0xbd64849b	-0.055790525
161	0x3ebeae73	0.3724247
162	0x3eb74a58	0.35798907
163	0x3e320a60	0.1738677
164	0xbcb17b5d	-0.02166527
165	0x3d16530e	0.0367003
166	0x3e046ba8	0.12931693
167	0xbe02ff18	-0.12792623
168	0x3e1c2c9c	0.15251392
169	0x3ea83596	0.32853383
170	0x3e9d7466	0.30752867
171	0x3e93b276	0.28847092
172	0x3ea82fcc	0.32848966
173	0x3de55d28	0.11199409
174	0x3eaee08e	0.34155697
175	0x3e11e6d5	0.14248212
176	0x3eb1ce20	0.34727573
177	0x3e6266ff	0.22109602
178	0x3ed09042	0.4073506
179	0x3e8fd40d	0.2809147
180	0xbd847b68	-0.064688504
181	0x3eb3d70c	0.35125005
182	0x3cbfae98	0.023398682
183	0xbe5186bd	-0.20461555
184	0x3ec1de62	0.37864977
185	0x3e8f2eaf	0.27965304
186	0xbe440a98	-0.19144666
187	0x3e2942ca	0.16529384
188	0xbde26a6d	-0.11055455
189	0x3e12e586	0.14345369
190	0xbe2ad7ff	-0.16683958
191	0x3e4e3466	0.20137176
192	0xbe708322	-0.23487523
193	0xbd918924	-0.071062356
194	0xbe181fa9	-0.14855827
195	0x3e733712	0.23751476
196	0xbe3b4ee4	-0.18291813
197	0xbec35bc5	-0.38155952
198	0x3e769074	0.24078542
199	0xbe545885	-0.20736893
200	0x3e928fcf	0.28625342
201	0x3e46564f	0.19368862
202	0x3dcc6ecd	0.09982071
203	0x3de22052	0.11041321
204	0x3e1f555c	0.15559906
205	0xbdeb822c	-0.11499438
206	0x3b653c1f	0.0034978462
207	0x3e94794d	0.28998795
208	0x3deb36dc	0.11485073
209	0x3e8ecde7	0.27891466
210	0x3ea32cde	0.31870168
211	0xbd5bc0b0	-0.053650558
212	0x3e0a6bcd	0.13517685
213	0xa52ce87c	-1.4997391e-16
214	0xbe15a187	-0.14612399
215	0x3e87f2f5	0.2655255
216	0x3e336f1a	0.1752285
217	0x3e3adfd9	0.18249454
218	0xbe5d7d7f	-0.21629904
219	0x3de4ab82	0.11165525
220	0xbdece2ec	-0.115667194
221	0xbe883c1a	-0.26608354
222	0xbe32daa9	-0.17466225
223	0x3e9fe545	0.31229606
224	0x3e9eb66b	0.3099855
225	0x3e7ffd66	0.24999008
226	0x3cb18909	0.021671789
227	0x3e2d6f89	0.16937079
228	0x3ae893f9	0.0017744295
229	0x3e32a06e	0.17444012
230	0xbe63bf36	-0.2224091
231	0x3e37850e	0.1792185
232	0x3e2a769a	0.16646805
233	0x3e4ede6f	0.20202039
234	0xbbdb7b1e	-0.0066980263
235	0xbd498bc3	-0.049205553
236	0x3e3d22b1	0.18470265
237	0x3e489740	0.19588947
238	0x3e64e599	0.2235321
239	0xbe4bb1ce	-0.19892046
240	0x3e0697de	0.1314387
241	0xbd96db56	-0.07366054
242	0xbed17364	-0.4090835
243	0xbe88749d	-0.2665147
244	0x3e9f8a9a	0.31160432
245	0x3e61f6d9	0.22066821
246	0x3e8d000b	0.27539095
247	0x3e9fda48	0.31221223
248	0x3c756c75	0.014979471
249	0x3e9d68b5	0.30743948
250	0x3e430a26	0.1904684
251	0xbe7a340d	-0.24433918
252	0x3e699bee	0.22813389
253	0x3e86da0d	0.26338235
254	0x3e20dbc7	0.15708838
255	0x3e446ca9	0.19182076

bias f4 [100]
0	0x3cbc6071	0.022995206
1	0xbe5947a5	-0.21218736
2	0x3dfb9f1f	0.12286209
3	0x3d568140	0.052369356
4	0x3c62ba14	0.01383831
5	0x3dff2741	0.12458659
6	0x3cdd6040	0.027023435
7	0x3dcf951f	0.101358645
8	0xbd9e0ca8	-0.07717258
9	0x3e940cf9	0.28916147
10	0x3e05c77a	0.13064376
11	0x3d0b09c8	0.033944875
12	0x3d61cd03	0.055127155
13	0xbc18eb57	-0.009333453
14	0x3e1c4709	0.15261473
15	0x3e25df7a	0.16198531
16	0x3eb23a7a	0.3481024
17	0x3c395b67	0.011313296
18	0x3e658839	0.22415246
19	0x3e1da1a6	0.15393695
20	0x3e10c96b	0.14139335
21	0x3eaa158d	0.33219567
22	0x3d26a83b	0.04068778
23	0xbc49f07c	-0.012325402
24	0xbe19ae11	-0.15007807
25	0x3e198b8e	0.14994642
26	0x3d250622	0.04028905
27	0x3d743791	0.059623305
28	0x3dee4039	0.11633343
29	0x3dc80869	0.09767229
30	0x3cf65687	0.030070556
31	0x3db65cbb	0.08904406
32	0x3e4f77b0	0.20260501
33	0xbddba1cd	-0.107242204
34	0x3e17c4fe	0.1482124
35	0x3e265325	0.16242655
36	0xbd23f7b0	-0.040031135
37	0x3e22a5a5	0.15883501
38	0x3d819542	0.06327297
39	0xbdc84238	-0.09778255
40	0x3d3a06bf	0.04541659
41	0x3b887807	0.004164699
42	0x3eae3ea5	0.3403217
43	0x3e946aa5	0.28987613
44	0x3e500ee4	0.2031818
45	0xbd1fb405	-0.03899004
46	0x3cdfd6d8	0.027324125
47	0x3e726a06	0.23673257
48	0xbd9e0553	-0.07715859
49	0x3cb221b6	0.02174459
50	0x3da96d2f	0.08272778
51	0x3d13465c	0.03595577
52	0x3de5f4ef	0.11228358
53	0x3e422b83	0.18961911
54	0x3cd936f6	0.026515465
55	0xbd1b366e	-0.037893705
56	0x3e1970cf	0.1498444
57	0x3dd240d9	0.10266275
58	0xbd030511	-0.031987254
59	0xbc81ee26	-0.015860628
60	0x3e211a9f	0.15732811
61	0xbecaed3c	-0.3963412
62	0x3e0f77ae	0.14010498
63	0x3dced409	0.10099036
64	0xbd611000	-0.0549469
65	0x3e7f2620	0.24916887
66	0x3e203859	0.15646495
67	0x3e04950a	0.12947479
68	0x3e5524b0	0.20814776
69	0x3d4d6685	0.0501466
70	0x3d1b3529	0.037892494
71	0x3dbd73b1	0.09250582
72	0x3d785fb9	0.060638163
73	0x3dd7f79f	0.10545277
74	0x3c56d245	0.013111656
75	0x3e642ddb	0.22283117
76	0x3e2d3b0d	0.16917057
77	0xbf48f2a0	-0.78495216
78	0x3e00eed9	0.12591113
79	0x3e3b0602	0.1826401
80	0xbb55f46f	-0.0032646914
81	0x3d3b760d	0.04576688
82	0x3d9f7dd1	0.077876695
83	0x3e3c5e77	0.1839541
84	0x3d707401	0.05870438
85	0x3e9b67ba	0.30352575
86	0x3d82b612	0.063823834
87	0x3e1547bd	0.14578147
88	0x3da684de	0.08130811
89	0x3df41efd	0.11919973
90	0x3e479888	0.1949178
91	0x3dee31cf	0.11630594
92	0x3e4882c9	0.1958114
93	0xbd8a094d	-0.06740055
94	0x3dfbebce	0.123008355
95	0x3dcbebe5	0.09957103
96	0x3c61fbca	0.013792941
97	0xbc64b213	-0.013958472
98	0x3c0c5be4	0.00856683
99	0xbcd6622d	-0.02616986

weight f4 [3, 100]
0	0x3db6de4b	0.08929118
1	0xbe8d2712	-0.2756887
2	0xbcd82d18	-0.02638869
3	0x3e9114ea	0.2833627
4	0x3d49d786	0.049277805
5	0x3db0577b	0.086104356
6	0x3ea9d31e	0.33168882
7	0x3ec9b124	0.3939296
8	0x36f79e30	7.379589e-06
9	0xbe858517	-0.26078102
10	0x3cc520eb	0.024063548
11	0xbdd422be	-0.10358189
12	0x3e1f122a	0.15534273
13	0xbb5fdd14	-0.0034158872
14	0xbe47597e	-0.19467732
15	0xbec22ec0	-0.37926292
16	0xbf04f6c7	-0.5193905
17	0x3d5cefbe	0.053939573
18	0xbca30f2a	-0.019904692
19	0x3c9b3467	0.018945886
20	0x3d0b2d26	0.033978604
21	0xbf0cef12	-0.5505229
22	0xbe9ce025	-0.3063976
23	0xbb2be3d3	-0.0026228323
24	0xbe4951e6	-0.19660148
25	0x3e2d3081	0.16913034
26	0x3e454592	0.1926482
27	0xbec4bff9	-0.38427714
28	0x3de67c9b	0.11254235
29	0xbe377e1b	-0.17919199
30	0x3ede4f69	0.4341996
31	0x3edae918	0.4275596
32	0xbd3dad31	-0.046307746
33	0x3df4d823	0.11955287
34	0x3dfefbb9	0.12450356
35	0xbe3fa700	-0.18716049
36	0x3bfc723e	0.0077040484
37	0xbe146cd8	-0.14494646
38	0x3de08af6	0.10964005
39	0x3db727a1	0.089431055
40	0x3dc9f57e	0.09861277
41	0x3ead7eae	0.3388571
42	0xbf11f182	-0.57009137
43	0xbee99bff	-0.45626828
44	0xbd8d24a0	-0.06891751
45	0x3eb439f8	0.35200477
46	0x3e139fd6	0.14416441
47	0xbeb12c5d	-0.3460416
48	0x3e4c3ac2	0.1994429
49	0x3cb145d4	0.021639742
50	0x3e07dc85	0.13267715
51	0xbd36df00	-0.044646263
52	0x3dcd5df6	0.10027687
53	0xbe8c1d56	-0.27366132
54	0x3ed0e3f0	0.40798903
55	0x3e61df6b	0.22057883
56	0xbe899eb2	-0.26878887
57	0x3e6956d8	0.22787035
58	0x3db9ed68	0.09078485
59	0xbd81d58a	-0.063395575
60	0xbe4273e0	-0.18989515
61	0xbebcd848	-0.3688376
62	0x3d2d9d38	0.042386264
63	0x3e3f1877	0.18661676
64	0x3e5a9eae	0.21349594
65	0xbdcc3c48	-0.09972435
66	0xbefb7187	-0.49110052
67	0x3e1c0f88	0.152403
68	0xbcf03caa	-0.029325802
69	0x3e2603b4	0.1621235
70	0x3ecdcc6d	0.40195027
71	0xbdfa60f0	-0.122255206
72	0x3e17bbe7	0.14817773
73	0x3e43b203	0.19110875
74	0x3eb1eb0b	0.34749636
75	0xbdd767f1	-0.10517872
76	0xbe8be809	-0.27325466
77	0xbeff6213	-0.49879512
78	0x3cb4d8c1	0.022076013
79	0x3df3d8e0	0.119066
80	0x33ed1765	1.1040428e-07
81	0x3e65d1c9	0.22443308
82	0x3d6ed898	0.05831203
83	0xbe8a0d6e	-0.2696337
84	0x3e2300b0	0.15918231
85	0xbea0738e	-0.3133816
86	0x3e8efd47	0.2792761
87	0x3d864a42	0.06557132
88	0x3ddeadbf	0.10872983
89	0x3dcfb0d1	0.10141147
90	0x3dc47526	0.09592657
91	0x3d10b9c9	0.03533343
92	0xbd885f09	-0.066587515
93	0xbd962ffa	-0.073333696
94	0x3e114de2	0.14189866
95	0x3e82d5cd	0.25553742
96	0x3da58891	0.080826886
97	0xbc96517b	-0.0183494
98	0x3e7b02a6	0.24512729
99	0xbbb7b8a5	-0.005606728
100	0xbdb943c4	-0.090461284
101	0xbe549664	-0.20760494
102	0xbe985e57	-0.29759476
103	0x3e6d89b3	0.2319706
104	0x3d1fc085	0.03900196
105	0x3e802e55	0.2503535
106	0xbe8ae426	-0.27127188
107	0xbeb5d022	-0.35510355
108	0xba0743be	-0.00051599357
109	0x3e82e253	0.25563297
110	0xbea89b2f	-0.32930896
111	0xbe9565ec	-0.29179323
112	0x3e965a04	0.2936555
113	0xbd12f643	-0.035879385
114	0x3e6fd2d2	0.23420265
115	0xbea68f98	-0.32531428
116	0xbe6da368	-0.23206866
117	0xbea5dc44	-0.32394612
118	0x3e9e0a17	0.30867073
119	0x3e830331	0.25588372
120	0xbe988c57	-0.2979457
121	0xbe6b9233	-0.2300499
122	0xbd495d66	-0.049161337
123	0x3c91f487	0.017816795
124	0xbe56886a	-0.20950475
125	0x3e8a3ce1	0.26999572
126	0x3ea26394	0.31716597
127	0xbe7083ee	-0.23487827
128	0x3e8b5809	0.27215603
129	0xbe8def42	-0.27721602
130	0xbe8c021e	-0.27345365
131	0xbead8cfe	-0.3389663
132	0x3e808ed7	0.25108978
133	0x3e847e73	0.25877723
134	0x3e8b29cc	0.27180326
135	0x3eaa8283	0.33302698
136	0x3d687179	0.05674884
137	0x3e98cccf	0.29843757
138	0x3e7768cb	0.24161069
139	0x3d849a82	0.064747825
140	0xbea9382c	-0.33050668
141	0xbea6f7b5	-0.3261086
142	0xbe8ba326	-0.2727291
143	0xbe9c49ef	-0.30525157
144	0xbe9d9691	-0.30778936
145	0xbeb2cdef	-0.3492274
146	0x3e69bb36	0.22825322
147	0x3e92fa32	0.2870651
148	0xbe8a0a10	-0.26960802
149	0x3bd34c0d	0.006448275
150	0x3ea60535	0.32425848
151	0x3c9b8bf0	0.018987626
152	0x3e90c555	0.28275552
153	0xbe88792d	-0.2665495
154	0xbea7ba93	-0.32759532
155	0x3eab57aa	0.3346532
156	0xbe7ec95e	-0.24881503
157	0x3e425006	0.18975839
158	0x3d72db95	0.05929144
159	0xbc8e2eba	-0.017356265
160	0x3e63d1f3	0.22248058
161	0x3e38e431	0.18055798
162	0xbe8c8711	-0.27446797
163	0xbeb5c2e7	-0.3550026
164	0x3e849824	0.25897324
165	0x3e90eada	0.28304178
166	0xbea610b2	-0.32434613
167	0x3e9b710c	0.30359685
168	0x3e919ab4	0.28438342
169	0x3e9a949e	0.3019151
170	0xbea59845	-0.32342735
171	0x3eb1137a	0.34585172
172	0xbeaa2e2f	-0.3323836
173	0xbe9b4e5f	-0.3033323
174	0xbea77b16	-0.32711095
175	0xbe8e10ac	-0.27747095
176	0xbe92aff6	-0.28649873
177	0x3e5745fe	0.21022794
178	0x3ea518e6	0.32245559
179	0x3e84f03b	0.2596453
180	0xbc612f5e	-0.013744203
181	0x3e7e775c	0.2485022
182	0x3eae89fa	0.34089643
183	0xbe776312	-0.24158886
184	0xbe8a2a4c	-0.26985395
185	0x3e95618a	0.2917598
186	0xbe8ace32	-0.2711044
187	0xbea67e48	-0.3251822
188	0x3e875fa9	0.2644017
189	0x3e80ec23	0.25180158
190	0x3e930db2	0.28721386
191	0x3e9fb85b	0.3119534
192	0x3e83ffaa	0.25780994
193	0x3be163a3	0.0068783327
194	0x3ea39239	0.31947497
195	0xbe96a07a	-0.2941931
196	0xbd60bb81	-0.054866318
197	0x3c76f766	0.015073633
198	0xbe9c7414	-0.3055731
199	0xbb97d433	-0.0046334504
200	0x3d22bacf	0.039728936
201	0x3e987b31	0.29781488
202	0x3e806644	0.25078022
203	0x3df1f550	0.11814368
204	0x3da4476d	0.08021436
205	0xbed7170b	-0.42009768
206	0x3e0125db	0.12612097
207	0xbde92599	-0.11384124
208	0x24360729	3.9471024e-17
209	0x3ea6e901	0.32599643
210	0x3e948755	0.290095
211	0x3e92740e	0.28604168
212	0x3e9cc204	0.30616772
213	0xbd631561	-0.05544031
214	0x3e9a8109	0.3017657
215	0x3e355069	0.17706455
216	0xbecf839a	-0.40530092
217	0xbe1e8b4b	-0.15482824
218	0x3e9afb80	0.30270004
219	0x3ea3e931	0.32013848
220	0xbed8c5d9	-0.42338446
221	0x3d7911ef	0.06080812
222	0xbead0047	-0.33789274
223	0xba3b8458	-0.00071532046
224	0x3eb257f7	0.34832737
225	0x3eb39999	0.35078123
226	0x3e1a12d0	0.15046239
227	0x3e9e0f6c	0.3087114
228	0x3e95b426	0.29239005
229	0x3e64b065	0.22332914
230	0x3dcf8ac5	0.1013389
231	0x3dd5bb9a	0.10436173
232	0x3e832e84	0.25621426
233	0xbde32ffc	-0.11093137
234	0x3ea8c06a	0.329593
235	0xbe6f5037	-0.23370443
236	0x3c7da362	0.015480848
237	0x3e608625	0.21926172
238	0x3e694e65	0.22783811
239	0xbdb9c451	-0.090706475
240	0x3e80912e	0.25110763
241	0x3e7e9229	0.24860443
242	0x3d8e4d66	0.06948356
243	0x3dd61084	0.10452369
244	0x3ea7075a	0.32622796
245	0xbe8c84af	-0.2744498
246	0x3e8f4fd5	0.27990595
247	0xbdca281f	-0.09870934
248	0x3eb4ee34	0.35337985
249	0xbcb99d0b	-0.022657892
250	0xbec38c7b	-0.38193116
251	0xbccba794	-0.02486018
252	0xbec38135	-0.38184515
253	0x3e8d45fd	0.2759246
254	0x3d85bb6f	0.06529891
255	0xbcedafdc	-0.02901452

bias f4 [3]
0	0xbc2dab53	-0.010599929
1	0xbdd89790	-0.10575783
2	0x3dbbd8f7	0.09172242
